pred_logs_lstm/87031_pred24/epoch=38-step=10686.ckpt (torch, 7474 bytes, 12 tensors)

lstm.weight_ih_l0 f4 [4, 11]
00000000: 422b b9be 686e aebf d44d babe 79ad 84be
00000010: d1cf 9fbd 0d69 293f f057 d63d c07d 75bf
00000020: de0a 473f ece8 2c40 d66e 7bbe 80b1 643d
00000030: 7ad9 e4bd 4334 a03e 803a 183f 03f2 bf3f
00000040: 51ba 80bf c8ce dcbd f66b 3140 9591 f3bf
00000050: ed6c 19be 6b24 9d3e 62a0 f0be 66f6 8d40
00000060: 98c6 1a3f f099 123d eec6 223f 7820 4a3f
00000070: fd8c f4be c1c5 573f 90ab 8fbf 96c7 bbbc
00000080: cc08 993e 4c8f 453f e7f2 dcbf 578f abbe
00000090: eea2 a5bc 0712 08bf 0669 29bf bedc 113e
000000a0: 1b6f d03d b5e7 243f 923e cabf ceba a2be
-0.36165816 -1.3627443 -0.36387503 -0.259136 -0.0780331 0.6617592 0.104659915 -0.95895004
0.77750957 2.7017164 -0.24554 0.05583334 -0.11174293 0.31289873 0.59464264 1.4995731
-1.0056859 -0.10781628 2.7722144 -1.9028803 -0.14982958 0.30691847 -0.46997362 4.436328
0.6045928 0.035791337 0.6358479 0.78955793 -0.47763816 0.84286124 -1.1224232 -0.022922318
0.29889524 0.7717178 -1.7261628 -0.33507797 -0.020219292 -0.5315251 -0.6617588 0.14244363
0.10177442 0.64416057 -1.5800345 -0.31783146

lstm.weight_hh_l0 f4 [4, 1]
00000000: 7978 423f a1f7 0b40 076a 2bc0 922d 003f
0.75965077 2.186989 -2.6783464 0.50069535

lstm.bias_ih_l0 f4 [4]
00000000: 72e6 c93e 5efb 623c 7449 b9be eb8a f73e
0.39433628 0.013853876 -0.36188853 0.48348173

lstm.bias_hh_l0 f4 [4]
00000000: 3192 103e 27ae e23d 1624 21be 4073 0dbe
0.14118268 0.11068373 -0.15736422 -0.13813496

exp_avg f4 [4, 11]
00000000: 1cae 3eb8 4fcc 85b7 f4e4 8437 5705 84b7
00000010: 684b 8637 10c7 9cb7 8603 ddb7 2deb 5237
00000020: 3d55 0e37 1802 1038 c2a0 7e37 68ed d3b8
00000030: 10b9 f1b8 1689 5b39 d115 45b8 7cfd 0338
00000040: c957 9cb9 ae4d 16b9 5030 d7b8 7439 5336
00000050: 4c89 eb37 b265 6cb9 e1ef e53a 6390 6238
00000060: a958 eeb9 d4ae 7d3a 42dc 31b9 4493 7b3a
00000070: 73e7 6539 2407 8bb9 e286 52b8 aed9 dfba
00000080: 12c1 57ba 9bb7 1fba e3dd b2b9 4a23 8a3a
00000090: b868 d0b9 5878 ca39 a58e 89ba 3cb0 38ba
000000a0: b570 38b8 4445 8d37 70f8 cf39 447b 7fba
-4.5461682e-05 -1.5949974e-05 1.584224e-05 -1.5738113e-05 1.6009159e-05 -1.8689345e-05 -2.6346894e-05 1.25717315e-05
8.483706e-06 3.4334225e-05 1.5177009e-05 -0.000101054844 -0.00011526246 0.00020936536 -4.698878e-05 3.146891e-05
-0.00029820044 -0.00014334053 -0.00010260998 3.1474892e-06 2.8078117e-05 -0.00022544598 0.0017542803 5.401707e-05
-0.00045460954 0.00096772355 -0.00016962088 0.00095968344 0.00021925363 -0.00026517466 -5.019352e-05 -0.0017078423
-0.0008230369 -0.0006092728 -0.00034116124 0.0010539081 -0.00039750873 0.00038618105 -0.0010494782 -0.0007045304
-4.3973985e-05 1.6840764e-05 0.00039667217 -0.0009745846

exp_avg_sq f4 [4, 11]
00000000: 2533 ae36 f2d3 9a35 ceaf 1f36 06bf f235
00000010: e690 3135 4bcf bd36 46d9 2c35 9ec5 4b34
00000020: 5465 8a33 b2f4 e435 51f0 8135 dac8 8136
00000030: 1eea 6d35 bf3f d735 0700 b535 306a ce34
00000040: bd6d 6536 cb23 0235 a9a8 0c34 ba70 4633
00000050: 6ce9 7e35 324b 0435 55ef de37 66c6 9335
00000060: 2fb3 5436 981a 3137 becd 0f36 83d4 dc36
00000070: 48ac bd35 db1b ea35 e082 ed33 a472 6f37
00000080: 6ece 0936 933f a937 64bc 9d36 240f 0537
00000090: 7765 be36 35ef 4336 7897 8c37 a0e3 2836
000000a0: 2daa 4735 0e5a de34 2a9f fa36 29a4 c235
5.191558e-06 1.1535578e-06 2.3795178e-06 1.8086e-06 6.6148493e-07 5.656771e-06 6.439117e-07 1.8977741e-07
6.444557e-08 1.705854e-06 9.68119e-07 3.867882e-06 8.8630065e-07 1.6037301e-06 1.3485559e-06 3.8447752e-07
3.4187535e-06 4.848086e-07 1.3099874e-07 4.620299e-08 9.4962047e-07 4.9283256e-07 2.657591e-05 1.1010095e-06
3.169476e-06 1.0556214e-05 2.1428418e-06 6.5812505e-06 1.4131738e-06 1.7442466e-06 1.10599785e-07 1.4272202e-05
2.0534749e-06 2.0175974e-05 4.700896e-06 7.930943e-06 5.6742533e-06 2.9196501e-06 1.6759834e-05 2.5166446e-06
7.4380915e-07 4.1416246e-07 7.4691097e-06 1.4501903e-06

exp_avg f4 [4, 1]
00000000: 7174 46b7 7193 e7b8 d47c fe36 4692 7bb9
-1.1828831e-05 -0.000110424015 7.584322e-06 -0.00023991716

exp_avg_sq f4 [4, 1]
00000000: 0b06 6135 cbb5 4435 29aa 4c35 86b4 7f36
8.3827825e-07 7.3280233e-07 7.624354e-07 3.810304e-06

exp_avg f4 [4]
00000000: 905f 3f38 6513 d638 9005 e6ba d084 1d3a
4.5626948e-05 0.00010207928 -0.0017549265 0.00060088653

exp_avg_sq f4 [4]
00000000: 3d13 b236 7aca 8436 1db8 e037 b80a ae37
5.307053e-06 3.957478e-06 2.6788615e-05 2.0747408e-05

exp_avg f4 [4]
00000000: 905f 3f38 6513 d638 9005 e6ba d084 1d3a
4.5626948e-05 0.00010207928 -0.0017549265 0.00060088653

exp_avg_sq f4 [4]
00000000: 3d13 b236 7aca 8436 1db8 e037 b80a ae37
5.307053e-06 3.957478e-06 2.6788615e-05 2.0747408e-05
