pred_ff/87031_pred/epoch=96-step=53059.ckpt (torch, 24858 bytes, 18 tensors)

linear1.weight f4 [30, 11]
0.14690563 0.049552668 -0.024387872 0.021960936 0.877892 0.13350062 -0.55304074 0.843023
-0.3287294 -0.060728505 0.08628307 0.2049559 1.0752563 -0.15549496 0.09693751 0.5954423
0.2284344 -0.33770958 0.3458192 -0.109094046 0.06933206 0.66443694 -0.16193235 -0.615369
0.14591347 0.008913897 -0.8379975 0.2668866 -0.11189048 -0.23356123 -0.41223925 0.08020549
0.16386536 -0.022638207 0.45947716 0.2529142 -0.0045896443 0.22935027 0.15072079 -0.20066601
-0.20503893 -1.3227106 0.61964 0.008647017 0.16978885 0.13762128 -0.107463 0.031428427
0.46105644 -0.28492066 0.45860353 0.111909136 -0.48851866 -0.4744291 0.4386488 0.101655625
0.00575501 0.2618884 -0.041639354 0.13722955 0.19646432 0.11983508 -0.3431396 -1.5966953
-0.63625133 -0.27802828 0.34330344 0.56919044 -0.060126044 0.04410416 -0.18745992 -0.10206564
0.254786 0.06208849 -1.0878959 -0.09923732 0.4826436 -0.03721883 0.9840594 0.28941658
-0.008173684 0.1971896 -0.05999139 -0.6090123 0.17840476 -1.0569482 0.009760672 -0.05362575
-0.022871451 0.89048994 0.33561105 -0.0130906645 0.63770163 0.036824875 -0.02032151 -0.5974822
-0.4803762 -0.29562885 -0.127042 0.3168165 -0.55509764 0.18987231 -0.0061070886 0.2470719
0.636265 -0.2206379 0.7103267 -0.12582596 0.06434158 -0.07257396 0.13313963 0.29405105
0.25187203 0.00070219877 0.7426114 0.16108008 0.24401699 -0.21984945 0.3986263 0.7183751
-0.04288866 -0.22206768 0.48934948 -0.19193922 -0.001858506 0.322995 -0.23885272 -0.21824096
-0.4236612 -0.33550444 0.03256492 -0.004771827 0.21262835 -0.5180234 -0.17223683 0.018106012
-0.07188501 -0.1915436 0.23708065 -0.20502627 -0.17824483 -0.036070347 0.74334675 0.26071614
-0.12177861 -0.05287909 0.08140276 -0.26817283 0.24948259 -0.11071142 0.15686004 -0.12415071
-0.053509578 0.24212159 0.024743674 -0.49074483 0.13909917 0.23048182 0.40298113 -0.061591476
0.17585528 0.9576323 -0.06456558 0.068890065 -0.13249521 0.20102805 -0.1412839 -0.007232297
-0.009812349 -0.89018893 -0.109928034 0.14519422 -0.82209873 -0.13276985 -0.024136504 -0.040889725
0.029769685 0.12107878 -0.017640654 0.021232128 -0.114791036 -0.52520233 0.120162405 -0.017985824
-0.10174622 0.14057282 -0.91847336 -0.095547445 -0.15422297 0.17168105 0.0068803234 0.065618075
0.13018434 -0.03607713 0.09986591 -0.24266958 0.8313549 0.036627635 -0.02858863 0.2740862
-0.35899514 0.0048922566 0.6598504 0.45730487 0.42641655 -0.18926677 -1.1696808 -0.22779387
0.2778941 -0.10149496 -0.5942901 0.15728717 0.021383373 -0.04285034 -0.43450135 -0.33631417
-0.05504832 0.25210673 -0.013641673 0.011050625 -0.18121035 -0.31773302 0.0800798 -0.025598472
0.2112869 -0.3342624 0.058948703 -0.18663421 -0.014141745 0.23327239 0.3319778 0.08568227
-0.7828018 0.0990807 -0.003924056 -0.22625077 0.19031002 -0.338493 -0.16028681 -0.2921386
-0.037170365 -0.41690114 0.19436081 0.070075326 0.062117178 0.008873319 -0.15558477 0.02938305
0.07622893 0.39498705 -0.018187001 -0.84989184 -0.053075667 -0.06636147 -0.13464327 0.10389758
00000000: 6e6e 163e bdf7 4a3d 13c9 c7bc 6ce7 b33c
00000010: 88bd 603f 63b4 083e 1494 0dbf 5bd0 573f
00000020: 384f a8be 74be 78bd 2eb5 b03d f6df 513e
00000030: 00a2 893f 123a 1fbe 2c87 c63d e86e 183f
00000040: b5ea 693e 45e8 acbe 370f b13e b36c dfbd
00000050: f8fd 8d3d 8a18 2a3f 98d1 25be d388 1dbf
00000060: 576a 153e 980b 123c 0187 56bf 5ca5 883e
00000070: d626 e5bd ad2a 6fbe 0611 d3be c742 a43d
00000080: 52cc 273e c373 b9bc 9740 eb3e f87d 813e
00000090: ba64 96bb ccda 6a3e 8d56 1a3e 647b 4dbe
000000a0: baf5 51be 954e a9bf baa0 1e3f 38ac 0d3c
000000b0: 21dd 2d3e 98ec 0c3e 9015 dcbd 18bb 003d
000000c0: 970f ec3e 1fe1 91be 15ce ea3e 9e30 e53d
000000d0: 1e1f fabe 5fe8 f2be 9396 e03e d330 d03d
000000e0: 8694 bc3b 3d16 863e 078e 2abd e785 0c3e
000000f0: f12d 493e 186c f53d feaf afbe 8360 ccbf
00000100: 5ee1 22bf b959 8ebe 78c5 af3e 77b6 113f
00000110: ba46 76bd 90a6 343d 7ef5 3fbe ca07 d1bd
00000120: 5073 823e 8050 7e3d 2c40 8bbf f03c cbbd
00000130: 101d f73e c672 18bd 51eb 7b3f 692e 943e
00000140: eaea 05bc 12ec 493e 88b9 75bd 3be8 1bbf
00000150: bdaf 363e 144a 87bf 3aeb 1f3c ada6 5bbd
00000160: e95c bbbc 26f7 633f 36d5 ab3e 3a7a 56bc
00000170: 6a40 233f aed5 163d 4c79 a6bc 98f4 18bf
00000180: dff3 f5be aa5c 97be 4c17 02be c635 a23e
00000190: e11a 0ebf e36d 423e f91d c8bb 6b00 7d3e
000001a0: 43e2 223f e7ee 61be f8d7 353f 85d8 00be
000001b0: 85c5 833d a8a1 94bd c155 083e dc8d 963e
000001c0: 5ff5 803e c313 383a c81b 3e3f 2df2 243e
000001d0: 97df 793e 3720 61be bf18 cc3e 6ee7 373f
000001e0: 05ac 2fbd b665 63be 048c fa3e b78b 44be
000001f0: 1d99 f3ba 9a5f a53e cf95 74be 8f7a 5fbe
00000200: 1fea d8be 3dc7 abbe cb62 053d fc5c 9cbb
00000210: 3fbb 593e 2e9d 04bf da5e 30be 0f53 943c
00000220: 7338 93bd 0124 44be 45c5 723e 68f2 51be
00000230: d085 36be 80be 13bd f94b 3e3f 967c 853e
00000240: 1067 f9bd bf97 58bd 7eb6 a63d f34d 89be
00000250: 5d78 7f3e abbc e2bd eb9f 203e ba42 febd
00000260: dc2c 5bbd b9ee 773e 3fb3 ca3c e842 fbbe
00000270: 0370 0e3e 6d03 6c3e 8b53 ce3e 5847 7cbd
00000280: 6813 343e 6427 753f f53a 84bd 3c16 8d3d
00000290: d3ac 07be 4cda 4d3e baac 10be e8fc ecbb
000002a0: fac3 20bc 6ce3 63bf f321 e1bd cbad 143e
000002b0: 1075 52bf d2f4 07be ebb9 c5bc fc7b 27bd
000002c0: 8edf f33c 27f8 f73d 2283 90bc 00ef ad3c
000002d0: 9017 ebbd a973 06bf b517 f63d 0257 93bc
000002e0: 5260 d0bd 52f2 0f3e 1221 6bbf 61ae c3bd
000002f0: a0ec 1dbe 28cd 2f3e 5674 e13b c562 863d
00000300: 0b4f 053e 9dc5 13bd 8086 cc3d 607e 78be
00000310: add3 543f dc06 163d b432 eabc 0755 8c3e
00000320: 36ce b7be 394f a03b f5eb 283f dd23 ea3e
00000330: 4553 da3e 26cf 41be 1ab8 95bf cc42 69be
00000340: 2348 8e3e 97dc cfbd 6523 18bf e30f 213e
00000350: 2f2c af3c d783 2fbd f676 debe 5f31 acbe
00000360: 597a 61bd 2214 813e 5381 5fbc ae0d 353c
00000370: 358f 39be e7ad a2be e100 a43d e3b3 d1bc
00000380: 985b 583e 7124 abbe 3274 713d 0a1d 3fbe
00000390: c7b2 67bc f5de 6e3e fff8 a93e 307a af3d
000003a0: b365 48bf d2ea ca3d 5e95 80bb 48ae 67be
000003b0: a1e0 423e f44e adbe 3a22 24be 3193 95be
000003c0: f43f 18bd 1174 d5be 8506 473e a783 8f3d
000003d0: 956e 7e3d 6661 113c 9d51 1fbe b9b4 f03c
000003e0: ea1d 9c3d be3b ca3e e8fc 94bc 8392 59bf
000003f0: df65 59bd 86e8 87bd eddf 09be 41c8 d43d

linear1.bias f4 [30]
-0.08502547 0.26229042 -0.12791888 0.039674446 -0.06507566 -0.11850828 -0.035292353 0.102904454
0.0491813 0.20246188 -0.09894196 -0.127027 -0.2650676 -0.32027635 -0.20932116 -0.18150471
-0.27725673 -0.26815352 -0.12274349 -0.21036777 -0.13225862 0.15306595 -0.18518583 0.00012895852
-0.3696334 -0.004563436 -0.115455955 -0.10630969 0.063923046 -0.016025165
00000000: d521 aebd ee4a 863e 2bfd 02be ac81 223d
00000010: 6346 85bd 78b4 f2bd b78e 10bd 92bf d23d
00000020: 5572 493d 2b52 4f3e 15a2 cabd 5e13 02be
00000030: f1b6 87be 43fb a3be 4958 56be 5fdc 39be
00000040: 98f4 8dbe 6b4b 89be f060 fbbd a66a 57be
00000050: ce6e 07be 52bd 1c3e 5ba1 3dbe 0a39 0739
00000060: 9740 bdbe e088 95bb 2c74 ecbd e5b8 d9bd
00000070: 16ea 823d 3547 83bc

linear2.weight f4 [30, 30]
0.5112402 0.105925955 0.004141014 0.102530114 0.33090547 -0.6006155 -0.41591927 0.6050615
0.2712948 -0.46950254 -0.108041145 0.2555389 -0.8810776 -0.07628947 -0.21967824 -0.42648524
-0.38834447 -0.35270616 0.053265993 -0.28222832 -0.06414057 -0.36338142 -0.42193216 0.11741793
-0.08877098 -0.27485096 -1.1000597 -0.3585384 -0.09579745 -0.69955546 -0.23496585 -0.37953106
-0.12719744 0.26604155 -0.77666754 0.15111396 -1.0719559 0.13834524 0.1691841 0.19529654
0.20042188 -0.097673185 0.114348054 -0.0643681 -0.029383149 -0.29233152 0.5755466 -0.15346031
0.3156487 0.04791541 -0.23897812 0.3713481 -0.16116926 0.13463107 0.058292493 0.097918086
0.34240806 0.022408836 0.20204923 -0.04274292 0.17452659 0.08600354 -0.88672143 0.22267903
-0.032453857 0.39943984 0.5259911 0.53439957 -0.26003757 0.038316123 0.060355086 0.10536205
-0.2030088 0.08487188 -0.18265083 -0.36136004 0.076088786 0.050700072 0.09955525 0.19543642
-0.09349951 0.058205497 -0.05502859 -0.237618 -0.15056182 -0.68175524 0.025888951 0.37998095
0.12771322 0.07924208 0.24685241 -0.22113957 -0.0809885 -0.63924414 0.102676325 -0.44692585
-0.20733036 0.09824218 0.13576888 0.017329048 -0.4613295 0.32996386 -0.21278065 0.06671017
-0.090310626 0.2005647 0.003972419 -0.31849733 0.31778443 0.066289745 -0.074620396 0.14287281
-0.5980899 0.30947185 -0.031240698 -0.47353145 0.2819863 -0.01665666 -0.22474112 -0.13636804
-0.14001952 0.09621271 -0.0052624643 0.0726071 0.0037518237 0.034053396 -0.22800846 -0.026658852
-0.17559986 -0.042119306 -0.02284552 0.04915093 -0.19538824 -0.076909244 -0.2151835 -0.16974105
-0.024749687 -0.103733145 0.08744294 -0.019071266 -0.087855645 -0.18468906 0.029652055 -0.20285656
-0.0845632 0.1403482 0.14769381 0.14789966 -0.18639185 -0.029694382 0.10645349 -0.24171776
0.06375776 -0.40342373 -0.15960059 -0.29198873 -0.12870349 -0.052269164 -0.31253567 -0.053348746
-0.06819518 0.083885364 0.38493028 0.14170021 0.12129262 0.0066337013 0.20545667 -0.17218482
0.3300673 0.21193619 0.21308611 0.19616313 -0.2847321 -0.056847934 0.27294815 -0.42688218
0.29411107 0.01888554 -0.3591268 0.2792046 0.0775932 0.07163792 -0.076823115 0.29224342
-0.08227349 -0.14938664 0.054146923 0.109879375 -0.26712844 0.33820966 0.076580495 0.12927811
-0.028304016 -0.02954579 0.113255665 0.061486326 0.12084728 -0.8586736 0.120834425 -0.08859663
-0.04126167 -0.17098157 -0.67597175 0.16538027 0.09464352 -0.091327846 -0.15749812 0.03604586
-0.031251308 0.013368653 -1.2858291 0.20693515 -0.16142519 0.13522926 -0.19869386 0.26224616
0.071469046 0.103003 0.13194022 0.03739714 0.34168935 0.3138451 -0.052500967 -0.13775246
-1.086101 -1.2315555 0.10132683 -0.062021416 0.16202892 -0.039933167 0.21839133 0.0112092765
-0.08561266 -0.30500606 -0.8604219 0.26790783 -0.23764735 0.14673875 0.22221847 -0.17758605
-0.0030352464 0.26835182 -0.14870524 -0.3341003 -0.22929916 0.004997862 0.38290972 0.22996302
0.55656993 -0.10739365 -0.37643492 0.106030814 0.47899362 0.014719717 0.18696049 0.015410188
00000000: a3e0 023f b5ef d83d 58b1 873b 4ffb d13d
00000010: 716c a93e f0c1 19bf 5ff3 d4be 4fe5 1a3f
00000020: 27e7 8a3e a362 f0be ad44 ddbd ffd5 823e
00000030: 4d8e 61bf a73d 9cbd 55f3 60be 465c dabe
00000040: 16d5 c6be e795 b4be 712d 5a3d 3b80 90be
00000050: 225c 83bd 210d babe 7e07 d8be d078 f03d
00000060: 8fcd b5bd 44b9 8cbe c2ce 8cbf 5892 b7be
00000070: 7431 c4bd 1116 33bf e39a 70be e551 c2be
00000080: 0c40 02be 9936 883e afd3 46bf 9ebd 1a3e
00000090: da35 89bf 60aa 0d3e 993e 2d3e d1fb 473e
000000a0: 653b 4d3e e108 c8bd 502f ea3d 6cd3 83bd
000000b0: eeb4 f0bc 7aac 95be 0657 133f b324 1dbe
000000c0: b59c a13e f342 443d aeb6 74be 5721 be3e
000000d0: 8e09 25be badc 093e 1cc4 6e3d 4789 c83d
000000e0: 1c50 af3e bc92 b73c fee5 4e3e 3313 2fbd
000000f0: 19b7 323e a022 b03d 2d00 63bf f905 643e
00000100: 56ee 04bd 6183 cc3e 5aa7 063f 69ce 083f
00000110: a523 85be 5ef1 1c3d e536 773d 0fc8 d73d
00000120: 8ae1 4fbe 4fd1 ad3d d208 3bbe 2f04 b9be
00000130: 70d4 9b3d e1aa 4f3d 9fe3 cb3d 7c20 483e
00000140: ac7c bfbd e368 6e3d a965 61bd 2252 73be
00000150: e12c 1abe 8387 2ebf 1115 d43c dd8c c23e
00000160: 41c7 023e ac49 a23d e1c6 7c3e 6972 62be
00000170: 4cdd a5bd 81a5 23bf f747 d23d 77d3 e4be
00000180: 694e 54be 3233 c93d ff06 0b3e a6f5 8d3c
00000190: 6133 ecbe 06f1 a83e 2ce3 59be 579f 883d
000001a0: c7f4 b8bd d560 4d3e 112b 823b 1512 a3be
000001b0: a4b4 a23e ebc2 873d 94d2 98bd 404d 123e
000001c0: 6b1c 19bf 1873 9e3e 7eec ffbc b772 f2be
000001d0: 8260 903e 8c73 88bc 8922 66be 10a4 0bbe
000001e0: 4761 0fbe 2b0b c53d c070 acbb 08b3 943d
000001f0: 28e1 753b 937b 0b3d 0d7b 69be aa63 dabc
00000200: 73d0 33be 4b85 2cbd 8726 bbbc 7c52 493d
00000210: db13 48be 9882 9dbd 1059 5cbe 99d0 2dbe
00000220: dbbf cabc 0b72 d4bd 4915 b33d 583b 9cbc
00000230: a9ed b3bd 211f 3dbe dee8 f23c a1b9 4fbe
00000240: 792f adbd 70b7 0f3e 0c3d 173e 0273 173e
00000250: 81dd 3ebe a241 f3bc 4a04 da3d dc84 77be
00000260: 6e93 823d 8e8d cebe 566e 23be 8c7f 95be
00000270: d9ca 03be 3118 56bd ad04 a0be 3784 5abd
00000280: eaa9 8bbd 17cc ab3d 9515 c53e dc19 113e
00000290: 4468 f83d 855f d93b 3c63 523e 3851 30be
000002a0: 95fe a83e cd05 593e 3f33 5a3e fdde 483e
000002b0: 68c8 91be 61d9 68bd dcbf 8b3e 4d90 dabe
000002c0: ba95 963e d9b5 9a3c 78df b7be e8f3 8e3e
000002d0: 2fe9 9e3d e7b6 923d 7055 9dbd eea0 953e
000002e0: 017f a8bd d0f8 18be 2ac9 5d3d 7008 e13d
000002f0: 0fc5 88be d129 ad3e 3cd6 9c3d 7b61 043e
00000300: d3dd e7bc 030a f2bc 96f2 e73d 16d9 7b3d
00000310: c77e f73d 08d2 5bbf 0a78 f73d 2672 b5bd
00000320: ff01 29bd cb15 2fbe 7c0c 2dbf 7259 293e
00000330: 76d4 c13d 180a bbbd 3047 21be d3a4 133d
00000340: 5f01 00bd 3208 5b3c 0c96 a4bf cfe6 533e
00000350: a54c 25be 8a79 0a3e 6776 4bbe 2145 863e
00000360: 5d5e 923d 3df3 d23d 561b 073e be2d 193d
00000370: e8f1 ae3e 4eb0 a03e 410b 57bd fb0e 0dbe
00000380: 5c05 8bbf 9ca3 9dbf 7184 cf3d 2b0a 7ebd
00000390: e9ea 253e f690 23bd faa1 5f3e 1da7 373c
000003a0: b155 afbd c129 9cbe 9c44 5cbf 372b 893e
000003b0: d459 73be af42 163e 3d8d 633e 1ed9 35be
000003c0: fcea 46bb 6965 893e 3046 18be 320f abbe
000003d0: 66cd 6abe 1bc5 a33b be0c c43e 6d7b 6b3e
000003e0: 5e7b 0e3f 34f1 dbbd 14bc c0be af26 d93d
000003f0: a73e f53e f82a 713c 9272 3f3e 037b 7c3c

linear2.bias f4 [30]
0.21923451 -0.44964626 -0.3866437 0.26848608 -0.17830999 0.10342056 0.21160486 0.06718204
0.056440692 -0.21969944 -0.14496218 0.05627535 -0.06506652 0.056300923 0.044032868 -0.038826354
-0.2108027 0.07559388 0.024011228 -0.0015169547 -0.06701662 -0.22933082 0.052169796 -0.02489993
0.072941795 -0.21382467 -0.11728464 0.19860782 0.037137 0.237969
00000000: 037f 603e 0938 e6be 2af6 c5be 0277 893e
00000010: e596 36be 29ce d33d f2ae 583e bd96 893d
00000020: 5b2e 673d e4f8 60be f770 14be fb80 663d
00000030: 9841 85bd cc9b 663d cf5b 343d 6208 1fbd
00000040: aadc 57be f7d0 9a3d 32b3 c43c 8ed4 c6ba
00000050: 0240 89bd b3d5 6abe ffaf 553d f0fa cbbc
00000060: 8262 953d dbf4 5abe ee32 f0bd d95f 4b3e
00000070: f81c 183d 25ae 733e

linear3.weight f4 [2, 30]
-0.4419744 0.2835659 -0.29979894 -0.13562009 0.005316398 -0.19333985 0.08520272 0.27839515
-0.10259773 -0.4378271 0.29014927 -0.21131499 0.12401391 -0.058600456 0.23376508 0.047209114
-0.03671645 0.43233925 0.057667635 0.06936678 -0.1558773 0.029676951 -0.2551451 0.20991476
0.23097119 -0.15925616 0.37515995 -0.20673572 -0.2915576 0.049357925 -0.13670962 0.3311459
0.12867633 -0.0744492 -0.009990265 -0.09785806 -0.1690207 0.024904542 -0.2046371 -0.3678036
0.21901365 -0.12835118 0.03832832 0.22620456 0.12657726 -0.10322811 0.04514332 -0.13077186
-0.4253005 0.21025795 -0.021407336 0.0015076762 0.15630616 -0.015555489 0.29347777 -0.16925196
0.46180552 -0.12651928 0.24479847 -0.21447998
00000000: 784a e2be 8d2f 913e 3f7f 99be fedf 0abe
00000010: 2e35 ae3b e2fa 45be c37e ae3d cf89 8e3e
00000020: c21e d2bd e02a e0be 728e 943e f562 58be
00000030: 01fb fd3d 0807 70bd 1d60 6f3e 585e 413d
00000040: fd63 16bd 925b dd3e e634 6c3d 2c10 8e3d
00000050: 4d9e 1fbe 141d f33c 61a2 82be e5f3 563e
00000060: b683 6c3e 0c14 23be f714 c03e 87b2 53be
00000070: 0a47 95be 892b 4a3d 9bfd 0bbe f58b a93e
00000080: bac3 033e d278 98bd 35ae 23bc ce69 c8bd
00000090: c313 2dbe 9c04 cc3c 638c 51be c150 bcbe
000000a0: 1d45 603e 7e6e 03be 28fe 1c3d 2ba2 673e
000000b0: 789d 013e 4269 d3bd 34e8 383d 0fe9 05be
000000c0: fdc0 d9be dc4d 573e 705e afbc 389d c53a
000000d0: b90e 203e 73dc 7ebc b842 963e 6350 2dbe
000000e0: c671 ec3e 458e 01be 73ac 7a3e a4a0 5bbe

linear3.bias f4 [2]
-0.12448345 -0.10956211
00000000: 2ef1 febd 1962 e0bd

exp_avg f4 [30, 11]
-0.00095581845 -0.00015555846 0.00026358146 -0.00040964765 4.7444948e-05 0.0001814927 -0.00013566941 0.00027831108
6.3798536e-05 0.0009580358 0.00020927566 0.00086950883 0.00012464041 -0.0008553328 0.00050843274 -0.00035780753
0.00022813788 -4.0182786e-06 -0.00021048053 -2.438121e-05 -0.0010430044 -0.00068789045 -0.0011575504 -0.000110519264
0.0009844399 -0.00065065327 0.00024276372 -0.00034064965 1.457402e-05 -3.8006285e-05 5.215239e-05 0.0013146929
0.0006241204 0.00067750376 0.00045313925 -0.0012681277 0.00032535935 -0.0006889086 0.001716178 0.0003421454
-0.00038152837 -6.942384e-05 -0.00070256856 0.0008835935 -0.00030641808 0.000118430624 -4.700492e-05 -0.00021275482
-0.00012419788 -0.00021746257 0.00022308381 0.00012149446 1.2432232e-05 0.00030695603 0.000194569 -2.3865366e-07
-1.7423555e-07 2.7481803e-07 -1.3719333e-07 5.6987975e-08 -2.5873965e-07 -5.163169e-08 4.0064663e-08 1.2544206e-09
-6.0817385e-08 -1.7860435e-07 -0.00018653007 2.5427631e-05 -4.027509e-05 -5.8611324e-05 -9.764194e-05 -0.0001206455
2.3327011e-06 5.1251835e-05 1.00090365e-05 0.00016681459 0.00013738181 0.0016963508 0.00030671534 -0.000903274
0.0008805512 -9.7638054e-05 0.0012107479 0.00021046054 -0.0001774785 -7.8236975e-05 -0.0017992492 -4.0704435e-05
-6.9405345e-05 1.2456636e-05 1.27815765e-05 -4.1317457e-05 -4.838621e-05 -0.00014774638 2.6742842e-05 -7.772089e-05
-5.9564363e-06 9.305988e-05 -6.9826274e-05 -0.00033345484 0.00010695137 2.4119896e-05 -0.00012773134 -0.00012639762
0.00041964918 4.2965243e-05 0.00024486758 4.7959966e-05 0.00029847756 0.00012729254 0.0022912347 0.00021528604
-0.0014053632 0.001229119 0.0002403394 0.0018706564 -4.480991e-05 5.872501e-05 -0.00016926629 -0.0023600473
0.00042912335 0.001450038 1.5665162e-05 -0.00047184585 0.0007664206 0.00021971589 0.0011854975 -0.00022765229
-0.00014055608 -7.166978e-05 -0.0014635698 -0.0005260845 -0.0011139611 9.8580174e-05 0.00050295703 -0.00059930544
8.8949746e-05 -0.0010362358 0.00025622753 0.00030384652 8.459925e-05 0.0010816806 0.00089893886 -6e-45
6e-45 -6e-45 -6e-45 -6e-45 6e-45 -6e-45 6e-45 6e-45
6e-45 6e-45 -0.0005608619 -0.00028320236 0.0005402252 -0.00016947856 0.0001561041 -0.0006465455
-0.00036226376 8.942431e-05 7.108183e-05 0.00057501 -0.00017664874 -0.0009960964 0.00024028415 0.00047503342
-0.00046418724 -0.00021126476 -0.00048454764 0.0006742011 -0.00028174685 3.7649952e-05 0.0012320236 -0.0001753003
0.00053675193 7.624808e-05 -0.00018792578 0.00034493912 0.0001225275 0.00027258083 5.60232e-05 0.00018865132
-3.1603908e-05 -0.00059264625 0.00021321737 0.0013353222 0.0001452259 -0.0012164196 0.00071529986 -0.00044445833
0.00086658 -0.00021274466 -0.00026937167 -0.00010100617 -0.0013923065 1.644378e-05 0.00010508107 -3.8232873e-05
-0.000105129424 6.59326e-05 4.1561274e-05 -0.00010034477 -0.00024295194 0.00018463036 2.7840542e-05 -0.00019094493
-4.8058748e-05 -0.0012256807 -0.00019429986 0.0008551473 -0.0005855989 0.00015409186 -0.0010731367 -7.846188e-05
0.00026000495 0.00010166358 0.0011613747 -0.0002462672 -0.0012336222 -0.00020227671 0.0007732504 -0.000670044
0.00013494428 -0.00062639127 -0.0001330825 0.00036281027 0.00013586994 0.001194418 -0.00020992782 9.1375e-05
5.7345293e-05 8.387079e-05 7.955193e-05 0.00019414953 0.00055324653 -4.0435018e-05 0.00021847837 -2.2542388e-05
-8.190292e-05 0.0002684151 -7.9216264e-08 -2.8460063e-08 6.5518265e-08 -4.040396e-08 -1.4107716e-08 -8.9611206e-08
2.6926383e-08 1.6594822e-08 1.7229784e-08 -2.7274455e-08 -6.9031024e-08 8.852198e-05 -7.097067e-05 9.232975e-05
00000000: e48f 7aba 681d 23b9 4e31 8a39 fac5 d6b9
00000010: a0ff 4638 134f 3e39 7b42 0eb9 48ea 9139
00000020: 94cb 8538 b224 7b3a 0271 5b39 c0ef 633a
00000030: e8b1 0239 6a38 60ba 5848 053a 1d98 bbb9
00000040: 4c38 6f39 c0d4 86b6 70b4 5cb9 4086 ccb7
00000050: 6cb5 88ba 8c53 34ba f2b8 97ba 94c6 e7b8
00000060: 5208 813a 9a90 2aba 648e 7e39 3999 b2b9
00000070: f082 7437 f068 1fb8 34be 5a38 c651 ac3a
00000080: 039c 233a 829a 313a 5293 ed39 4e37 a6ba
00000090: fe94 aa39 e097 34ba 61f1 e03a fa61 b339
000000a0: df07 c8b9 a497 91b8 942c 38ba f5a0 673a
000000b0: bda6 a0b9 f55d f838 2627 45b8 f016 5fb9
000000c0: 1d3b 02b9 aa06 64b9 9beb 6939 d7ca fe38
000000d0: 0894 5037 f1ee a039 3805 4c39 4f20 80b4
000000e0: 8115 3bb4 b48a 9334 6a4f 13b4 f1c2 7433
000000f0: e8e8 8ab4 a5c1 5db3 9013 2c33 0068 ac30
00000100: b69a 82b3 64c6 3fb4 4997 43b9 6c4d d537
00000110: 0ced 28b8 6ed5 75b8 1ec5 ccb8 0f03 fdb8
00000120: 808b 1c36 3df7 5638 7cec 2737 f3ea 2e39
00000130: 260e 1039 1658 de3a a3ce a039 b1c9 6cba
00000140: cad4 663a 08c3 ccb8 f5b1 9e3a 12af 5c39
00000150: 8619 3ab9 2813 a4b8 c9d4 ebba 0eba 2ab8
00000160: b68d 91b8 d8fc 5037 7470 5637 484c 2db8
00000170: 4cf2 4ab8 5eec 1ab9 d155 e037 16fe a2b8
00000180: 66dd c7b6 2529 c338 b26f 92b8 8dd3 aeb9
00000190: 144b e038 1555 ca37 9fef 05b9 9a89 04b9
000001a0: 5c04 dc39 9435 3438 9261 8039 9f28 4938
000001b0: fb7c 9c39 d579 0539 8a28 163b 68be 6139
000001c0: 2a34 b8ba 641a a13a 9e03 7c39 d030 f53a
000001d0: 46f2 3bb8 804f 7638 137d 31b9 06ab 1abb
000001e0: f6fb e039 340f be3a ae68 8337 1462 f7b9
000001f0: 9ee9 483a 8963 6639 b262 9b3a f2b5 6eb9
00000200: 3c62 13b9 6c4d 96b8 41d5 bfba efe8 09ba
00000210: 5502 92ba d4bc ce38 e0d8 033a b51a 1dba
00000220: 888a ba38 4ed2 87ba 4756 8639 974d 9f39
00000230: e06a b138 2ec7 8d3a c4a6 6b3a 0400 0080
00000240: 0400 0000 0400 0080 0400 0080 0400 0080
00000250: 0400 0000 0400 0080 0400 0000 0400 0000
00000260: 0400 0000 0400 0000 ce06 13ba c77a 94b9
00000270: e69d 0d3a 0eb6 31b9 e0af 2339 ef7c 29ba
00000280: 38ee bdb9 5089 bb38 c411 9538 45bc 163a
00000290: c93a 39b9 738f 82ba c9f4 7b39 e80d f939
000002a0: 285e f3b9 f486 5db9 e20a feb9 dfbc 303a
000002b0: 6cb7 93b9 54ea 1d38 da7b a13a d1d0 37b9
000002c0: d0b4 0c3a 60e7 9f38 f10d 45b9 f2d8 b439
000002d0: ba7a 0039 2ee9 8e39 74fa 6a38 b4d0 4539
000002e0: 708e 04b8 d15b 1bba 1a93 5f39 fa05 af3a
000002f0: c847 1839 4570 9fba f682 3b3a 3006 e9b9
00000300: 332b 633a 3614 5fb9 743a 8db9 46d3 d3b8
00000310: 0e7e b6ba c0f0 8937 f85e dc38 3c5c 20b8
00000320: ee78 dcb8 4c45 8a38 1452 2e38 3070 d2b8
00000330: eac0 7eb9 5699 4139 1c8b e937 6438 48b9
00000340: b092 49b8 05a7 a0ba f9bc 4bb9 f72b 603a
00000350: e082 19ba b893 2139 7ea8 8cba e78b a4b8
00000360: 4651 8839 3834 d538 4539 983a 6d1d 81b9
00000370: 7eb1 a1ba 3e1a 54b9 f5b3 4a3a e4a5 2fba
00000380: d47f 0d39 6834 24ba 108c 0bb9 9237 be39
00000390: 4f78 0e39 048e 9c3a 1220 5cb9 94a0 bf38
000003a0: 0a86 7038 cae3 af38 1ed5 a638 9e94 4b39
000003b0: bf07 113a c598 29b8 5717 6539 6919 bdb7
000003c0: 4cc3 abb8 11ba 8c39 9a1d aab3 5778 f4b2
000003d0: 0cb3 8c33 a088 2db3 645e 72b2 4870 c0b3
000003e0: be4b e732 668c 8e32 b200 9432 2949 eab2
000003f0: 353e 94b3 e0a4 b938 17d6 94b8 28a1 c138

exp_avg_sq f4 [30, 11]
6.4748538e-06 1.3735635e-06 1.9860006e-06 1.6255544e-06 7.477785e-07 3.9745323e-06 1.1119636e-06 3.4269056e-07
2.2688823e-08 2.1150058e-06 8.155038e-07 2.787591e-05 1.1985245e-06 2.1423234e-06 6.7194946e-06 1.6028863e-06
1.3326528e-06 1.3363804e-06 2.2833797e-06 1.2755082e-07 2.0993335e-05 5.092086e-06 2.9959589e-05 1.0696706e-06
2.382345e-06 7.5172006e-06 1.674901e-06 2.8842594e-06 1.3299397e-06 1.9900135e-06 1.5391122e-07 2.36167e-05
3.6085148e-06 4.4411383e-05 7.765788e-06 1.3715403e-05 1.1592926e-05 6.393671e-06 3.2054388e-05 5.334945e-06
1.4710649e-06 2.3237563e-07 2.2418844e-05 5.838204e-06 6.348445e-06 4.5123863e-07 9.98068e-07 1.6120043e-06
7.0389973e-07 1.9881807e-06 5.878256e-07 6.075696e-07 3.2561413e-08 3.4611223e-06 1.7286361e-06 6.605569e-06
8.443848e-07 2.1366661e-06 1.8879638e-06 6.975729e-07 4.1670537e-06 6.945406e-07 1.8723169e-07 1.9316705e-08
2.950186e-06 1.6966443e-06 6.473398e-07 8.076998e-08 1.7803204e-07 1.522166e-07 1.0755611e-07 2.3583111e-07
7.601385e-08 5.6780156e-08 1.7178798e-09 4.622659e-07 2.655273e-07 2.5536241e-05 1.0431924e-06 2.5607546e-06
6.5534036e-06 1.4875166e-06 5.2181995e-06 1.5591776e-06 1.566741e-06 7.122869e-08 1.9145182e-05 1.7339738e-06
2.936003e-06 2.5522442e-07 8.4455115e-07 7.863288e-07 2.2326059e-07 1.703177e-06 2.5708698e-07 1.5279845e-07
9.371664e-09 1.3907119e-06 1.0306926e-06 1.6276388e-06 5.3730496e-08 9.9800594e-08 4.2341418e-07 8.1865224e-08
3.8399043e-07 7.179611e-08 1.7077662e-07 1.0153341e-08 1.2286374e-06 9.666341e-08 3.793716e-05 4.2966753e-06
9.333518e-06 1.02449585e-05 2.4537587e-06 1.5507752e-05 2.440778e-06 1.5054368e-06 3.5593695e-07 2.3889543e-05
2.3922046e-06 4.152045e-06 3.2199188e-07 5.188472e-07 1.0450749e-06 3.1789148e-07 2.2225024e-06 3.745531e-07
1.4928385e-07 1.1914356e-08 2.4733608e-06 8.4892173e-07 1.7960141e-05 1.965186e-06 4.2292263e-06 4.1121098e-06
2.1807134e-06 1.6147844e-05 1.3806766e-06 1.081229e-06 1.3717694e-07 9.141472e-06 1.1549111e-05 4.373801e-34
2.878731e-35 9.343944e-35 2.3364893e-34 4.2930854e-34 2.1392014e-34 2.2839941e-35 1.6318711e-34 4.3050418e-36
4.41963e-34 5.731305e-35 8.971389e-06 1.2135905e-06 2.922885e-06 6.446724e-07 5.812553e-07 4.846619e-06
7.938271e-07 5.7041973e-07 5.5647988e-08 4.8752477e-06 8.9019574e-07 3.5679932e-05 3.0709848e-06 5.0546955e-06
9.47739e-06 5.5326555e-06 1.0022559e-05 2.6496168e-06 2.380368e-06 1.2304804e-07 2.5279578e-05 3.2421246e-06
4.1393987e-06 7.190015e-07 1.513886e-06 1.212072e-06 9.5179365e-07 3.2352355e-06 3.807527e-07 2.618158e-07
6.2523206e-08 1.5632387e-06 7.2443964e-07 7.704462e-05 1.1593705e-05 1.8760526e-05 1.9955141e-05 1.0573001e-05
3.9395665e-05 7.234794e-06 3.4108712e-06 7.5931024e-07 3.1074942e-05 3.5651544e-06 3.7699044e-06 3.426649e-07
5.900549e-07 9.962635e-07 2.8470106e-07 8.914298e-07 2.8606408e-07 2.699873e-07 1.2086246e-08 2.8230272e-06
2.3128013e-07 4.836823e-05 8.80717e-06 1.5336844e-05 1.2340835e-05 6.3032367e-06 3.74582e-05 4.42404e-06
1.669787e-06 6.634136e-07 1.6219781e-05 2.5618829e-06 2.5129e-05 5.2947835e-06 9.669765e-06 6.566091e-06
3.4484428e-06 2.0029296e-05 2.6476891e-06 9.153988e-07 2.3470871e-07 8.348094e-06 2.7441513e-06 6.0222e-06
4.4409416e-07 7.2203363e-07 1.557241e-06 9.657215e-07 1.7218084e-06 3.824389e-07 5.404112e-07 1.1148396e-07
3.2477249e-06 8.7968164e-07 1.6350827e-05 1.8668746e-06 4.695521e-06 4.2185625e-06 8.971177e-07 1.0486046e-05
1.0775026e-06 7.4159664e-07 1.11143464e-07 6.2528748e-06 2.409922e-06 2.1841308e-06 6.832527e-07 9.910166e-07
00000000: 9242 d936 485b b835 3b47 0536 a02d da35
00000010: f2ba 4835 f95c 8536 c73e 9535 08fb b734
00000020: 40e5 c232 86ef 0d36 ffe8 5a35 10d7 e937
00000030: fddc a035 d6c4 0f36 0578 e136 c122 d735
00000040: 9add b235 ae5d b335 2a3c 1936 e7f4 0834
00000050: d81a b037 b0dc aa36 ba51 fb37 9a91 8f35
00000060: 60e0 1f36 433c fc36 29cd e035 338f 4136
00000070: 6180 b235 2c8c 0536 cb42 2534 7a1c c637
00000080: d029 7236 5c46 3a38 ce49 0237 351b 6637
00000090: 3d7f 4237 3789 d636 2372 0638 d402 b336
000000a0: 6871 c535 ed82 7934 1a10 bc37 cae5 c336
000000b0: ba04 d536 c441 f234 5bf5 8535 0c5c d835
000000c0: 9ff3 3c35 af6c 0536 11cb 1d35 dd17 2335
000000d0: a7d9 0b33 a145 6836 7c03 e835 68a5 dd36
000000e0: aea9 6235 a563 0f36 f165 fd35 d840 3b35
000000f0: b8d2 8b36 7770 3a35 db09 4934 e2ed a532
00000100: cffb 4536 41b8 e335 dac4 2d35 c473 ad33
00000110: 1329 3f34 fb70 2334 99f9 e633 c338 7d34
00000120: 0e3d a333 71de 7333 861a ec30 572d f834
00000130: cb8d 8e34 a936 d637 d103 8c35 6ed9 2b36
00000140: 4fe5 db36 aea6 c735 fe17 af36 ef44 d135
00000150: d048 d235 63f6 9833 f799 a037 e3ba e835
00000160: 2608 4536 c705 8934 1db5 6235 1b14 5335
00000170: 67b9 6f34 b798 e435 c405 8a34 eb10 2434
00000180: 0401 2132 7fa8 ba35 5456 8a35 3e75 da35
00000190: 4ec5 6633 f551 d633 9a51 e334 e2cd af33
000001a0: 3e27 ce34 542e 9a33 b85e 3734 de6e 2e32
000001b0: a9e7 a435 4695 cf33 b71e 1f38 292c 9036
000001c0: 2897 1c37 c3e1 2b37 41ab 2436 a516 8237
000001d0: 3fcc 2336 6a0e ca35 9a17 bf34 6766 c837
000001e0: c389 2036 cc51 8b36 3ade ac34 e846 0b35
000001f0: 8044 8c35 acaa aa34 4d26 1536 3016 c934
00000200: d54a 2034 e4af 4c32 04fc 2536 75e1 6335
00000210: 1ca9 9637 a3e1 0336 c7e8 8d36 c1fa 8936
00000220: 5f58 1236 3b75 8737 b04f b935 bf1e 9135
00000230: e94a 1334 535e 1937 0ec3 4137 2f58 1108
00000240: 420f 1906 9667 f806 4e49 9b07 88a9 0e08
00000250: a02c 8e07 3ce0 f205 b2e9 5807 c11d b704
00000260: 0ede 1208 3e5d 9806 d383 1637 a7e2 a235
00000270: c826 4436 8d0d 2d35 8f07 1c35 24a0 a236
00000280: 6217 5535 f21e 1935 9c01 6f33 0f96 a336
00000290: c9f5 6e35 09a7 1538 1e17 4e36 819b a936
000002a0: 1501 1f37 26a5 b936 9026 2837 12d0 3136
000002b0: 69be 1f36 301f 0434 7b0f d437 4793 5936
000002c0: 2ae5 8a36 6801 4135 ba30 cb35 7aae a235
000002d0: c37e 7f35 ec1c 5936 416a cc34 b18f 8c34
000002e0: 7f44 8633 79d0 d135 1d77 4235 0493 a138
000002f0: 9582 4237 ec5f 9d37 5765 a737 b262 3137
00000300: c63c 2538 68c2 f236 52e6 6436 67d3 4b35
00000310: 7756 0238 e340 6f36 77fe 7c36 81f7 b734
00000320: 4464 1e35 5ab7 8535 04d9 9834 974a 6f35
00000330: 5994 9934 c6f2 9034 dfa3 4f32 3d73 3d36
00000340: cc55 7834 fede 4a38 82c2 1337 9fa7 8037
00000350: 7c0b 4f37 6480 d336 701c 1d38 3772 9436
00000360: 721d e035 6f15 3235 b70f 8837 d0ec 2b36
00000370: 1ecc d237 d8a9 b136 533b 2237 4b52 dc36
00000380: cc6b 6736 9604 a837 f4ae 3136 bab9 7535
00000390: 3d04 7c34 ca0e 0c37 2928 3836 4e12 ca36
000003a0: d66b ee34 c6d1 4135 6502 d135 f09d 8135
000003b0: e318 e735 0152 cd34 c610 1135 f568 ef33
000003c0: 7df3 5936 4323 6c35 2229 8937 5391 fa35
000003d0: 388e 9d36 2d8d 8d36 75d1 7035 3aed 2f37
000003e0: b59e 9035 2212 4735 c4ad ee33 c9cf d136
000003f0: 25ba 2136 1593 1236 c568 3735 1203 8535

exp_avg f4 [30]
0.00095606106 -0.00086908764 0.0011570198 -0.00067635323 0.00030629273 2.460042e-07 0.00018659215 -0.001697137
6.9407586e-05 0.00033250704 -0.0022959088 -0.0014499589 0.0011137818 6e-45 0.00056537206 0.0009905921
-0.0005356666 -0.0013399334 -0.000105081184 0.0012304775 0.0012365282 -9.177593e-05 8.979891e-08 -8.802116e-05
0.00067673146 -8.259159e-05 -4.9967816e-06 8.7353357e-07 1.2956983e-06 0.0015770496
00000000: 2ca0 7a3a 7cd3 63ba 24a7 973a 4c4d 31ba
00000010: ea95 a039 8f12 8434 f3a7 4339 7872 deba
00000020: ea8e 9138 5754 ae39 f576 16bb 8c0c beba
00000030: 51fc 913a 0400 0000 7a35 143a c1d6 813a
00000040: fa6b 0cba b4a0 afba 085f dcb8 f947 a13a
00000050: 0013 a23a d477 c0b8 79d7 c033 0098 b8b8
00000060: ae66 313a 0635 adb8 07aa a7b6 c57c 6a35
00000070: dbe7 ad35 01b5 ce3a

exp_avg_sq f4 [30]
6.4924184e-06 2.7912503e-05 3.0041818e-05 4.5099954e-05 6.4196365e-06 6.752776e-06 6.566208e-07 2.5600448e-05
2.962435e-06 1.6340473e-06 3.8453003e-05 4.156301e-06 1.8274262e-05 4.6106695e-34 9.094504e-06 3.579193e-05
4.258543e-06 7.836764e-05 3.7707307e-06 4.9358936e-05 2.56819e-05 6.084134e-06 1.6623479e-05 2.2079794e-06
6.3987395e-06 3.2684427e-06 3.4850777e-06 3.5420642e-05 5.6941968e-05 2.7691553e-05
00000000: 73d9 d936 a525 ea37 5002 fc37 b529 3d38
00000010: 4268 d736 e795 e236 a342 3035 8bc0 d637
00000020: 3fce 4636 7051 db35 9948 2138 5b76 8b36
00000030: ae4b 9937 3d37 1908 9994 1837 4b1f 1638
00000040: 9be4 8e36 4e59 a438 a90c 7d36 c106 4f38
00000050: 766f d737 5026 cc36 a672 8b37 cc2c 1436
00000060: c1b4 d636 6b57 5b36 2ee1 6936 a090 1438
00000070: f9d4 6e38 284b e837

exp_avg f4 [30, 30]
-4.343358e-07 -0.0002561322 1.820868e-05 3.266678e-05 -8.035076e-10 2.18005e-09 -3.095831e-05 -0.000111218105
2.2560524e-05 -1.3493123e-05 0.00019957195 -6.16966e-05 -1.1150014e-05 6e-45 -4.555648e-06 7.653624e-05
3.980203e-05 -5.179789e-05 0.000109104505 -1.795835e-06 -1.4530291e-05 -1.3980174e-05 2.83073e-10 5.677648e-05
-8.028518e-06 -2.8013408e-06 3.2320788e-09 1.9900739e-08 4.320288e-08 1.7918035e-06 -1.4326875e-05 7.339301e-11
-4.3068256e-05 -0.0008286977 6.0524646e-10 1.5752586e-07 -3.5878334e-13 -0.00034626835 2.43484e-07 -2.2583949e-05
-0.00076631014 -0.00013521404 6e-45 6e-45 -0.00039883048 -1.0580799e-05 -0.001623977 -0.0011451443
-7.0442163e-10 -0.0011305055 -0.00090069656 -0.0007962125 9.554452e-09 -3.7524904e-05 -0.00042665692 2.577109e-06
2.5027854e-08 5.511527e-09 6.8762525e-08 -0.0008835002 5.3120286e-05 4.9808543e-05 1.9108656e-05 0.0001524952
-1.3358115e-07 -1.6168809e-08 1.4877043e-06 0.00011667719 -4.4538137e-08 3.4600667e-05 5.3830052e-05 3.496848e-05
1.0302454e-05 6e-45 7.72349e-05 1.2720318e-08 0.00021761289 0.00020420615 1.1135534e-07 0.000258126
0.00018115484 0.00019853353 1.2410665e-09 3.0941544e-06 7.3239615e-05 -2.2642326e-10 -7.677167e-09 -1.0904411e-08
-3.0844987e-08 0.00021273608 1.2557739e-06 2.9886198e-06 -0.00013627083 -6.887709e-05 -1.1735213e-07 -5.070631e-08
-2.9970263e-06 -5.6817726e-07 -5.48362e-08 6.31629e-06 1.7422058e-06 -4.4687895e-05 -1.0025749e-05 6e-45
2.4688348e-05 -0.00017282761 -6.806795e-05 -5.9528596e-05 -3.247716e-08 -9.389937e-07 -4.212875e-05 -1.9172665e-05
-3.0193326e-09 -4.0105722e-05 2.6144062e-05 -2.4330207e-06 -4.094447e-07 -8.173657e-09 -3.2441218e-08 1.1430151e-05
6e-45 6e-45 6e-45 6e-45 6e-45 6e-45 6e-45 6e-45
6e-45 6e-45 6e-45 6e-45 6e-45 0.0 6e-45 6e-45
6e-45 6e-45 6e-45 6e-45 6e-45 6e-45 6e-45 6e-45
6e-45 6e-45 0.0 6e-45 6e-45 6e-45 4.4495857e-05 0.00010250209
-0.000345637 0.00035289722 5.0338167e-07 -7.2311096e-08 3.135646e-05 0.00027254282 3.150046e-07 -2.0229952e-06
0.00044719363 0.00014716665 4.486501e-07 0.0 0.00027366536 -0.0001805513 0.00076730625 0.0004136063
-2.687204e-08 0.0005512285 0.0004771168 0.00032023017 -9.8346e-09 -1.7309114e-05 0.00029600327 1.59196e-06
2.2541546e-07 -1.6753432e-08 -6.63823e-08 0.0004173567 6.396976e-05 0.00010080005 8.101043e-05 0.0002721387
-2.2459274e-07 -2.0192186e-08 -3.5879248e-06 5.250488e-05 3.579064e-06 0.00016414405 0.00021125651 9.0818794e-05
-1.4668419e-06 -6e-45 2.6795191e-05 8.491146e-05 0.00022456668 0.00029179768 4.720714e-06 5.1309267e-05
9.750586e-05 4.7590023e-05 5.1198286e-09 1.2927618e-05 2.503557e-05 8.002895e-06 -5.454578e-08 2.4819824e-09
1.2514183e-08 6.591575e-05 -3.5513975e-05 0.00017417112 0.0002618197 -0.00015701854 -4.4569254e-07 1.1800774e-09
-7.3286865e-05 -1.4779944e-05 1.3049593e-07 0.00017243632 -0.0003688641 1.4477831e-05 -3.8758095e-05 -6e-45
-2.4825073e-05 -4.1800977e-05 -0.000358577 -2.0802836e-05 -5.3792945e-05 -0.00025625428 -0.00038063474 -0.000249579
-3.806893e-09 -9.264245e-05 -2.2918415e-05 6.3304487e-06 -2.7481808e-09 -6.60206e-09 -2.504914e-08 -0.0001662942
2.4366038e-05 4.7084264e-05 6.921109e-07 0.00026248998 -8.152659e-07 -7.657992e-08 2.4997047e-05 0.00012098609
-2.6669935e-07 1.1893769e-05 0.00028567886 4.4980865e-05 7.6108685e-05 -6e-45 0.00022170306 -3.4341025e-05
00000000: a82e e9b4 7b49 86b9 d8be 9837 b003 0938
00000010: d2dd 5cb0 d8cf 1531 3bd9 01b8 c43d e9b8
00000020: 5b40 bd37 8660 62b7 3044 5139 1c63 81b8
00000030: f210 3bb7 0400 0000 b8dc 98b6 1582 a038
00000040: 1bf1 2638 9041 59b8 09cf e438 6c08 f1b5
00000050: 20c7 73b7 648c 6ab7 fc9e 9b2f 4823 6e38
00000060: 39b2 06b7 abfe 3bb6 551b 5e31 30f2 aa32
00000070: 128e 3933 e67d f035 765d 70b7 9764 a12e
00000080: 30a4 34b8 f63c 59ba 6f5e 2630 6124 2934
00000090: 21fa c9aa 5a8b b5b9 30b8 8234 a972 bdb7
000000a0: 34e2 48ba 3ec8 0db9 0400 0000 0400 0000
000000b0: 1f1a d1b9 3084 31b7 a0db d4ba ab18 96ba
000000c0: 44a1 41b0 782d 94ba b91c 6cba ebb8 50ba
000000d0: ed24 2432 0f64 1db8 ecb0 dfb9 65f2 2c36
000000e0: d5fc d632 e75f bd31 99aa 9333 b29a 67ba
000000f0: 79cd 5e38 84e9 5038 874b a037 1ee7 1f39
00000100: 826e 0fb4 96e3 8ab2 21ad c735 97b0 f438
00000110: 334a 3fb3 2f20 1138 94c7 6138 1fab 1238
00000120: b4d8 2c37 0400 0000 2cf9 a138 8d88 5a32
00000130: 042f 6439 2c20 5639 3f22 ef33 1655 8739
00000140: 62f4 3d39 702d 5039 2592 aa30 2ba5 4f36
00000150: 3898 9938 7bf4 78af 8ae4 03b2 1b56 3bb2
00000160: 6c7a 04b3 e811 5f39 108c a835 1990 4836
00000170: ece3 0eb9 1b72 90b8 0403 fcb3 2dc8 59b3
00000180: 8520 49b6 d884 18b5 0a85 6bb3 85f0 d336
00000190: bcd5 e935 436f 3bb8 4434 28b7 0400 0000
000001a0: d319 cf37 0f39 35b9 b4bf 8eb8 58ae 79b8
000001b0: 047d 0bb3 280f 7cb5 67b3 30b8 fcd4 a0b7
000001c0: a97c 4fb1 3137 28b8 f24f db37 fa46 23b6
000001d0: a7d1 dbb4 206c 0cb2 7f55 0bb3 20c4 3f37
000001e0: 0400 0000 0400 0000 0400 0000 0400 0000
000001f0: 0400 0000 0400 0000 0400 0000 0400 0000
00000200: 0400 0000 0400 0000 0400 0000 0400 0000
00000210: 0400 0000 0000 0000 0400 0000 0400 0000
00000220: 0400 0000 0400 0000 0400 0000 0400 0000
00000230: 0400 0000 0400 0000 0400 0000 0400 0000
00000240: 0400 0000 0400 0000 0000 0000 0400 0000
00000250: 0400 0000 0400 0000 10a1 3a38 64f6 d638
00000260: 9d36 b5b9 1005 b939 2020 0735 7249 9bb3
00000270: be84 0338 14e4 8e39 e71d a934 cbc2 07b6
00000280: 5075 ea39 bf50 1a39 00de f034 0000 0000
00000290: be7a 8f39 5f52 3db9 0d25 493a 4cd9 d839
000002a0: 3ed4 e6b2 5280 103a 8825 fa39 91e4 a739
000002b0: 07f5 28b2 0a33 91b7 e330 9b39 54ab d535
000002c0: bb09 7234 30e9 8fb2 0e8e 8eb3 abd0 da39
000002d0: 8127 8638 9d64 d338 25e4 a938 d7ad 8e39
000002e0: 9527 71b4 1673 adb2 14c8 70b6 b038 5c38
000002f0: da2f 7036 151e 2c39 bd84 5d39 f875 be38
00000300: 4ee0 c4b5 0400 0080 3cc6 e037 7e12 b238
00000310: a979 6b39 6cfc 9839 a066 9e36 e834 5738
00000320: 0f7c cc38 669b 4738 7dea af31 b2e3 5837
00000330: 7a03 d237 2c44 0637 b845 6ab3 7f8f 2a31
00000340: f5fd 5632 403c 8a38 d7f4 14b8 b4a1 3639
00000350: d844 8939 58a5 24b9 8447 efb4 4830 a230
00000360: 96b1 99b8 60f7 77b7 731e 0c34 06d0 3439
00000370: 1a64 c1b9 d0e5 7237 3090 22b8 0400 0080
00000380: 703f d0b7 7553 2fb8 64ff bbb9 c081 aeb7
00000390: bc9f 61b8 de59 86b9 ee8f c7b9 edd9 82b9
000003a0: c9cd 82b1 0949 c2b8 ec40 c0b7 246a d436
000003b0: 82da 3cb1 55d8 e2b1 a42b d7b2 425f 2eb9
000003c0: ab65 cc37 587c 4538 80c9 3935 cf9e 8939
000003d0: a5d8 5ab5 4274 a4b3 c0b0 d137 eab9 fd38
000003e0: e12e 8fb4 598b 4737 2bc7 9539 d6a9 3c38
000003f0: 8a9c 9f38 0400 0080 f678 6839 6509 10b8

exp_avg_sq f4 [30, 30]
2.1622611e-08 9.670379e-07 2.3292885e-07 1.0610645e-06 1.1601201e-07 3.3740233e-09 4.293784e-08 1.0219736e-07
7.765251e-08 1.0017665e-08 2.9963917e-07 4.780093e-07 1.8379512e-09 6.9751153e-37 1.0731465e-09 2.7459532e-08
7.2621364e-10 5.9602365e-07 1.1927662e-07 2.006741e-08 2.196143e-07 3.8349917e-08 6.228436e-08 3.8029714e-07
1.3081557e-09 3.482938e-08 1.1063505e-09 8.6156824e-08 4.4474615e-07 3.6947732e-08 1.6978727e-07 1.8860678e-08
2.749841e-06 1.2721076e-06 1.2634647e-08 2.0921716e-06 8.829906e-12 1.0683268e-06 1.2226734e-06 2.0723549e-07
4.896829e-07 6.1736097e-07 1.18346146e-29 4.5777258e-36 1.5924877e-06 1.1119587e-06 3.2631935e-05 4.2435922e-06
8.537968e-08 3.304221e-05 6.928807e-06 3.0062954e-05 1.899729e-06 5.9148397e-07 1.7781188e-06 1.9980178e-07
2.5142995e-07 9.780977e-07 4.446334e-06 2.2451137e-05 6.929044e-08 7.139507e-08 6.7298838e-09 8.954615e-08
9.912766e-08 1.8197358e-07 1.6950949e-08 2.251631e-07 1.0436584e-07 4.8178915e-08 2.0414726e-08 3.5070972e-08
8.525456e-09 1.406783e-39 5.5404687e-08 7.421254e-10 9.4134367e-07 1.7558101e-07 1.5646215e-08 1.3282947e-06
2.8635282e-07 9.425439e-07 3.0643065e-07 1.3581121e-08 6.504603e-08 1.0561632e-09 6.296104e-08 1.6449309e-07
7.122039e-07 8.7757553e-07 1.6786171e-07 5.6255313e-08 2.072818e-06 1.370659e-07 1.9824351e-07 9.819393e-08
5.610731e-09 1.8957316e-07 2.362702e-07 5.0709033e-08 1.819358e-08 3.5732958e-07 1.6650088e-07 7.29735e-37
3.158914e-07 8.6887775e-07 2.928653e-06 4.435609e-07 1.6860088e-08 8.591331e-06 3.8446465e-06 4.5601364e-06
6.27233e-08 3.3002232e-07 3.4199573e-07 2.1187752e-08 1.8409459e-07 2.8258998e-07 6.983104e-07 5.0566605e-06
4.213349e-31 7.3792317e-19 8.080296e-20 5.320095e-19 3.1633612e-36 1.9498681e-36 6.3555754e-31 6.2002668e-21
2.0856855e-33 2.243185e-29 1.9186633e-19 9.453335e-20 2.0318402e-32 0.0 1.3428007e-32 3.3866173e-30
1.9645945e-31 1.5682286e-19 2.0827455e-19 1.3139341e-30 2.1186156e-29 1.4177995e-29 1.3850416e-35 1.320952e-19
4.3981268e-33 7.354173e-33 0.0 9.7334785e-36 1.5024885e-32 2.0591378e-29 3.3804866e-07 1.06702785e-07
5.8441083e-06 1.2566102e-06 4.789454e-07 3.0319396e-07 1.1772386e-08 5.316512e-07 2.7087773e-07 1.4615294e-07
3.9349584e-07 6.6627723e-07 4.940013e-07 0.0 9.2683075e-07 1.8664824e-06 8.915473e-06 5.1510224e-06
8.027791e-11 2.2488877e-05 1.2413311e-05 1.0944288e-05 5.5073525e-07 5.073135e-07 9.806134e-07 2.0616936e-08
3.0316517e-07 4.0222142e-07 9.969222e-07 1.30135295e-05 1.5146153e-07 1.9463485e-07 4.948432e-07 1.7790425e-07
1.3331477e-07 3.4846867e-08 1.8025062e-08 1.283339e-07 1.4251833e-07 1.0191987e-07 6.242351e-08 3.2379097e-07
6.8266e-08 4.427577e-36 2.4720606e-07 3.374859e-07 1.1119782e-06 1.6873283e-07 4.4430756e-08 3.2255334e-06
1.5808802e-06 1.5752172e-06 6.065639e-08 1.8246254e-07 2.6293142e-07 5.7794963e-08 6.948177e-08 1.5957197e-07
4.925028e-07 2.1990406e-06 7.3279867e-09 9.046719e-07 1.010968e-06 1.9665447e-06 6.226912e-07 7.392842e-07
1.3278799e-07 3.1806528e-07 8.3170966e-07 3.7353018e-07 6.999901e-07 9.124333e-07 1.6623913e-07 1.1754889e-35
7.3634676e-09 1.04617904e-07 2.1217245e-06 3.1011048e-06 4.4222566e-07 3.7169639e-06 3.05722e-06 1.8060822e-06
1.5425719e-06 3.5088112e-07 1.44227075e-08 3.4393943e-07 3.3213433e-07 1.0106208e-06 5.538506e-06 2.203069e-06
4.1599938e-07 2.1626079e-07 3.587524e-06 5.299719e-07 3.0968633e-07 1.5727716e-07 1.8451665e-08 4.881965e-07
4.3011516e-07 7.56007e-08 1.5764768e-07 9.077603e-07 5.222131e-07 3.1416087e-36 1.1142496e-06 1.2962261e-06
00000000: a0bc b932 2bcb 8135 ff1a 7a34 e669 8e35
00000010: 4722 f933 72dc 6731 a86a 3833 9877 db33
00000020: ebc1 a633 281a 2c32 18de a034 8d50 0035
00000030: 299b fc30 d359 6d03 fc7d 9330 26e0 eb32
00000040: be9e 4730 6ffe 1f35 8212 0034 b460 ac32
00000050: 1ecf 6b34 2eb6 2433 30c1 8533 a42b cc34
00000060: a3ca b330 4f97 1533 3f0e 9830 3705 b933
00000070: 72c5 ee34 76b0 1e33 c54e 3634 1203 a232
00000080: e989 3836 49bd aa35 c40f 5932 3c67 0c36
00000090: 5d56 1b2d 6e63 8f35 bd1a a435 7584 5e34
000000a0: c172 0335 b9b8 2535 d508 700f 05b7 c204
000000b0: 76bd d535 9c3e 9535 46de 0838 2e64 8e36
000000c0: fa59 b733 ce96 0a38 007e e836 b42f fc37
000000d0: 31fa fe35 78c6 1e35 b2a7 ee35 1889 5634
000000e0: 45fc 8634 2e47 8335 b831 9536 7355 bc37
000000f0: d2cc 9433 db51 9933 af3c e731 844c c033
00000100: 02e0 d433 8464 4334 889b 9132 5dc4 7134
00000110: ba1f e033 47ed 4e33 755c af32 f1a0 1633
00000120: 5a77 1232 8a51 0f00 19f6 6d33 6ffe 4b30
00000130: a5b0 7c35 5787 3c34 6466 8632 dc47 b235
00000140: 08bc 9934 2003 7d35 8283 a434 6752 6932
00000150: 6faf 8b33 7028 9130 3335 8733 849f 3034
00000160: 482e 3f35 8892 6b35 7a3d 3434 5f9d 7133
00000170: be1a 0b36 632c 1334 c3dc 5434 afde d233
00000180: 83c8 c031 798d 4b34 75b1 7d34 2ccb 5933
00000190: 1b48 9c32 01d7 bf34 6ac7 3234 e250 7803
000001a0: c997 a934 d33c 6935 e089 4436 8c22 ee34
000001b0: bad3 9032 7c23 1037 4301 8136 4603 9936
000001c0: 80b2 8633 ec2d b134 899b b734 5c00 b632
000001d0: 89ab 4534 dfb6 9734 8673 3b35 62ac a936
000001e0: 22bb 080d e6cb 5921 64ca be1f 8005 1d21
000001f0: f48d 8604 5ee0 2504 0e40 4e0d 4d3d ea1d
00000200: a045 2d09 6a7c e30f 0a84 6220 e735 df1f
00000210: 94ff d20a 0000 0000 c471 8b0a a560 890e
00000220: da04 7f0c cd24 3920 1fe3 7520 b032 d50d
00000230: 68da d60f 2ec8 8f0f 6b48 9305 53f3 1b20
00000240: e8b0 b609 7ebd 180a 0000 0000 1902 4f05
00000250: ff06 9c0a 46d2 d00f 0e7d b534 7a24 e533
00000260: 8218 c436 cca8 a835 e190 0035 a9c6 a234
00000270: 803f 4a32 cbb6 0e35 276d 9134 37ee 1c34
00000280: a841 d334 39da 3235 839b 0435 0000 0000
00000290: 53cb 7835 d983 fa35 aa93 1537 f2d6 ac36
000002a0: 7288 b02e 7fa6 bc37 c442 5037 5c9d 3737
000002b0: 3dd6 1335 512e 0835 9f9d 8335 1f19 b132
000002c0: b4c2 a234 e4f0 d734 fccd 8535 af54 5a37
000002d0: 6ea1 2234 d2fc 5034 5ed5 0435 f305 3f34
000002e0: 4925 0f34 89aa 1533 88d5 9a32 27cc 0934
000002f0: 2407 1934 0bdf da33 b00d 8633 7ed5 ad34
00000300: a199 9233 0b54 bc04 beb7 8434 b52f b534
00000310: 483f 9535 ed2c 3534 22d4 3e33 3e76 5836
00000320: a12e d435 0d6c d335 3442 8233 ecea 4334
00000330: 0529 8d34 3c3a 7833 0236 9533 cf56 2b34
00000340: 8934 0435 3b93 1336 a7c9 fb31 94d8 7235
00000350: 99b0 8735 fbf8 0336 0327 2735 3973 4635
00000360: 7c94 0e34 8fc2 aa34 a742 5f35 9989 c834
00000370: f4e6 3b35 f0ed 7435 777f 3234 b4ff 7905
00000380: bf01 fd31 4daa e033 f362 0e36 931c 5036
00000390: 086b ed34 f470 7936 a42a 4d36 8368 f235
000003a0: 5e0a cf35 bc60 bc34 bdc7 7732 ada6 b834
000003b0: 3250 b234 aba4 8735 67d7 b936 70d8 1336
000003c0: 8556 df34 5035 6834 31c1 7036 6443 0e35
000003d0: f742 a634 04e0 2834 a47f 9e32 9c0c 0335
000003e0: 94ea e634 ed59 a233 dd45 2934 d0ac 7335
000003f0: 362e 0c35 17a1 8504 538d 9535 fdf9 ad35

exp_avg f4 [30]
-0.00030167552 -0.0017637217 0.00034715034 -0.00015617913 6e-45 0.00068629335 0.00048854505 0.00016439054
0.000774137 -0.00018925089 -0.0004032834 -0.00035033422 -0.0003314669 -0.00019634966 -0.0002682272 0.000100575504
6e-45 0.00020990917 0.00029851147 -0.00042235316 0.00074273394 6e-45 -3.742121e-05 0.00016664137
-0.0011532537 0.00043664884 0.0005926012 0.0012725419 -0.00051439187 0.0005583643
00000000: 342a 9eb9 ae2c e7ba bb01 b639 04c4 23b9
00000010: 0400 0000 5ee8 333a b411 003a 4060 2c39
00000020: 74ef 4a3a a671 46b9 c86f d3b9 10ad b7b9
00000030: bcc8 adb9 36e3 4db9 d8a0 8cb9 10ec d238
00000040: 0400 0000 101b 5c39 8881 9c39 486f ddb9
00000050: 08b4 423a 0400 0000 b8f4 1cb8 74bc 2e39
00000060: c628 97ba 04ee e439 cb58 1b3a 6ccb a63a
00000070: 41d8 06ba 325f 123a

exp_avg_sq f4 [30]
5.9985537e-06 5.4493834e-05 3.0336512e-06 1.896833e-05 1.5786779e-18 5.0599734e-05 8.661333e-06 2.6877871e-05
4.282172e-05 8.9446917e-07 5.1838892e-06 5.12909e-06 5.76869e-06 1.1042591e-05 2.3149982e-05 4.2359625e-06
3.251671e-21 5.6625954e-06 4.3458544e-06 3.2877144e-06 8.18432e-06 7.3438824e-25 3.0088354e-06 1.9061798e-06
2.1613847e-05 4.611965e-06 3.4745735e-06 7.7859506e-05 2.5975412e-06 3.751004e-05
00000000: 2f47 c936 4f90 6438 bb95 4b36 2e1e 9f37
00000010: c4f8 e821 0d3b 5438 2450 1137 ca77 e137
00000020: 799b 3338 741b 7035 45f1 ad36 8c1a ac36
00000030: ab90 c136 9143 3937 3532 c237 a422 8e36
00000040: 77b0 751d 5301 be36 9bd2 9136 81a2 5c36
00000050: 634f 0937 3b48 6317 66eb 4936 d7d7 ff35
00000060: 624f b537 7ac0 9a36 b82c 6936 8148 a338
00000070: 6b51 2e36 1954 1d38

exp_avg f4 [2, 30]
0.00026952033 -0.0008277365 -0.0001556619 0.00021858301 -6e-45 -0.0017565298 2.8503098e-05 3.098999e-05
-0.00036543756 2.336433e-05 -9.542634e-05 5.621486e-05 -0.00016881386 2.3229528e-05 -0.00011854898 6.0263497e-05
-6e-45 6.338496e-05 0.000244493 0.00029437512 -0.0011300526 -6e-45 9.75266e-06 0.00019587172
-0.0005856807 -0.00017118879 9.4501855e-05 -0.0014563352 -0.00025168183 -0.00055638445 0.00015686892 -0.00066992064
-9.101655e-06 -1.6793807e-05 -6e-45 -0.0013450654 -0.00028244357 -0.00069205253 -6.837169e-05 -1.5167166e-06
-0.0005094347 1.0970985e-05 -0.0010815776 -0.00012257785 -0.0014664425 0.000116649186 6e-45 2.2270906e-05
-2.860243e-05 -6.7036366e-05 -0.00053241046 6e-45 9.1181214e-08 0.00012727905 -0.00070473773 -0.00032305607
6.933027e-05 -0.001161666 -0.0005712814 -0.0009993662
00000000: 684e 8d39 75fc 58ba 2c39 23b9 6e33 6539
00000010: 0400 0080 5c3b e6ba f019 ef37 40fb 0138
00000020: 3398 bfb9 84fe c337 a01f c8b8 3fc8 6b38
00000030: a003 31b9 08dd c237 809d f8b8 70c3 7c38
00000040: 0400 0080 8bed 8438 4c2f 8039 5c56 9a39
00000050: 461e 94ba 0400 0080 5b9f 2337 ea62 4d39
00000060: 5e88 19ba 2481 33b9 4c2f c638 80e2 beba
00000070: 2af4 83b9 54da 11ba 2e7d 2439 9d9d 2fba
00000080: 50b3 18b7 6de0 8cb7 0400 0080 e84c b0ba
00000090: ef14 94b9 dc6a 35ba c662 8fb8 fc91 cbb5
000000a0: 968b 05ba 0610 3837 b9c3 8dba 3e88 00b9
000000b0: a535 c0ba 8ea1 f438 0400 0000 68d2 ba37
000000c0: 40ef efb7 e095 8cb8 7691 0bba 0400 0000
000000d0: 67cf c333 3676 0539 26be 38ba da5f a9b9
000000e0: 6865 9138 0b43 98ba 0cc2 15ba 2afd 82ba

exp_avg_sq f4 [2, 30]
8.48515e-07 8.2120905e-06 8.5150464e-07 3.2470274e-05 2.0057543e-23 0.00021662677 5.1732814e-06 1.5723806e-05
4.2692427e-05 1.2489403e-08 5.03208e-07 4.7641765e-07 1.7311964e-05 1.5039816e-05 3.0595344e-05 1.934678e-05
8.846909e-27 8.3554465e-07 4.7435694e-07 1.5061325e-06 2.202429e-05 8.877048e-28 8.10825e-07 1.97314e-06
4.648886e-06 1.1348891e-06 1.7077042e-07 0.000244184 8.3404484e-07 9.692668e-05 1.3131062e-06 1.3274953e-05
1.5571826e-06 5.1994946e-05 9.9047286e-23 0.0003868434 8.930109e-06 3.1991156e-05 7.661241e-05 5.123799e-09
8.580196e-07 8.1918876e-07 3.8713806e-05 3.9963114e-05 7.328104e-05 3.3598815e-05 1.1897089e-25 1.5347132e-06
3.941653e-07 2.6952164e-06 4.0735114e-05 7.59698e-27 8.488323e-07 4.5944284e-06 8.279992e-06 2.1669114e-06
1.7101223e-07 0.00042541718 1.7904666e-06 0.00014718786
00000000: 82c5 6335 a9c6 0937 f492 6435 b130 0838
00000010: 12fc c119 4e26 6339 2696 ad36 9ee6 8337
00000020: a510 3338 fa90 5632 3114 0735 58c6 ff34
00000030: 2939 9137 8553 7c37 8053 0038 e54a a237
00000040: 283b 2f14 314a 6035 1fab fe34 5226 ca35
00000050: cdc0 b837 96a9 8c12 78a7 5935 496a 0436
00000060: a0fd 9b36 7e52 9835 045d 3734 d205 8039
00000070: 20e3 5f35 1d45 cb38 fc3d b035 7db7 5e37
00000080: 6300 d135 2615 5a38 4d7b ef1a 3ed1 ca39
00000090: 87d2 1537 3e2e 0638 f9aa a038 6a0d b031
000000a0: a852 6635 39e6 5b35 a260 2238 119e 2738
000000b0: 75ae 9938 74ec 0c38 6147 1316 58fc cd35
000000c0: ab9d d334 77df 3436 ffda 2a38 4479 1614
000000d0: 50db 6335 d729 9a36 4bea 0a37 416b 1136
000000e0: 7c9f 3734 870a df39 f74f f035 7156 1a39

exp_avg f4 [2]
-0.0009981561 -0.0051414054
00000000: 90d4 82ba 3c79 a8bb

exp_avg_sq f4 [2]
0.0008432844 0.0016453195
00000000: dc0f 5d3a c3a7 d73a
