pred_logs_lstm/86282_pred48/epoch=58-step=16166.ckpt (torch, 7474 bytes, 12 tensors)

lstm.weight_ih_l0 f4 [4, 11]
00000000: 5d71 4f3f cee2 b8bf f30d 28be 7d57 a83c
00000010: 8244 69bf 604d 53bf b9c5 45bd 459f 95be
00000020: 8e9e 88be fd8b eebf 4a25 d0be 893e 8b3f
00000030: c1a5 80bf 4bcb 733f 3141 083c efc2 1740
00000040: 1ee3 bebe fad1 77be 8c9a 173f 2952 7f3f
00000050: 59f2 08c0 ec8f 153f fc25 c33e 7b75 8f40
00000060: 738e c63e 9e5e bd3d 77fd b53f 1faa 9f3f
00000070: 719e 023f bcfa 3440 238f 97bf 6d48 dcbe
00000080: c4c6 403f d000 c2be 8d04 01c0 35dd d8be
00000090: 93cf 803c 4702 19bf 75ae 07bf 8ac2 5c3e
000000a0: ca5b 0abe 2bd9 1f3f c6e4 3b40 5630 45be
0.81032354 -1.4444215 -0.16411571 0.02054953 -0.9112016 -0.8253994 -0.048284266 -0.29223076
-0.26683468 -1.8636471 -0.4065345 1.0878459 -1.0050584 0.95232075 0.008316324 2.3712728
-0.37282652 -0.24201193 0.59220195 0.9973474 -2.1397917 0.5842273 0.38114917 4.483091
0.38780555 0.092465624 1.4217976 1.2473792 0.5102301 2.8278036 -1.1840557 -0.43024006
0.7530329 -0.37891245 -2.0159028 -0.42356268 0.01572398 -0.597691 -0.53000575 0.21558586
-0.13511577 0.6244075 2.9358382 -0.1925672

lstm.weight_hh_l0 f4 [4, 1]
00000000: 6701 c93f aa2b 033f c9f8 05c0 90f1 7d3f
1.5703553 0.512385 -2.0933096 0.9919672

lstm.bias_ih_l0 f4 [4]
00000000: c338 613e 0845 d9be e0b7 56bf 8f13 1b3f
0.21994309 -0.4243548 -0.8387432 0.6057672

lstm.bias_hh_l0 f4 [4]
00000000: 5322 cc3e c200 49bf 8472 513f 6958 43bf
0.39869937 -0.7851678 0.8181536 -0.7630678

exp_avg f4 [4, 11]
00000000: aa7e b2ba 623c a5b9 e94b 983a 8afa 39ba
00000010: 06ee 3839 be21 cbba c0ed 97b9 888a 1638
00000020: f643 3339 0e8e 8c3a 1424 61ba be92 efb8
00000030: 3c83 f5b7 0331 7e38 4c8f 82b8 5ad1 8e36
00000040: 8337 cbb8 f3b7 0fb8 c1c9 ac37 938a 4a37
00000050: 744c e538 15fd ae37 9996 183a 0d4f 8838
00000060: c872 e7b8 5676 7639 a476 3bb9 0224 ad39
00000070: 9388 1839 5d63 39b9 8990 94b8 029e 0bba
00000080: ea50 b8b9 7d11 88b8 85ed 92b7 c811 0f38
00000090: 052f 90b7 0402 73b8 9a35 76b8 145f 8836
000000a0: 7811 9537 b698 9c37 0db7 8a38 2ef5 1ab7
-0.0013618071 -0.0003151624 0.0011619303 -0.0007094523 0.00017636278 -0.0015497727 -0.00028978102 3.5891804e-05
0.00017096088 0.0010723488 -0.0008588445 -0.00011423741 -2.9267387e-05 6.0603965e-05 -6.225574e-05 4.2563015e-06
-9.690134e-05 -3.4265173e-05 2.0597947e-05 1.2072403e-05 0.000109338114 2.0860267e-05 0.00058207806 6.49971e-05
-0.00011036318 0.00023504472 -0.00017877907 0.0003302396 0.00014546727 -0.0001767999 -7.084112e-05 -0.0005325974
-0.000351555 -6.488243e-05 -1.751516e-05 3.4110417e-05 -1.7188033e-05 -5.7937592e-05 -5.870089e-05 4.0641844e-06
1.7770319e-05 1.866776e-05 6.614449e-05 -9.236201e-06

exp_avg_sq f4 [4, 11]
00000000: 9a03 de37 e755 8b36 8c1e f836 3449 ec36
00000010: 7d88 9c36 a9f6 8b37 eef7 1136 823f c035
00000020: 4c55 dc34 6b44 6a37 9f5a a735 c29f 5436
00000030: 10a9 4e35 8ac8 a935 450a 6435 9954 8834
00000040: 7f10 2a36 c4a9 bd34 e4e8 0a34 797a d832
00000050: 83a8 ca34 5bb8 b433 7c03 d036 f2b9 a134
00000060: f1d5 2635 20f4 cd35 c329 0135 fce6 a135
00000070: aaa2 dc34 b38f 4835 c4f7 0e33 8725 4f36
00000080: 66f0 7635 2793 c937 5aab 8b36 8a0e 0937
00000090: 46b6 e336 636c 0f36 25bd a937 cb25 1836
000000a0: 1197 9c35 7c18 3734 f0e4 e836 16c0 b235
2.646614e-05 4.152523e-06 7.394532e-06 7.04187e-06 4.6650516e-06 1.6684951e-05 2.1750998e-06 1.4323598e-06
4.1040255e-07 1.3963417e-05 1.2468844e-06 3.1683453e-06 7.6987e-07 1.2649846e-06 8.4951563e-07 2.5393527e-07
2.5341576e-06 3.5327514e-07 1.2936977e-07 2.5201404e-08 3.774804e-07 8.415437e-08 6.1992887e-06 3.012388e-07
6.2151145e-07 1.534474e-06 4.8117016e-07 1.206266e-06 4.1096547e-07 7.4714916e-07 3.3287293e-08 3.0867247e-06
9.1991967e-07 2.402959e-05 4.1624708e-06 8.1692215e-06 6.7863466e-06 2.137175e-06 2.0234447e-05 2.2671763e-06
1.1666872e-06 1.705211e-07 6.9407906e-06 1.3317938e-06

exp_avg f4 [4, 1]
00000000: d44b b3b9 c2ee a3b7 0ec9 dd37 7a77 81b7
-0.00034198037 -1.9542294e-05 2.6438876e-05 -1.5433634e-05

exp_avg_sq f4 [4, 1]
00000000: c765 6a36 ee40 2635 76ca a933 7f0c 5d36
3.492796e-06 6.1934304e-07 7.906503e-08 3.293884e-06

exp_avg f4 [4]
00000000: 20bc b33a 3570 f038 34cf 18ba d9ce 8a38
0.0013712682 0.00011464992 -0.00058292155 6.618881e-05

exp_avg_sq f4 [4]
00000000: cc23 e237 090a 5936 5109 d236 8d2c cc37
2.6957969e-05 3.234136e-06 6.2595723e-06 2.433944e-05

exp_avg f4 [4]
00000000: 20bc b33a 3570 f038 34cf 18ba d9ce 8a38
0.0013712682 0.00011464992 -0.00058292155 6.618881e-05

exp_avg_sq f4 [4]
00000000: cc23 e237 090a 5936 5109 d236 8d2c cc37
2.6957969e-05 3.234136e-06 6.2595723e-06 2.433944e-05
