pred_logs_lstm/87031_pred48/epoch=12-step=3562.ckpt (torch, 7474 bytes, 12 tensors)

lstm.weight_ih_l0 f4 [4, 11]
000000 90 f5 53 3f f4 ad b6 bf 64 68 30 bf 66 4f 8c be
       0.82796574 -1.4271836 -0.6890929 -0.27404326
000010 e2 4a 0f 3f f4 21 e8 3c 7c b7 67 3f 71 81 e0 be
       0.5597364 0.028336503 0.9051435 -0.43848756
000020 ea 15 e0 3e 7c e7 f1 3e b1 b6 9a be b0 c3 13 bf
       0.4376672 0.4724692 -0.30217507 -0.5772047
000030 aa 7e aa bf bb 8c 90 3e 7a c2 23 3f 97 e8 02 bd
       -1.3319905 0.2823237 0.6396862 -0.031960096
000040 4e 5c 05 bf 77 ed 0d bf a8 db 3d 3f 38 00 ed be
       -0.5209397 -0.5544047 0.74163294 -0.4628923
000050 0b 38 15 40 cd 2d 98 3e 78 3f 33 bf 8b 90 e8 3f
       2.3315456 0.29722443 -0.7001872 1.8169111
000060 86 e1 a8 3e 03 31 9b 3e 0c fa 12 3f 94 b8 8b 3f
       0.3298456 0.3031083 0.5741279 1.0915704
000070 8c 4c 08 3c e0 7a 84 3f 2f 90 c6 bf 7c 06 ee be
       0.008319031 1.0349998 -1.5512751 -0.46489322
000080 14 09 42 3e 03 fe 32 3f 87 cd 52 bf 10 f2 19 3d
       0.18948776 0.6991884 -0.8234486 0.037584364
000090 92 e8 8e 3a 89 c4 0b bf f4 89 6c bf db 5b 3c be
       0.0010903052 -0.54596764 -0.92398 -0.18394415
0000a0 5e b1 10 be 5e 06 85 bd 5f db bd bf 0b 32 69 be
       -0.1413016 -0.06495355 -1.4832572 -0.22772996

lstm.weight_hh_l0 f4 [4, 1]
000000 08 a3 07 40 65 e3 a7 3e d8 e0 c7 be f0 08 d2 3d
       2.1193256 0.32790676 -0.3903873 0.10255611

lstm.bias_ih_l0 f4 [4]
000000 90 a3 03 bf 97 20 e5 3e b7 12 0f be ea c4 42 be
       -0.5142145 0.44751427 -0.13971983 -0.19020429

lstm.bias_hh_l0 f4 [4]
000000 4e 25 93 3e 70 88 16 3f 11 ac 2c bf 66 c6 78 3d
       0.287394 0.5880194 -0.6745005 0.060736082

exp_avg f4 [4, 11]
000000 39 34 06 ba 7a 9f de b8 89 3b 9a 39 a6 98 ba b9
       -0.0005119476 -0.0001061549 0.00029417526 -0.00035590417
000010 98 c7 6e 37 5b 55 0c ba 5e 40 21 b8 3f d9 42 39
       1.4232377e-05 -0.0005353295 -3.8445338e-05 0.00018582212
000020 76 7b 8b 38 de 87 00 3a 09 90 7d 39 d0 5f 60 b6
       6.651033e-05 0.0004903058 0.00024181617 -3.3434371e-06
000030 5a df 9d b7 21 b2 f6 37 40 ee 82 b4 60 56 27 b4
       -1.8819865e-05 2.9408433e-05 -2.4387737e-07 -1.558451e-07
000040 22 eb b0 b7 e1 a0 0f 36 c6 e4 5c 37 21 96 40 37
       -2.1090327e-05 2.1402304e-06 1.3166287e-05 1.1479046e-05
000050 08 04 e3 36 08 1f 65 b5 a9 64 1f 3b ac 4c 06 b8
       6.7655965e-06 -8.5354304e-07 0.0024321473 -3.2019496e-05
000060 79 4d 44 b8 0f 9f ae 3a 0a c2 cd b8 e6 26 47 ba
       -4.6802194e-05 0.001332255 -9.811304e-05 -0.0007597044
000070 c0 52 0a b6 4a d1 3d ba d7 c0 35 b9 44 e8 1a bb
       -2.061177e-06 -0.00072409643 -0.00017333344 -0.0023636976
000080 cc 6d 5d ba 22 2c 3e bb 50 b7 d7 b9 34 80 0d 3b
       -0.0008446842 -0.0029018004 -0.00041144574 0.0021591308
000090 f8 96 cf ba f0 3d f4 38 86 ca 26 bb 4c 0c 31 b8
       -0.0015837839 0.000116463634 -0.0025450303 -4.221154e-05
0000a0 ce 9a 7a 39 2e 0f 7a 39 34 db 30 3b fd 1d 1b ba
       0.00023899527 0.00023847513 0.0026986124 -0.00059172494

exp_avg_sq f4 [4, 11]
000000 17 ca 03 38 a8 08 bc 36 d4 f2 3d 37 0b 73 5d 37
       3.1421045e-05 5.6038443e-06 1.1321816e-05 1.3199412e-05
000010 44 bb 95 36 8e 6f e6 37 dd e1 3d 36 23 92 ae 35
       4.4623466e-06 2.7470083e-05 2.8294664e-06 1.3006542e-06
000020 d5 03 ae 34 60 73 10 37 ec af bd 35 07 3f 77 37
       3.2412814e-07 8.609932e-06 1.4132797e-06 1.4737022e-05
000030 4a 4c 1b 36 8e 92 a5 36 cc 69 af 36 af c6 06 36
       2.3141206e-06 4.9344444e-06 5.227723e-06 2.0083205e-06
000040 be 80 41 37 57 c4 98 35 fb dd 23 35 4b 8f 1f 34
       1.1533672e-05 1.1382025e-06 6.1045256e-07 1.4860159e-07
000050 dc 29 9b 36 41 4f 5e 35 2a b7 59 38 df bd 80 36
       4.624233e-06 8.2816774e-07 5.1907416e-05 3.836801e-06
000060 84 48 0d 37 6c 6d 86 37 70 6c 72 36 21 58 85 37
       8.421139e-06 1.6024998e-05 3.612393e-06 1.5895874e-05
000070 59 2d 64 36 cd 15 4c 36 95 5b 7f 34 fb 7c e5 37
       3.4001043e-06 3.0411059e-06 2.3782043e-07 2.7357126e-05
000080 53 e4 83 36 9c 18 b1 38 2b de 86 37 0e f6 ee 37
       3.9306847e-06 8.4446016e-05 1.60775e-05 2.8486389e-05
000090 b4 63 c4 37 e7 91 42 37 a8 40 79 38 3a 1c 09 37
       2.3411449e-05 1.1597272e-05 5.9426442e-05 8.172408e-06
0000a0 2a e6 48 36 37 68 9c 35 e1 00 0c 38 44 af 55 36
       2.9936296e-06 1.1653236e-06 3.337942e-05 3.1841491e-06

exp_avg f4 [4, 1]
000000 32 cb 84 b8 f4 25 30 b7 91 e2 26 37 6a 9b 21 ba
       -6.3320986e-05 -1.0499254e-05 9.947123e-06 -0.0006164821

exp_avg_sq f4 [4, 1]
000000 bd cc 69 36 88 8b 06 36 e0 31 d5 35 38 26 63 37
       3.483888e-06 2.0048774e-06 1.5884252e-06 1.3539153e-05

exp_avg f4 [4]
000000 e4 a0 06 3a 20 a8 57 36 bf 67 1f bb dd 83 3e 3b
       0.0005135669 3.2135358e-06 -0.0024323312 0.0029070296

exp_avg_sq f4 [4]
000000 6f 86 06 38 42 ff 7c 37 7a 27 5c 38 bb 25 b4 38
       3.207329e-05 1.5079802e-05 5.2488853e-05 8.590097e-05

exp_avg f4 [4]
000000 e4 a0 06 3a 20 a8 57 36 bf 67 1f bb dd 83 3e 3b
       0.0005135669 3.2135358e-06 -0.0024323312 0.0029070296

exp_avg_sq f4 [4]
000000 6f 86 06 38 42 ff 7c 37 7a 27 5c 38 bb 25 b4 38
       3.207329e-05 1.5079802e-05 5.2488853e-05 8.590097e-05
