logs_feed_forward/epoch=25-step=28444.ckpt (torch, 24858 bytes, 18 tensors)

linear1.weight f4 [30, 11]
0.2175376 -0.061043605 0.039376903 -0.018884812 -0.35803235 0.069806434 -0.21320118 -0.4175332
-0.29544044 0.60539883 0.028599273 -0.1348217 0.71243024 0.06690742 0.017245166 0.6471331
0.107325226 -0.35946 0.2685604 0.016561344 -0.12733299 0.25607115 -0.22737809 -0.054162167
0.12758967 0.016163573 0.40853792 0.08701117 0.07106059 -0.48004234 -0.9958439 0.49063164
0.038120326 0.17275846 -0.07926893 -0.24522367 -0.008723395 0.38963917 -0.38826004 0.28407347
0.5976685 0.5821376 -0.013381695 -0.042247508 0.29795694 -0.1587459 -0.0622413 0.056539774
0.0289357 0.11875236 -0.06779449 -0.19932812 0.09930575 -0.16488898 -0.060019776 0.053795185
-0.29334238 -0.19356956 0.023513801 0.5242937 0.06391152 -0.4397708 0.54514664 -0.11304372
-0.26377085 0.0002222569 0.028839933 0.41044763 0.10466658 -0.011563287 0.06914009 -0.02001349
-0.03240382 0.08476958 -0.27315646 0.6668041 0.016043166 -0.3381333 0.37912247 -0.49684203
0.0030060436 0.17353879 0.11723813 -0.35335138 0.42015007 -0.13961522 -0.04900462 -0.068033986
0.023498159 -0.025928885 -0.14279526 0.00015164475 0.168302 -0.13408367 0.034269053 0.106275536
-0.99227804 -0.6016549 -0.06784903 -0.007004793 0.4618407 0.45334098 0.0103571145 0.037814226
0.14549348 0.17758954 0.0624048 -0.6276724 -0.52123487 -0.0074870936 0.053472128 -0.504828
0.06958923 -0.01469401 0.50864226 -0.057049274 0.11829533 0.8884363 0.29661655 0.03539392
-0.17705609 0.2909488 0.29915828 -0.19655675 0.0015263206 0.2297076 0.5343755 0.14999889
0.2686366 0.44702724 0.09845341 -0.04280288 0.055355724 -0.045124207 -0.065031186 -0.022577338
0.09332197 -0.23578666 -0.09221931 0.10756288 0.29200524 -0.1041581 0.5674687 0.1219974
0.4263928 0.33067453 -0.014897252 -0.37498575 0.11376674 -0.051594038 -0.30801326 0.4714894
-0.17883348 -0.39416993 -0.063352264 -0.36484516 -0.23068887 -0.012886478 -0.15148938 -0.32863575
0.10766469 -0.5244682 0.18181734 0.2401129 -0.18787335 0.02654997 0.3036149 0.19117631
-0.020556388 0.014803665 0.18439618 -0.20092922 -0.0946163 -0.13056567 -0.032156866 -0.73672867
0.098245166 0.36618716 -0.13338955 -0.0067793694 0.68748605 -0.25691587 -0.04377423 0.27081692
0.050287504 0.6022219 -0.093920074 -0.01742214 0.46610135 0.17911631 -0.030946901 0.23196338
-0.28716847 0.046321448 0.20985219 0.09330156 0.032164026 -0.4133745 0.25766364 -0.2122224
0.12139616 0.058604278 0.0468618 -0.18075079 0.12916437 0.12845656 -0.09996481 0.023754127
0.45532 0.28123033 0.36103776 -0.2360069 -0.018030925 -0.094126746 0.067987606 -0.18176644
-0.7921919 0.4149564 0.079478405 -0.38756675 -0.090038195 -0.323722 0.098430574 0.0034392118
-0.13478607 0.057527363 -0.21720533 0.03306242 0.17339998 -0.15346488 -0.49343666 -0.120415464
-0.41098723 0.24421288 0.018909289 0.3626959 0.115415275 -0.11715854 -0.087781206 -0.14538503
0.115037404 0.114447236 -0.23697904 0.4683782 0.10062066 -0.0011381784 0.531249 0.018114492
-0.09856207 0.1421057 -1.7291883 -0.027600681 -0.02836799 0.13933523 0.06399826 -0.24448813
00000000: 2dc2 5e3e dc08 7abd ad49 213d 52b4 9abc
00000010: 0450 b7be adf6 8e3d 6951 5abe e9c6 d5be
00000020: f843 97be 6bfb 1a3f 0649 ea3c b30e 0abe
00000030: d461 363f c206 893d bc45 8d3c 84aa 253f
00000040: 54cd db3d 240b b8be c080 893e a8ab 873c
00000050: 9463 02be c21b 833e cdd5 68be 26d9 5dbd
00000060: dea6 023e 7869 843c e22b d13e ea32 b23d
00000070: 3788 913d 1cc8 f5be a0ef 7ebf 1234 fb3e
00000080: 0f24 1c3d 98e7 303e c057 a2bd ea1b 7bbe
00000090: 92ec 0ebc c97e c73e 05ca c6be 1472 913e
000000a0: ce00 193f f806 153f e63e 5bbc b90b 2dbd
000000b0: d08d 983e 498e 22be bcf0 7ebd 4096 673d
000000c0: 900a ed3c 7034 f33d d6d7 8abd ac1c 4cbe
000000d0: d060 cb3d a8d8 28be 4cd7 75bd 5758 5c3d
000000e0: f930 96be 1937 46be 04a0 c03c 1d38 063f
000000f0: 0be4 823d a329 e1be bb8e 0b3f 7783 e7bd
00000100: f90c 87be a20d 6939 b941 ec3c 3126 d23e
00000110: 6f5b d63d f173 3dbc 5299 8d3d 55f3 a3bc
00000120: deb9 04bd ac9b ad3d 2adb 8bbe acb3 2a3f
00000130: f56c 833c cf1f adbe 571c c23e 1462 febe
00000140: 0b01 453b 27b4 313e 8b1a f03d 79ea b4be
00000150: e91d d73e 4bf7 0ebe 12b9 48bd 6755 8bbd
00000160: 367f c03c d068 d4bc ec38 12be d402 1f39
00000170: 5c57 2c3e 3b4d 09be b55d 0c3d fda6 d93d
00000180: ef05 7ebf 0e06 1abf 6ff4 8abd 7688 e5bb
00000190: 6276 ec3e 4f1c e83e e3b0 293c 17e3 1a3d
000001a0: 3efc 143e 08da 353e 2d9c 7f3d 23af 20bf
000001b0: a66f 05bf 4b56 f5bb 9705 5b3d 683c 01bf
000001c0: cc84 8e3d 25bf 70bc 6136 023f 80ac 69bd
000001d0: d244 f23d 9070 633f 20de 973e 37f9 103d
000001e0: 314e 35be 3ef7 943e 462b 993e 2c46 49be
000001f0: d20e c83a 7838 6b3e d5cc 083f 4f99 193e
00000200: bd8a 893e c1e0 e43e f1a1 c93d 1352 2fbd
00000210: afbc 623d 29d4 38bd 122f 85bd 1cf4 b8bc
00000220: 971f bf3d 0f72 71be 7add bcbd ed49 dc3d
00000230: b681 953e d850 d5bd a145 113f c6d9 f93d
00000240: 2850 da3e 2c4e a93e 9b13 74bc 22fe bfbe
00000250: 89fe e83d 4554 53bd eab3 9dbe 0f67 f13e
00000260: 2020 37be a4d0 c9be d5be 81bd fccc babe
00000270: b439 6cbe ce21 53bc 0820 1bbe f242 a8be
00000280: 4e7f dc3d 8c43 06bf 532e 3a3e 28e0 753e
00000290: df61 40be 537f d93c 6a73 9b3e b9c3 433e
000002a0: df65 a8bc 128b 723c 5ad2 3c3e 64c0 4dbe
000002b0: 31c6 c1bd 02b3 05be ebb6 03bd 409a 3cbf
000002c0: c334 c93d e27c bb3e 4597 08be 7925 debb
000002d0: 16ff 2f3f 7a8a 83be 9b4c 33bd 84a8 8a3e
000002e0: 45fa 4d3d 372b 1a3f 2b59 c0bd e0b8 8ebc
000002f0: d6a4 ee3e 446a 373e 5b84 fdbc cf87 6d3e
00000300: bf07 93be 8fbb 3d3d 7ee3 563e e314 bf3d
00000310: 6dbe 033d d3a5 d3be 7dec 833e d450 59be
00000320: 8d9e f83d 0a0b 703d 29f2 3f3d bc16 39be
00000330: aa43 043e 1e8a 033e 5aba ccbd 0498 c23c
00000340: b41f e93e 6cfd 8f3e f1d9 b83e cbab 71be
00000350: 97b5 93bc 86c5 c0bd 163d 8b3d fb20 3abe
00000360: 17cd 4abf 2a75 d43e 93c5 a23d 266f c6be
00000370: f265 b8bd e4be a5be f895 c93d 6664 613b
00000380: 5c05 0abe d0a1 6b3d 136b 5ebe 766c 073d
00000390: c48f 313e e625 1dbe bba3 fcbe 629c f6bd
000003a0: eb6c d2be f112 7a3e a7e7 9a3c 47b3 b93e
000003b0: d85e ec3d d1f0 efbd a2c6 b3bd d0df 14be
000003c0: bb98 eb3d 5063 ea3d a2aa 72be 44cf ef3e
000003d0: 3412 ce3d ee2e 95ba efff 073f d864 943c
000003e0: e9da c9bd 2884 113e 0b56 ddbf d31a e2bc
000003f0: fd63 e8bc e5ad 0e3e 8511 833d 195b 7abe

linear1.bias f4 [30]
-0.26582643 0.08329597 -0.35021177 -0.12567858 -0.20712784 -0.01028197 0.06673547 -0.16385762
0.119164154 -0.0061534857 -0.0025594751 -0.24048992 -0.04945567 -0.20512381 0.24501991 -0.13757713
-0.08911581 0.094852164 -0.2903724 -0.2700914 0.0034093328 0.28022516 0.1390706 -0.30024245
-0.013250923 -0.39761513 0.05935294 0.10158485 -0.06441341 0.16228385
00000000: 671a 88be 1497 aa3d f54e b3be e3b1 00be
00000010: 5219 54be b575 28bc 9bac 883d 4bca 27be
00000020: 560c f43d 2ea3 c9bb debc 27bb fd42 76be
00000030: 0792 4abd fa0b 52be 80e6 7a3e 05e1 0cbe
00000040: 5a82 b6bd da41 c23d b1ab 94be 6c49 8abe
00000050: 1d6f 5f3b ac79 8f3e 8668 0e3e 61b9 99be
00000060: 661a 59bc 3694 cbbe 121c 733d b80b d03d
00000070: 2eeb 83bd bd2d 263e

linear2.weight f4 [30, 30]
0.040504068 0.111147694 0.12827118 0.26600087 0.015428707 -0.6385878 0.24608244 0.2422937
-1.9839023 -0.2029196 0.004558636 0.3314768 -0.10650169 -0.037538048 -0.030316431 0.14256987
0.42554706 0.31010315 0.039067965 -0.50663877 -0.18268396 0.27703688 0.016244626 0.048982248
0.46606416 0.024187546 -0.016026497 0.08762409 0.06386912 0.022400916 -0.21749051 0.18092526
-0.75290185 -0.29101306 -0.056911156 0.061205577 0.005342826 -0.14686239 -0.038498838 -0.16662878
0.19347267 0.2142527 0.21720211 0.06373419 0.10978709 -0.16285445 -0.116033375 -0.044055965
-0.024815043 0.31174576 0.11861427 -0.103844695 -0.47631422 -0.14650841 -0.34077293 -0.04787282
0.10087735 0.103778474 0.025525631 0.22568916 -0.07957288 0.29571873 0.15872674 -0.099707976
-0.0459186 0.053760123 0.16026698 0.19536726 0.3171983 0.23769137 0.026147349 0.10685907
-0.12578033 0.10324892 -0.07173677 0.17926966 0.16772744 0.088109784 -0.109854914 -0.072741956
-0.086371325 -0.019195022 0.14288452 0.06170115 0.28769946 0.0802437 -0.23972656 0.115173586
-0.3004205 0.29209235 0.35424453 0.27879125 -0.6025363 0.13945946 0.10519433 -0.12061988
-0.21527725 -0.858873 -0.2677815 -0.0034307037 -0.13954571 0.16710278 -0.75663626 0.17709383
0.17388183 -0.07226296 0.4643111 0.35187793 -0.14493468 -0.063812636 -0.101232305 0.029145025
-0.042752072 0.078328505 0.0038849704 -0.19086981 -0.47366476 0.19215469 -0.6486424 -0.32934293
0.02184686 0.26567727 0.23139788 -0.29349574 0.08449718 -0.22497675 0.08206269 -0.052828554
0.41741994 0.26460627 0.060285866 0.11279091 0.0065535996 -0.20710225 0.13977416 0.13782012
0.36298165 0.07885176 -0.12807128 0.12349473 -0.19949189 -0.069156185 0.2618547 -0.06165929
0.3875095 0.51220876 -0.11932085 0.12382072 0.08002743 0.21765552 -0.028264767 -0.23549005
-0.14912839 -0.029112391 -0.1727382 -0.0240225 -0.1411184 -0.08693613 0.20541027 0.2550934
0.086780295 0.7393229 0.13042285 0.29388687 -0.13660988 -0.41609687 -0.17770539 -0.040221736
0.18904394 0.15962002 0.06697956 -0.011279923 -0.28997627 -0.060187876 -0.11975826 0.6619099
-0.042836465 -0.12785594 0.010224172 0.11102269 -0.13919409 0.17666936 -0.12799206 -0.07277894
-0.10620118 -0.056011602 -0.07123 0.028374821 0.003939733 -0.04139933 0.01731266 0.0026251227
-0.14653791 0.16206989 -0.15280129 0.11616707 0.073159784 0.0041339397 0.073679894 -0.09083776
-0.11253664 0.023625582 0.07003865 -0.16909282 -0.14449012 -0.17195162 -0.09025902 0.02507323
0.14644969 -0.11893596 0.13914192 -0.57413834 -0.019584646 0.73694587 -0.09982249 -0.539327
0.28613716 0.28944233 -0.12636381 0.045796823 0.14599074 -0.018531848 -0.23292214 0.5332635
-0.009342083 0.25597918 -0.23965959 0.21363966 0.025771672 0.016053291 -0.8163471 -0.13461593
-0.8168122 -0.08821039 -0.035599038 -0.60539275 0.10678667 0.17344683 0.03770746 0.07958277
-0.07776763 -0.58430433 -0.1647118 -0.21750507 -0.06690047 -0.15691854 -0.11579762 -0.09403544
-0.105950594 0.21253276 -0.45910785 0.082562566 -0.13035797 -0.1622777 -0.64672786 -0.17772909
00000000: 98e7 253d 67a1 e33d 8559 033e 4431 883e
00000010: b0c8 7c3c 7d7a 23bf 09fd 7b3e d71b 783e
00000020: 83f0 fdbf 28ca 4fbe 9c60 953b 54b7 a93e
00000030: 8f1d dabd 7fc1 19bd 2a5a f8bc d6fd 113e
00000040: 4ee1 d93e d7c5 9e3e bb05 203d 14b3 01bf
00000050: 8111 3bbe c7d7 8d3e 7313 853c 9ca1 483d
00000060: f69f ee3e f624 c63c 004a 83bc 4274 b33d
00000070: d0cd 823d 2082 b73c d5b5 5ebe 7944 393e
00000080: 2dbe 40bf aaff 94be ac1b 69bd b3b2 7a3d
00000090: df12 af3b 1863 16be f5b0 1dbd bca0 2abe
000000a0: b31d 463e 0f65 5b3e 3b6a 5e3e 1287 823d
000000b0: 0ed8 e03d 51c3 26be e8a2 edbd 0774 34bd
000000c0: eb48 cbbc 249d 9f3e 0aec f23d 87ac d4bd
000000d0: 75df f3be 4d06 16be ca79 aebe 4a16 44bd
000000e0: c998 ce3d cf89 d43d 211b d13c 0f1b 673e
000000f0: 1bf7 a2bd 7268 973e 4389 223e b233 ccbd
00000100: 2415 3cbd 9333 5c3d 071d 243e 5b0e 483e
00000110: d167 a23e 5e65 733e f732 d63c eed8 da3d
00000120: 8fcc 00be 2b74 d33d baea 92bd 7792 373e
00000130: bec0 2b3e e772 b43d 9dfb e0bd bcf9 94bd
00000140: 73e3 b0bd e13e 9dbc 5250 123e 58ba 7c3d
00000150: 584d 933e cf56 a43d e17a 75be 21e0 eb3d
00000160: b7d0 99be 218d 953e 8a5f b53e babd 8e3e
00000170: d23f 1abf 76ce 0e3e 2070 d73d 8e07 f7bd
00000180: a471 5cbe 1adf 5bbf a81a 89be a8d5 60bb
00000190: 12e5 0ebe fe1c 2b3e eab2 41bf 1658 353e
000001a0: 140e 323e 9afe 93bd 2fba ed3e 5829 b43e
000001b0: c269 14be 33b0 82bd e252 cfbd 8cc1 ee3c
000001c0: cc1c 2fbd b26a a03d fd9a 7e3b 6073 43be
000001d0: 3084 f2be 33c4 443e 6e0d 26bf a39f a8be
000001e0: 30f8 b23c da06 883e 91f3 6c3e 1345 96be
000001f0: dc0c ad3d 4e60 66be 7c10 a83d c162 58bd
00000200: 11b8 d53e 797a 873e 50ee 763d ecfe e63d
00000210: 94bf d63b 9d12 54be f520 0f3e b820 0d3e
00000220: bbd8 b93e 087d a13d 1e25 03be ceea fc3d
00000230: 9a47 4cbe c2a1 8dbd d211 863e 748e 7cbd
00000240: a567 c63e 1d20 033f 7d5e f4bd b895 fd3d
00000250: 6ce5 a33d 17e1 5e3e 838b e7bc 4e24 71be
00000260: 1db5 18be 1c7d eebc 48e2 30be d5ca c4bc
00000270: 5881 10be 920b b2bd 1257 523e 9a9b 823e
00000280: deb9 b13d 4444 3d3f 918d 053e 5778 963e
00000290: 76e3 0bbe a60a d5be 67f8 35be 8cbf 24bd
000002a0: bc94 413e 6e73 233e 942c 893d 6dcf 38bc
000002b0: c577 94be 9087 76bd d243 f5bd ed72 293f
000002c0: 4a75 2fbd abec 02be 4983 273c dd5f e33d
000002d0: e588 0ebe d0e8 343e 5a10 03be 200d 95bd
000002e0: 0180 d9bd 6c6c 65bd 09e1 91bd 5072 e83c
000002f0: e018 813b 5892 29bd 48d3 8d3c 400a 2c3b
00000300: 090e 16be a6f5 253e f177 1cbe 00e9 ed3d
00000310: ccd4 953d 0076 873b 7ce5 963d 2609 babd
00000320: 9c79 e6bd 708a c13c 6c70 8f3d ab26 2dbe
00000330: 38f5 13be 1614 30be b9d9 b8bd 6066 cd3c
00000340: e8f6 153e b294 f3bd 387b 0e3e bbfa 12bf
00000350: fb6f a0bc 7ca8 3c3f bc6f ccbd 5611 0abf
00000360: 9280 923e c931 943e 8465 01be 7395 3b3d
00000370: 997e 153e 1ad0 97bc 2483 6ebe f583 083f
00000380: 890f 19bc b40f 833e 5369 75be 5bc4 5a3e
00000390: 1d1f d33c 3182 833c 20fc 50bf c2d8 09be
000003a0: 9b1a 51bf a6a7 b4bd 4cd0 11bd 05fb 1abf
000003b0: f8b2 da3d 0c9c 313e 2373 1a3d 4bfc a23d
000003c0: a344 9fbd f894 15bf 36aa 28be a6b9 5ebe
000003d0: 1d03 89bd 41af 20be 4d27 edbd a795 c0bd
000003e0: a0fc d8bd 30a2 593e 2f10 ebbe 9016 a93d
000003f0: 8f7c 05be 202c 26be f58f 25bf 9dfe 35be

linear2.bias f4 [30]
-0.1171875 0.05064148 0.05309829 -0.054901555 -0.106369704 -0.23091497 -0.15121816 -0.197347
-0.011412592 0.045396157 -0.14943416 0.14827248 0.1644058 0.10962303 0.19440891 0.20096196
0.0148645025 -0.13817714 -0.07558077 -0.11357726 0.12735784 0.014709517 0.14718246 -0.16815461
-0.130878 0.23301424 0.13391301 -0.098106086 -0.18157 0.14627706
00000000: 0000 f0bd 716d 4f3d 987d 593d 74e0 60bd
00000010: 5cd8 d9bd f974 6cbe efd8 1abe 5515 4abe
00000020: e1fb 3abc 52f1 393d 4505 19be bed4 173e
00000030: fe59 283e 0a82 e03d 2113 473e f9c8 4d3e
00000040: 3e8a 733c 4f7e 0dbe 17ca 9abd 329b e8bd
00000050: 186a 023e 3000 713c 00b7 163e b930 2cbe
00000060: e204 06be 499b 6e3e 7e20 093e d8eb c8bd
00000070: 7ced 39be a7c9 153e

linear3.weight f4 [2, 30]
0.24523604 -0.18478835 0.020986386 -0.3788444 0.0641467 -0.38974342 -0.026678666 0.2994687
0.8493832 -0.034458723 0.32787776 -0.11391623 0.04627603 -0.19849862 0.055351388 -0.1985774
-0.12449349 -0.20857958 0.17305736 -0.2685916 0.4450406 -0.22460471 0.17398933 0.08053975
0.33320582 -0.21095602 -0.27819926 -0.11872251 0.066816956 -0.13850287 0.3476794 0.056694757
0.10907106 -0.37820145 0.28721887 -0.6440404 -0.043412894 0.46379495 0.5175301 -0.12405221
0.14109246 -0.011478737 -0.13511781 -0.19446655 0.1785024 -0.17058446 0.1089808 -0.30267808
-0.37220332 -0.34980494 0.14871192 0.0163476 -0.17728247 -0.15585968 0.6460593 -0.09853512
-0.14025722 -0.13221353 -0.032026332 -0.015472147
00000000: 281f 7b3e 2839 3dbe a4eb ab3c e5f7 c1be
00000010: 585f 833d 738c c7be 388d dabc f653 993e
00000020: 2d71 593f 9724 0dbd 98df a73e ea4c e9bd
00000030: ef8b 3d3d 3943 4bbe 23b8 623d e057 4bbe
00000040: 71f6 febd e395 55be f335 313e d784 89be
00000050: 5ddc e33e c7fe 65be 422a 323e 06f2 a43d
00000060: f499 aa3e db04 58be 2270 8ebe ca24 f3bd
00000070: 54d7 883d b2d3 0dbe 0903 b23e c338 683d
00000080: a660 df3d 9fa3 c1be 5a0e 933e d5df 24bf
00000090: b8d1 31bd 8876 ed3e da7c 043f 160f febd
000000a0: 8b7a 103e 5011 3cbc 535c 0abe 3d22 47be
000000b0: 55c9 363e b1ad 2ebe 5331 df3d 9ff8 9abe
000000c0: 6f91 bebe a219 b3be f047 183e 67eb 853c
000000d0: 8989 35be ae99 1fbe 2464 253f c8cc c9bd
000000e0: 979f 0fbe fc62 07be 0b2e 03bd e37e 7dbc

linear3.bias f4 [2]
0.06919867 -0.11742543
00000000: 08b8 8d3d be7c f0bd

exp_avg f4 [30, 11]
-0.00022739408 5.626389e-07 -0.00011255576 -9.178654e-05 -0.00016114776 -6.948058e-05 -7.130431e-06 -5.768793e-06
1.8880371e-05 0.00015812519 6.430337e-07 -0.00041943035 0.00021324801 -0.00037371556 -0.00076721347 -6.4821405e-05
0.00046875267 0.00015254068 -7.739269e-05 2.6170474e-05 -0.0005663383 7.8155186e-05 0.00010150667 -1.7263883e-06
-7.565925e-05 0.00018127044 -0.000112169466 -9.6536154e-05 -2.9219875e-05 -8.503404e-06 -1.4671377e-05 -3.9123224e-05
9.6373675e-05 -6.549221e-05 -9.78531e-05 0.000140511 -7.067766e-05 5.5649463e-05 -0.0001455206 -0.00010770907
-7.322779e-05 3.891515e-06 -0.00013676564 4.039322e-05 0.0 0.0 0.0 0.0
0.0 0.0 0.0 0.0 0.0 0.0 0.0 -0.00019844316
-0.00021624882 0.00029291734 -0.000107004744 0.00017230409 -0.00032842442 -0.00019370714 -4.206595e-05 2.173594e-05
0.000250323 -0.00027271465 0.0005060905 0.0002673209 -0.0005056154 0.00055781065 -0.00029664804 0.00034275715
0.000112902526 -6.502938e-05 -8.1465834e-05 -0.00012846403 0.0003608571 -0.00011045844 0.00010958324 -7.5363336e-05
-0.00010149643 -7.4273135e-05 0.00017999476 0.00014235296 3.909605e-06 -5.0307954e-06 -0.00016254766 9.399028e-05
-0.00030086908 -9.9999816e-05 0.00028538724 0.000106678934 1.0245254e-05 -0.0003412233 5.3528027e-05 4.0778552e-05
1.2933628e-05 -6.8452355e-05 -0.00025383855 -0.00013161456 -1.3473418e-05 6.963147e-05 -2.4623718e-05 2.658421e-05
0.00010176069 6.5793283e-06 3.6187055e-05 9.70186e-06 -6.443914e-05 -4.4702447e-05 3.696364e-05 0.00010210421
5.6283578e-05 -0.00022867508 -0.00010788745 0.00028536184 0.00011548407 -1.7298924e-05 -1.4483054e-05 0.00026676917
-0.00027595836 5.740687e-05 -7.08493e-05 0.00011884334 -7.3082076e-05 -3.0716171e-06 -3.8673857e-05 -3.206004e-05
8.891532e-05 -3.1691447e-06 0.000113898524 1.2795382e-05 0.00015354229 0.00014523791 6.6618522e-06 0.00011866402
-1.9172308e-05 0.00021349115 0.0001751661 8.6458254e-05 -2.4452815e-05 -3.9993454e-05 -0.00013363024 -0.00037273287
4.4933688e-05 -1.9672709e-05 -0.00032651421 -0.0002091857 5.479727e-05 0.00012773665 -1.7029695e-05 3.73097e-06
-0.00018620685 -2.9302471e-05 -1.1291355e-05 0.00012141079 1.0576739e-05 -0.00069796946 0.00017480573 0.00044340876
0.000117874835 -5.2035866e-06 -1.7953862e-05 -4.5603163e-05 -0.00017477255 0.00031828636 0.00015273286 -0.0003691758
0.0011449049 -9.198962e-05 0.0002013626 0.00017928363 -1.3084427e-06 -1.7635082e-05 4.7948393e-05 0.00025780202
0.00053335784 0.0002571399 -0.00029936357 0.00023335131 -9.9812205e-05 0.00031761813 0.00013941398 -1.863773e-05
-6.716848e-05 -0.00018045452 0.00018641396 0.00012393076 -7.8083816e-05 -4.167961e-05 -0.00045062497 0.00018327511
5.7123638e-05 -0.00014664698 -1.9767314e-05 -1.1537175e-05 0.00015711089 -3.9854203e-05 -0.00015981315 7.3582734e-05
4.6579167e-05 -9.5622156e-05 -0.00011687767 -0.00014107491 0.00010594977 6.818626e-05 -2.5498884e-06 -5.001018e-05
9.1630136e-05 0.0001126383 -5.163429e-05 6.642051e-05 1.7753115e-05 9.762616e-05 -0.00012699793 -1.944081e-05
2.8663926e-05 -8.850687e-06 -7.636981e-05 -1.314488e-05 -0.00025781966 -0.00022940425 0.0003553189 -0.00048599415
0.00013843628 -0.00037100585 -0.00020154948 1.6412847e-05 2.6894846e-05 7.815031e-05 -0.000112918606 0.00025820412
0.00011687664 2.4284018e-05 -0.00012745507 8.717033e-05 0.00021539323 0.0001143291 0.000113718634 -5.1631658e-05
6.631925e-05 4.977877e-05 0.0003905079 0.00014478478 -0.00048710773 0.0004750443 0.00015779432 0.0006511314
-9.0913905e-05 -3.6853326e-05 -2.3969205e-06 0.0005386258 -2.9030365e-05 -6e-45 6e-45 -6e-45
00000000: a270 6eb9 4008 1735 ea0b ecb8 867d c0b8
00000010: c6f9 28b9 1ab6 91b8 f041 efb6 8e91 c1b6
00000020: 4a61 9e37 68ce 2539 f09c 2c35 fde6 dbb9
00000030: 549b 5f39 41ef c3b9 d31e 49ba baf0 87b8
00000040: ebc2 f539 54f3 1f39 e24d a2b8 aa88 db37
00000050: 5276 14ba 3fe7 a338 fadf d438 40b6 e7b5
00000060: 40ab 9eb8 6a13 3e39 863c ebb8 7473 cab8
00000070: 341d f5b7 d8a9 0eb7 1625 76b7 3e18 24b8
00000080: 391c ca38 dd58 89b8 7c36 cdb8 2256 1339
00000090: c838 94b8 2869 6938 e396 18b9 dee1 e1b8
000000a0: df91 99b8 dc93 8236 bf68 0fb9 e46b 2938
000000b0: 0000 0000 0000 0000 0000 0000 0000 0000
000000c0: 0000 0000 0000 0000 0000 0000 0000 0000
000000d0: 0000 0000 0000 0000 0000 0000 2e15 50b9
000000e0: dac0 62b9 b392 9939 bc67 e0b8 87ac 3439
000000f0: 6130 acb9 dd1d 4bb9 f86f 30b8 9355 b637
00000100: c93d 8339 24fb 8eb9 29ab 043a 3427 8c39
00000110: 468b 04ba 0a3a 123a 6d87 9bb9 16b4 b339
00000120: 15c6 ec38 6260 88b8 a3d8 aab8 4db4 06b9
00000130: 6c31 bd39 eca5 e7b8 0ed0 e538 620c 9eb8
00000140: 7bda d4b8 16c3 9bb8 fabc 3c39 9544 1539
00000150: 402f 8336 34ce a8b6 8e71 2ab9 a61c c538
00000160: f7bd 9db9 feb6 d1b8 07a0 9539 d1b8 df38
00000170: 08e3 2b37 37e6 b2b9 4883 6038 a309 2b38
00000180: 82fd 5837 148e 8fb8 a215 85b9 0402 0ab9
00000190: e40b 62b7 1c07 9238 088f ceb7 2801 df37
000001a0: 5b68 d538 00c4 dc36 8ec7 1738 2cc5 2237
000001b0: 8023 87b8 e37e 3bb8 6809 1b38 c820 d638
000001c0: 0812 6c38 80c8 6fb9 a241 e2b8 9e9c 9539
000001d0: 0a30 f238 281d 91b7 3efc 72b7 27dd 8b39
000001e0: 81ae 90b9 28c8 7038 ee94 94b8 883b f938
000001f0: a443 99b8 fb21 4eb6 bd35 22b8 3578 06b8
00000200: 0d78 ba38 7ead 54b6 cedc ee38 bfab 5637
00000210: 3200 2139 014b 1839 e088 df36 43db f838
00000220: 38d4 a0b7 98dc 5f39 cbac 3739 ec50 b538
00000230: 0520 cdb7 a5be 27b8 181f 0cb9 5c6b c3b9
00000240: 2e77 3c38 d206 a5b7 ff2f abb9 dc58 5bb9
00000250: 1fd6 6538 0cf1 0539 feda 8eb7 9461 7a36
00000260: 8540 43b9 94ce f5b7 0070 3db7 ec9d fe38
00000270: c072 3137 f0f7 36ba 0e4c 3739 5179 e839
00000280: 9233 f738 789a aeb6 a09b 96b7 0646 3fb8
00000290: 2643 37b9 acdf a639 ea26 2039 f08d c1b9
000002a0: a210 963a 8dea c0b8 dd24 5339 15fe 3b39
000002b0: c09d afb5 0def 93b7 321c 4938 9a29 8739
000002c0: 0ad1 0b3a bcd0 8639 e6f3 9cb9 c4af 7439
000002d0: 4552 d1b8 fc85 a639 a82f 1239 3858 9cb7
000002e0: cedc 8cb8 6438 3db9 1e78 4339 69f3 0139
000002f0: eec0 a3b8 24d1 2eb8 dc41 ecb9 8a2d 4039
00000300: 0a98 6f38 40c5 19b9 fcd1 a5b7 ca8f 41b7
00000310: 22be 2439 2029 27b8 8493 27b9 6e50 9a38
00000320: 005e 4338 c188 c8b8 391c f5b8 82ed 13b9
00000330: 5a31 de38 38ff 8e38 c01e 2bb6 06c2 51b8
00000340: 8e29 c038 3a38 ec38 e691 58b8 3d4b 8b38
00000350: 86ec 9437 a5bc cc38 bf2a 05b9 d214 a3b7
00000360: 5073 f037 697d 14b7 bb28 a0b8 d488 5cb7
00000370: f82b 87b9 3c8c 70b9 184a ba39 08cd feb9
00000380: 3529 1139 9083 c2b9 0757 53b9 52ae 8937
00000390: 3e9c e137 a1e4 a338 b7ce ecb8 925f 8739
000003a0: ab1b f538 88b5 cb37 76a5 05b9 37cf b638
000003b0: 2edb 6139 f8c3 ef38 3a7c ee38 128f 58b8
000003c0: e014 8b38 8cc9 5038 15bd cc39 5ed1 1739
000003d0: 7e62 ffb9 5e0f f939 9775 2539 b0b0 2a3a
000003e0: 08a9 beb8 f592 1ab8 c8da 20b6 9132 0d3a
000003f0: 3c86 f3b7 0400 0080 0400 0000 0400 0080

exp_avg_sq f4 [30, 11]
1.8174908e-06 9.7388025e-08 3.065226e-07 1.0106419e-06 2.2828507e-07 8.310515e-07 1.451752e-07 1.3438103e-07
1.5637795e-08 1.541136e-06 3.8807585e-07 7.759267e-06 4.782244e-07 1.328224e-06 3.710704e-06 4.4572465e-07
3.1737477e-06 6.049597e-07 8.073814e-07 3.5106304e-08 4.965072e-06 1.8475081e-06 1.2629343e-06 2.8980728e-07
6.5587403e-07 6.5175357e-07 1.3025848e-07 1.1657803e-06 2.2082286e-07 5.829203e-08 5.5783094e-09 5.8631514e-07
5.7329805e-07 1.0698193e-06 1.4341528e-07 4.822123e-07 5.674396e-07 1.0143628e-07 8.991822e-07 1.3042039e-07
7.9526416e-08 1.1826443e-08 5.3156697e-07 4.8515847e-07 0.0 0.0 0.0 0.0
0.0 0.0 0.0 0.0 0.0 0.0 0.0 1.6983344e-06
2.5256767e-07 5.248377e-07 7.535596e-07 8.6336634e-08 9.303196e-07 2.600097e-07 1.396301e-07 9.407503e-09
6.6274373e-07 4.8115623e-07 8.374075e-06 1.0613471e-06 2.642289e-06 3.9561596e-06 7.9244353e-07 5.4328757e-06
8.757511e-07 5.3116935e-07 8.436527e-08 4.7138165e-06 2.6419857e-06 1.4829195e-06 7.819068e-08 1.2059564e-07
7.15626e-07 8.76487e-08 5.686062e-07 1.4299232e-07 1.7300786e-07 9.261475e-09 8.5667415e-07 3.5813164e-07
2.4212027e-06 3.9748275e-07 1.1332891e-06 1.1787691e-06 1.95965e-07 1.7732738e-06 2.7317017e-07 1.2208073e-07
1.7583682e-08 5.359706e-07 8.664442e-07 1.8376292e-06 1.8003796e-07 6.877949e-07 8.2138695e-07 1.3152165e-07
1.2839123e-06 1.5045102e-07 1.0752065e-07 8.938068e-09 8.71946e-07 5.6326303e-07 7.750437e-06 8.793463e-07
2.582983e-06 3.4569687e-06 4.0237435e-07 4.914123e-06 8.014355e-07 6.635133e-07 5.5831155e-08 3.5748299e-06
2.1540966e-06 1.9684244e-07 2.1737469e-08 4.199796e-08 1.0932911e-07 2.0668953e-08 1.1717079e-07 1.276863e-08
2.0615218e-08 2.4574045e-09 1.8296939e-07 1.0320459e-08 2.3156551e-06 2.3517434e-07 6.932413e-07 1.1118848e-06
2.9231612e-07 1.8030888e-06 2.2495458e-07 1.5264982e-07 2.4619611e-08 8.77748e-07 1.2323844e-06 6.8642674e-07
5.6102866e-08 3.102777e-07 3.504294e-07 1.3038202e-07 4.809183e-07 1.2860858e-07 3.8783842e-08 6.278358e-09
5.7475506e-07 2.1855351e-07 6.8782847e-06 1.0916922e-06 2.9130842e-06 3.0815984e-06 7.075682e-07 5.2571504e-06
7.6454796e-07 3.0032768e-07 7.444052e-08 2.504849e-06 2.0241303e-06 8.939481e-06 1.6738535e-06 4.871856e-06
4.196291e-06 9.806332e-07 8.365545e-06 1.171404e-06 2.98498e-07 7.3688405e-08 4.3517553e-06 4.4361154e-06
3.0364424e-06 2.7372906e-07 6.122656e-07 1.5422427e-06 2.066911e-07 1.3496933e-06 3.0997202e-07 3.035012e-07
2.654248e-08 2.1409817e-06 7.881447e-07 1.8029093e-06 3.067731e-07 8.332145e-07 9.348516e-07 2.715519e-07
1.5187562e-06 2.8459954e-07 1.12900196e-07 1.9485014e-08 5.9020726e-07 8.404463e-07 2.6289813e-06 3.1519767e-07
1.024017e-06 1.044344e-06 2.091021e-07 2.5963484e-06 2.6978174e-07 1.6616768e-07 1.6438177e-08 1.349167e-06
1.9749652e-06 3.8684593e-07 4.4267715e-08 9.5789304e-08 2.2033795e-07 5.9556164e-08 1.9765633e-07 3.574198e-08
6.442103e-08 1.6999471e-09 2.79305e-07 7.501086e-08 4.147309e-06 5.452793e-07 1.6397174e-06 1.8586991e-06
4.7518324e-07 2.6656787e-06 4.517764e-07 2.50323e-07 5.1881557e-08 1.8348173e-06 1.0444285e-06 2.0264017e-06
2.3348765e-07 6.2010065e-07 8.825149e-07 2.2184761e-07 1.2829004e-06 1.6770211e-07 1.2279419e-07 2.2777844e-08
6.073218e-07 5.422567e-07 4.6550726e-06 4.5639555e-07 1.4683186e-06 2.271083e-06 4.4588435e-07 2.8628297e-06
4.587563e-07 3.2749574e-07 1.8195808e-08 3.007702e-06 1.4228029e-06 3.5565274e-25 5.702015e-26 7.856305e-26
00000000: 82f0 f335 a223 d133 2590 a434 64a5 8735
00000010: 861e 7534 6d15 5f35 75e1 1b34 604a 1034
00000020: e053 8632 08d9 ce35 bd58 d034 cc2d 0237
00000030: 555f 0035 6e45 b235 6905 7936 ee4b ef34
00000040: 92fc 5436 8464 2235 d4ba 5835 cac7 1633
00000050: a599 a636 e5f7 f735 1882 a935 cf96 9b34
00000060: 520f 3035 2af4 2e35 2edd 0b34 e877 9c35
00000070: 531b 6d34 c45c 7a33 54ab bf31 4563 1d35
00000080: bee4 1935 b696 8f35 b1fd 1934 6071 0135
00000090: 2752 1835 2fd5 d933 555f 7135 af09 0c34
000000a0: 1cc8 aa33 3f2d 4b32 01b1 0e35 d63b 0235
000000b0: 0000 0000 0000 0000 0000 0000 0000 0000
000000c0: 0000 0000 0000 0000 0000 0000 0000 0000
000000d0: 0000 0000 0000 0000 0000 0000 53f2 e335
000000e0: a398 8734 92e2 0c35 3948 4a35 1168 b933
000000f0: 13bb 7935 7697 8b34 3bed 1534 a39e 2132
00000100: 67e7 3135 ce28 0135 617e 0c37 9c73 8e35
00000110: 2e52 3136 27bf 8436 4eb8 5435 0c4c b636
00000120: 2815 6b35 ae95 0e35 4c2c b533 602b 9e36
00000130: f84c 3136 ba08 c735 c8e9 a733 147d 0134
00000140: 7219 4035 6239 bc33 52a2 1835 6e89 1934
00000150: 0ac4 3934 661c 1f32 33f6 6535 3d45 c034
00000160: f27b 2236 9d65 d534 841b 9835 3336 9e35
00000170: 736a 5234 3901 ee35 39a8 9234 4c15 0334
00000180: ed0a 9732 9fdf 0f35 9895 6835 75a4 f635
00000190: 7550 4134 e8a0 3835 487d 5c35 6538 0d34
000001a0: e452 ac35 a98b 2134 1ae6 e633 0a8e 1932
000001b0: ac0f 6a35 2433 1735 e007 0237 380c 6c35
000001c0: 4f57 2d36 45fe 6736 e905 d834 ffe3 a436
000001d0: 3a22 5735 491c 3235 01cb 6f33 1ce7 6f36
000001e0: 198f 1036 a35b 5334 33b9 ba32 3f61 3433
000001f0: 50c8 ea33 828b b132 539f fb33 075d 5b32
00000200: 5815 b132 1edf 2831 3e76 4434 dc4d 3132
00000210: a766 1b36 3b84 7c34 2e17 3a35 123c 9535
00000220: 9fef 9c34 a901 f235 0b8b 7134 10e8 2334
00000230: 197b d332 629e 6b35 6868 a535 e342 3835
00000240: c1f5 7033 3e94 a634 a622 bc34 23ff 0b34
00000250: 7418 0135 a817 0a34 4993 2633 05b9 d731
00000260: de48 1a35 88ab 6a34 04cc e636 4286 9235
00000270: 687e 4336 75cd 4e36 b7ef 3d35 9466 b036
00000280: 563b 4d35 b93c a134 1cdc 9f33 fa18 2836
00000290: 4bd6 0736 c7fa 1537 2ba9 e035 ed78 a336
000002a0: ddcd 8c36 4d9e 8335 be59 0c37 2339 9d35
000002b0: 4141 a034 a13e 9e33 4b05 9236 f1d9 9436
000002c0: afc5 4b36 09f5 9234 925a 2435 0eff ce35
000002d0: d1ee 5d34 1c27 b535 3b6a a634 e3f0 a234
000002e0: 88ff e332 c9ad 0f36 e490 5335 7efb f135
000002f0: 93b2 a434 10aa 5f35 83f2 7a35 cfc9 9134
00000300: 11d8 cb35 10cb 9834 8a73 f233 0060 a732
00000310: bc6e 1e35 089b 6135 8e6d 3036 7038 a934
00000320: f570 8935 632b 8c35 8c85 6034 ed3c 2e36
00000330: 85d6 9034 d36b 3234 ef33 8d32 0615 b535
00000340: a589 0436 b3af cf34 de20 3e33 bab4 cd33
00000350: 0996 6c34 b2ca 7f33 5c3b 5434 b982 1933
00000360: d657 8a33 92a3 e930 63f3 9534 a815 a133
00000370: 1d29 8b36 4f5f 1235 4314 dc35 6a78 f935
00000380: b01c ff34 03e4 3236 ad8b f234 2264 8634
00000390: 60d4 5e33 d843 f635 4a2e 8c35 51fd 0736
000003a0: 99b4 7a34 fe74 2635 f6e5 6c35 0235 6e34
000003b0: 1f30 ac35 9b11 3434 69d9 0334 02a9 c332
000003c0: d606 2335 998f 1135 c532 9c36 8706 f534
000003d0: 0b13 c535 e968 1836 e161 ef34 0a1f 4036
000003e0: fc4a f634 acd2 af34 014d 9c32 edd7 4936
000003f0: 23f7 be35 6d23 dc16 d02c 8d15 4083 c215

exp_avg f4 [30]
0.00023057248 0.00041929618 -0.00010121644 6.0019156e-05 0.0 0.0002014929 -0.0005177256 0.00011010529
0.000305909 0.00013836526 -5.589539e-05 -5.740687e-05 -0.00014390709 0.00035898233 -1.20634795e-05 -0.00029864983
-0.00054190104 -0.00014656191 0.00016401638 -0.00010797224 0.00024364537 -0.00026593875 -0.00039452448 6e-45
3.858677e-05 0.00033279994 -0.00026127734 -0.00015594723 -6.403727e-05 6.9625356e-05
00000000: d4c5 7139 fbd4 db39 2a44 d4b8 14bd 7b38
00000010: 0000 0000 d747 5339 fab7 07ba 54e8 e638
00000020: 6962 a039 2416 1139 3871 6ab8 28c8 70b8
00000030: c4e5 16b9 cb35 bc39 4064 4ab7 1a94 9cb9
00000040: 5d0e 0eba 6aae 19b9 d0fb 2b39 286f e2b8
00000050: 0e7b 7f39 b26d 8bb9 2ed8 ceb9 0400 0000
00000060: 3bd8 2138 a77b ae39 0dfc 88b9 c485 23b9
00000070: bf4b 86b8 d403 9238

exp_avg_sq f4 [30]
1.8290604e-06 7.770113e-06 1.2710287e-06 1.1036817e-06 0.0 1.7047312e-06 8.501147e-06 1.4863377e-06
2.4591527e-06 1.8734248e-06 7.833237e-06 1.9704193e-07 2.3882915e-06 7.142355e-07 7.0768856e-06 9.168866e-06
3.050177e-06 1.8745479e-06 2.6812106e-06 3.8955358e-07 4.2473625e-06 2.0715456e-06 4.6774385e-06 3.5565274e-25
1.1018176e-06 3.0714677e-06 4.2165284e-06 6.150183e-07 5.1079087e-07 4.9398614e-06
00000000: 097e f535 625c 0237 3798 aa35 3722 9435
00000010: 0000 0000 1ece e435 26a0 0e37 2d7e c735
00000020: ec07 2536 6372 fb35 7f6b 0337 7992 5334
00000030: 8946 2036 e4b9 3f35 fc75 ed36 fbd3 1937
00000040: a4b1 4c36 fa98 fb35 d9ee 3336 d623 d134
00000050: 9184 8e36 e204 0b36 e4f2 9c36 6d23 dc16
00000060: 2ae2 9335 6a1f 4e36 b47b 8d36 bc17 2535
00000070: 481d 0935 16c1 a536

exp_avg f4 [30, 30]
2.1177031e-05 -5.227532e-05 -3.852485e-05 -3.2252807e-05 0.0 -6.864305e-05 -8.383958e-05 -4.0724424e-07
-9.6281276e-08 9.644026e-07 -0.00031108444 -5.372041e-06 -1.993365e-06 -1.3774884e-05 -0.000542599 -0.00021650894
-0.000120985605 -0.00036799558 2.0724547e-06 5.5419804e-07 -0.00038691366 -0.00051676424 -0.00013739408 -6e-45
-8.291293e-06 -3.9374903e-10 2.046003e-06 -3.9765964e-05 1.376991e-05 -5.9292815e-05 -2.0107062e-05 -1.746501e-05
-1.1121815e-06 -1.6002637e-06 0.0 -7.204262e-05 4.804744e-05 -1.0977314e-05 -3.6637644e-05 2.0932779e-05
-3.902145e-05 7.4107465e-06 -4.2752363e-05 -2.0460644e-05 -0.00011101998 -4.9088692e-05 -1.8350178e-05 -4.587578e-05
-1.818984e-06 -2.3145158e-06 -0.00012597427 -6.6104425e-05 -7.106456e-06 6e-45 -1.6142045e-05 -9.251058e-06
-5.0904677e-05 6.272957e-05 1.3185039e-05 2.1040032e-05 1.9429352e-05 3.1238782e-05 -1.2684376e-05 -1.2972923e-05
0.0 -2.8280527e-05 1.0111011e-05 5.5755227e-05 2.15119e-05 3.8266142e-05 -0.000118570475 2.2321274e-09
3.1940363e-05 -1.20236955e-05 -4.3060576e-05 -5.186067e-05 -3.8388323e-05 -8.512701e-05 1.2702885e-05 -2.2242532e-09
-0.00012682205 -8.770462e-05 -6.4787528e-06 -6e-45 -9.33071e-06 1.132879e-05 1.9677907e-05 -5.048805e-07
1.5814394e-05 7.291138e-05 1.3280445e-05 2.6485757e-05 7.3516836e-05 -2.5253934e-05 0.0 8.4375664e-05
0.00012152557 7.325317e-06 -0.00010814448 -0.000211917 0.0002060988 0.0 6.858748e-06 -8.501513e-05
0.00041690213 0.00015569065 0.000114966795 9.743273e-05 2.867706e-10 1.3053407e-05 0.00019101275 0.00029821193
8.579296e-05 6e-45 -3.2979828e-05 -2.7329572e-05 9.4041876e-05 -1.0228826e-05 8.674496e-06 4.7360227e-05
1.5551155e-05 5.035856e-05 -3.8006045e-05 -5.5440243e-05 0.0 -0.000110603025 -1.9726132e-05 0.00015038306
3.2888507e-05 9.570239e-05 -0.00037733535 -9.483733e-08 -6.285501e-05 -2.0860716e-05 -0.00029705465 -0.00014970312
-0.00012205736 -0.00029162294 -1.93392e-05 -2.2029865e-06 -0.00036145077 -0.00041217823 -4.7812493e-05 -6e-45
-1.5871425e-05 2.8938586e-05 1.9977588e-05 -5.7371755e-05 2.9894887e-05 0.00023243792 6e-45 -0.00024045254
-6e-45 7.013844e-05 0.0 1.6314923e-05 6e-45 -0.00040606593 0.00018725346 0.00021878292
0.00020463244 -6.892814e-06 0.00025683217 0.00012684039 0.0002391767 6.741286e-05 6e-45 0.00030193676
4.0659805e-05 -5.002005e-06 0.00031841494 0.00020422268 -0.00012910178 0.0 0.00011677789 5.9374433e-06
9.937501e-05 0.00012713185 -1.5329033e-05 -0.00036073796 0.0 0.0 0.0 0.0
0.0 0.0 0.0 0.0 0.0 0.0 0.0 0.0
0.0 0.0 0.0 0.0 0.0 0.0 0.0 0.0
0.0 0.0 0.0 0.0 0.0 0.0 0.0 0.0
0.0 0.0 5.0524995e-05 5.6418326e-06 1.1525327e-05 -5.0336395e-05 0.0 1.5439055e-33
3.7638117e-06 8.0410555e-06 -7.656648e-06 -8.514282e-06 -0.00011289055 -8.379574e-08 -3.6460533e-05 4.6729224e-06
-2.2963239e-05 -2.0855334e-06 -3.985843e-05 -4.91362e-05 -2.3884488e-06 2.0306632e-06 4.963475e-06 -6.0716546e-05
-4.0896632e-07 0.0 -1.9561094e-06 -1.1034601e-07 1.2554855e-05 -7.349944e-05 -2.0120002e-05 3.1096923e-05
0.0 -7.8064767e-07 0.0 1.5390058e-06 0.0 -6e-45 0.0 1.8642975e-06
-4.4851866e-05 -8.771269e-05 -5.4612224e-07 0.0 2.9477146e-06 -1.9751114e-05 -2.5125144e-06 6e-45
00000000: 54a5 b137 3342 5bb8 be95 21b8 3047 07b8
00000010: 0000 0000 75f4 8fb8 08d3 afb8 39a3 dab4
00000020: 31c3 ceb3 9f70 8135 0c19 a3b9 7b41 b4b6
00000030: c0c5 05b6 ad1a 67b7 343d 0eba ad06 63b9
00000040: a7b9 fdb8 88ef c0b9 8014 0b36 33c4 1435
00000050: acda cab9 7677 07ba 7111 10b9 0400 0080
00000060: d51a 0bb7 4077 d8af 104e 0936 61ca 26b8
00000070: 5005 6737 2db1 78b8 96ab a8b7 d381 92b7
00000080: 4446 95b5 a4c8 d6b5 0000 0000 9615 97b8
00000090: 8c86 4938 342b 38b7 5fab 19b8 cd98 af37
000000a0: f7aa 23b8 d4a9 f836 0051 33b8 e6a2 abb7
000000b0: 66d3 e8b8 95e4 4db8 b5ee 99b7 be6a 40b8
000000c0: d023 f4b5 1453 1bb6 f617 04b9 8ba1 8ab8
000000d0: fe73 eeb6 0400 0000 c768 87b7 fe34 1bb7
000000e0: 7b82 55b8 ae8d 8338 5035 5d37 207f b037
000000f0: 37fc a237 6306 0338 fbce 54b7 48a6 59b7
00000100: 0000 0000 f83b edb7 76a2 2937 b8da 6938
00000110: 7474 b437 f57f 2038 0aa9 f8b8 0064 1931
00000120: b4f7 0538 61b9 49b7 f19b 34b8 f884 59b8
00000130: 2603 21b8 3786 b2b8 7a1e 5537 7ad9 18b1
00000140: 89fb 04b9 0fee b7b8 1064 d9b6 0400 0080
00000150: 188b 1cb7 c810 3e37 fc11 a537 2087 07b5
00000160: 27a9 8437 00e8 9838 14cf 5e37 bb2d de37
00000170: 0d2d 9a38 69d8 d3b7 0000 0000 d7f2 b038
00000180: 8bdb fe38 fecb f536 a0cb e2b8 0936 5eb9
00000190: 3a1c 5839 0000 0000 3224 e636 264a b2b8
000001a0: a893 da39 e440 2339 541a f138 cc54 cc38
000001b0: 60a7 9d2f f5ff 5a37 984a 4839 5459 9c39
000001c0: bfeb b338 0400 0000 d253 0ab8 cf41 e5b7
000001d0: 5938 c538 799c 2bb7 ad88 1137 a8a4 4638
000001e0: da73 8237 1838 5338 ae68 1fb8 8288 68b8
000001f0: 0000 0000 8cf3 e7b8 8c79 a5b7 25b0 1d39
00000200: c4f1 0938 d4b3 c838 18d5 c5b9 60a9 cbb3
00000210: 07d1 83b8 0cfe aeb7 00be 9bb9 a0f9 1cb9
00000220: 0cf9 ffb8 f8e4 98b9 9e3a a2b7 05d7 13b6
00000230: 1a81 bdb9 a019 d8b9 468a 48b8 0400 0080
00000240: a023 85b7 24c1 f237 8b95 a737 74a2 70b8
00000250: c8c6 fa37 94ba 7339 0400 0000 fd21 7cb9
00000260: 0400 0080 4a17 9338 0000 0000 08dc 8837
00000270: 0400 0000 3fe5 d4b9 7859 4439 1869 6539
00000280: 9a92 5639 d248 e7b6 6ea7 8639 7500 0539
00000290: 82cb 7a39 0160 8d38 0400 0000 444d 9e39
000002a0: 228a 2a38 e5d6 a7b6 eef0 a639 9c24 5639
000002b0: 7f5f 07b9 0000 0000 a7e6 f438 403a c736
000002c0: 8d67 d038 b24e 0539 d996 80b7 6e21 bdb9
000002d0: 0000 0000 0000 0000 0000 0000 0000 0000
000002e0: 0000 0000 0000 0000 0000 0000 0000 0000
000002f0: 0000 0000 0000 0000 0000 0000 0000 0000
00000300: 0000 0000 0000 0000 0000 0000 0000 0000
00000310: 0000 0000 0000 0000 0000 0000 0000 0000
00000320: 0000 0000 0000 0000 0000 0000 0000 0000
00000330: 0000 0000 0000 0000 0000 0000 0000 0000
00000340: 0000 0000 0000 0000 cdea 5338 f94e bd36
00000350: e75c 4137 4b20 53b8 0000 0000 3d43 0009
00000360: cb95 7c36 12e8 0637 0e75 00b7 90d8 0eb7
00000370: a7bf ecb8 32f3 b3b3 33ed 18b8 19cc 9c36
00000380: 2ea1 c0b7 31f5 0bb6 aa2d 27b8 9817 4eb8
00000390: 3d49 20b6 8746 0836 ed8b a636 e5a9 7eb8
000003a0: e78f dbb4 0000 0000 b445 03b6 5cf7 ecb3
000003b0: b1a2 5237 b623 9ab8 60c7 a8b7 116e 0238
000003c0: 0000 0000 b38d 51b5 0000 0000 d68f ce35
000003d0: 0000 0000 0400 0080 0000 0000 c638 fa35
000003e0: 531f 3cb8 64f2 b7b8 3c99 12b5 0000 0000
000003f0: 5ad1 4536 32af a5b7 ab9c 28b6 0400 0000

exp_avg_sq f4 [30, 30]
8.450756e-08 1.3090802e-07 1.2706762e-07 3.83612e-08 0.0 4.8153247e-08 1.4250695e-06 9.660067e-08
7.8070217e-10 1.6641012e-09 9.099789e-07 4.765083e-09 4.3684508e-07 1.1014148e-08 3.439633e-06 1.4480673e-07
4.1648892e-07 1.0043728e-06 3.120753e-08 3.7337955e-09 9.725089e-07 2.7853018e-06 2.3057605e-07 3.1292246e-25
2.2088418e-09 6.147098e-11 4.1772563e-07 7.110489e-08 8.296635e-08 5.268774e-07 9.993859e-09 3.5239236e-08
2.2665667e-09 6.176725e-09 0.0 1.676877e-08 9.3302376e-08 2.4346804e-08 8.587756e-08 5.6999625e-08
9.07486e-08 3.4517805e-10 1.0271851e-07 1.0513825e-08 4.9131984e-07 2.0716788e-08 1.4640137e-08 1.3039629e-07
4.568379e-09 1.0754891e-09 1.7988876e-07 3.0058658e-07 2.2804624e-08 3.0847782e-25 2.415927e-09 3.2910457e-08
9.150723e-08 1.9555308e-08 6.856629e-09 1.2604823e-07 4.585594e-09 4.8613803e-08 8.8974215e-09 7.895396e-09
0.0 2.9450147e-08 9.5855576e-08 2.492759e-08 1.2583882e-07 8.089229e-08 1.265341e-07 3.488416e-10
7.835143e-08 8.406798e-09 3.285097e-07 2.1796364e-08 3.0345312e-08 1.5745219e-07 3.334188e-09 3.684192e-10
1.6626251e-07 3.2494842e-07 5.4842367e-08 2.1222663e-26 3.9790353e-09 4.137891e-08 4.5000636e-08 1.6651073e-08
6.2949246e-09 1.1039648e-07 3.9085407e-08 1.1414556e-08 5.773986e-08 4.6325898e-08 0.0 8.0551914e-08
4.5625842e-07 4.4874163e-10 1.9887551e-07 9.891157e-08 1.2162125e-06 0.0 8.2053436e-10 6.8202404e-08
4.333288e-06 3.5351002e-07 2.6537933e-07 2.1913215e-06 1.2808313e-11 2.636614e-09 2.3444543e-06 2.4822646e-06
2.0440126e-07 2.3502723e-25 9.857626e-09 6.3730923e-09 1.7949084e-07 6.976358e-09 4.8153663e-09 2.3282478e-08
2.9816057e-08 3.2186136e-07 5.9180042e-08 4.7010403e-08 0.0 1.8363373e-07 6.1695005e-07 1.6682517e-07
8.4164105e-07 5.459778e-07 7.074186e-07 2.3465756e-09 5.245746e-07 4.7584432e-08 1.764915e-06 1.1831718e-07
2.0315773e-07 8.781131e-07 2.0498346e-08 2.9974796e-09 8.502681e-07 1.8098735e-06 3.610309e-07 3.624218e-26
2.6446843e-08 2.78771e-07 2.7276795e-07 1.1336729e-07 4.358495e-08 7.214398e-07 3.1230218e-12 7.435359e-07
3.6597827e-21 6.468381e-08 0.0 3.819351e-07 1.7922769e-10 4.7756265e-07 3.4866998e-06 2.7328367e-06
4.622952e-07 5.17573e-10 1.0469547e-06 2.3365205e-07 8.01273e-07 1.5700093e-07 2.3208245e-13 1.173643e-06
2.0733962e-08 4.079909e-09 1.382973e-06 6.786459e-07 4.9124844e-07 0.0 1.01449714e-07 1.6653821e-06
5.4779457e-07 3.296028e-07 2.406027e-08 1.9483953e-06 0.0 0.0 0.0 0.0
0.0 0.0 0.0 0.0 0.0 0.0 0.0 0.0
0.0 0.0 0.0 0.0 0.0 0.0 0.0 0.0
0.0 0.0 0.0 0.0 0.0 0.0 0.0 0.0
0.0 0.0 2.5976627e-08 3.433321e-10 5.3996363e-09 6.7917942e-09 0.0 1.4863887e-14
1.8820884e-07 1.4772729e-08 4.6332074e-10 6.3842465e-10 3.993918e-08 2.3143045e-09 1.4391809e-08 1.3964788e-09
1.9594124e-07 4.2512885e-10 1.3699873e-08 2.2879245e-08 1.3632917e-09 3.0599552e-09 2.37068e-09 5.487167e-08
7.479043e-10 0.0 2.0325675e-11 2.009822e-11 1.0932521e-07 2.788576e-08 1.7118154e-08 1.3263309e-07
0.0 2.3720546e-09 0.0 3.7982297e-09 0.0 4.7428217e-14 0.0 1.3887446e-09
1.9374758e-07 3.9703215e-07 8.00404e-09 0.0 7.397282e-08 5.580725e-09 1.4278746e-08 1.1581669e-15
00000000: 867a b533 b98f 0c34 1570 0834 96c2 2433
00000010: 0000 0000 0ed1 4e33 0445 bf35 c872 cf33
00000020: 0899 5630 5bb6 e430 4645 7435 1dba a331
00000030: 8887 ea34 bc38 3d32 72d4 6636 2c7c 1b34
00000040: cd99 df34 fdcd 8635 0b09 0633 d04a 8031
00000050: 2787 8235 1feb 3a36 4394 7734 8bb0 c116
00000060: 5bca 1731 162d 872e c643 e034 54b2 9833
00000070: 3c2b b233 bd6e 0d35 75b1 2b32 f359 1733
00000080: ddc1 1b31 0c3b d431 0000 0000 ea0a 9032
00000090: 865d c833 3023 d132 b06b b833 c0cf 7433
000000a0: 92e1 c233 7ec3 bd2f 1996 dc33 4ba0 3432
000000b0: 3ee3 0335 b3f4 b132 0184 7b32 0f03 0c34
000000c0: e3f7 9c31 69d0 9330 7227 4134 4e60 a134
000000d0: e6e3 c332 43f0 be16 7005 2631 6e59 0d33
000000e0: a282 c433 94fa a732 8c97 eb31 e057 0734
000000f0: 508f 9d31 71cb 5033 46db 1832 52a4 0732
00000100: 0000 0000 8ff9 fc32 29d9 cd33 5a20 d632
00000110: 501e 0734 02b7 ad33 6edd 0734 17c7 bf2f
00000120: 2742 a833 7d6d 1032 085e b034 b63a bb32
00000130: 0655 0233 2110 2934 a81f 6531 658a ca2f
00000140: e485 3234 9274 ae34 d28b 6b33 d82d d214
00000150: f7b7 8831 98b8 3133 b946 4133 1908 8f32
00000160: be4a d831 1b13 ed33 dcde 2733 c019 4432
00000170: a6fd 7733 ddf7 4633 0000 0000 e2fb ac33
00000180: aef3 f434 c5b2 f62f 7c8a 5534 3669 d433
00000190: be3c a335 0000 0000 f98b 6130 ab76 9233
000001a0: a966 9136 0cca bd34 7579 8e34 9e0e 1336
000001b0: 8353 612d ce2f 3531 6b55 1d36 fb94 2636
000001c0: 6479 5b34 8d79 9116 4c5a 2932 50fa da31
000001d0: 11ba 4034 b2b4 ef31 6974 a531 b6fe c732
000001e0: 1a0f 0033 4acc ac34 252d 7e33 7ce8 4933
000001f0: 0000 0000 db2c 4534 7c9c 2535 8e20 3334
00000200: 22ed 6135 4f8f 1235 70e5 3d35 6541 2131
00000210: 7ed0 0c35 a35f 4c33 05e2 ec35 8f15 fe33
00000220: 9223 5a34 79b7 6b35 5714 b032 38fc 4d31
00000230: fb3d 6435 c8ea f235 b6d3 c134 6c76 3315
00000240: 392d e332 ffa9 9534 f170 9234 5474 f333
00000250: 2932 3b33 f7a8 4135 5cc3 5b2c 6697 4735
00000260: 3f43 8a1d 4de8 8a33 0000 0000 c30c cd34
00000270: 1c10 452f db31 0035 0cfd 6936 c765 3736
00000280: 5e31 f834 f644 0e30 1785 8c35 c9e1 7a34
00000290: 1017 5735 1694 2834 9ba6 822a 1186 9d35
000002a0: 771a b232 422f 8c31 979e b935 312c 3635
000002b0: 56de 0335 0000 0000 92dc d933 1886 df35
000002c0: 280c 1335 44f4 b034 18ad ce32 2dc1 0236
000002d0: 0000 0000 0000 0000 0000 0000 0000 0000
000002e0: 0000 0000 0000 0000 0000 0000 0000 0000
000002f0: 0000 0000 0000 0000 0000 0000 0000 0000
00000300: 0000 0000 0000 0000 0000 0000 0000 0000
00000310: 0000 0000 0000 0000 0000 0000 0000 0000
00000320: 0000 0000 0000 0000 0000 0000 0000 0000
00000330: 0000 0000 0000 0000 0000 0000 0000 0000
00000340: 0000 0000 0000 0000 3523 df32 b3bf bc2f
00000350: b487 b931 415d e931 0000 0000 cae1 8528
00000360: 7416 4a34 26cb 7d32 99b6 fe2f 247d 2f30
00000370: 9889 2b33 ad09 1f31 d83f 7732 3bee bf30
00000380: eb63 5234 91b7 e92f ae5c 6b32 fe87 c432
00000390: 905e bb30 4d47 5231 72e9 2231 0aac 6b33
000003a0: 1695 4d30 0000 0000 5ac9 b22d 2bc9 b02d
000003b0: 2bc6 ea33 6f89 ef32 380b 9332 e869 0e34
000003c0: 0000 0000 a001 2331 0000 0000 9581 8231
000003d0: 0000 0000 0399 5529 0000 0000 1bde be30
000003e0: ee08 5034 af27 d534 2482 0932 0000 0000
000003f0: fdda 9e33 94c0 bf31 974e 7532 d1e8 a626

exp_avg f4 [30]
-0.0007327931 -7.943019e-05 -1.27153035e-05 0.00027275825 -0.00027732525 0.00036948972 0.0 -6.6921515e-05
-0.00012070835 9.592429e-05 0.0002588912 -2.8022332e-05 0.00010281941 5.7572906e-05 0.0001757846 -3.9322767e-05
-2.7970047e-05 0.0001476221 -0.0004231761 -0.00052368507 1.3849014e-05 2.6413778e-05 -0.00023397863 6e-45
0.00035636016 -7.734349e-05 6.8145106e-05 6e-45 6e-45 -4.7651934e-05
00000000: ea18 40ba c293 a6b8 d053 55b7 fe00 8f39
00000010: f765 91b9 12b8 c139 0000 0000 3758 8cb8
00000020: cd24 fdb8 f62a c938 cabb 8739 8011 ebb7
00000030: c0a0 d738 707a 7138 d252 3839 80ee 24b8
00000040: 38a1 eab7 01cb 1a39 bcdd ddb9 e947 09ba
00000050: 1059 6837 2893 dd37 2958 75b9 0400 0000
00000060: dad5 ba39 7833 a2b8 20e9 8e38 0400 0000
00000070: 0400 0000 e0dd 47b8

exp_avg_sq f4 [30]
7.2681005e-06 1.2175395e-06 1.1461029e-06 6.1122832e-06 6.806156e-06 1.0143372e-05 0.0 5.1284417e-07
7.9188277e-07 1.508595e-06 5.993892e-06 9.60908e-07 1.2280237e-06 8.039925e-06 2.8942893e-06 6.5829304e-06
1.2406647e-06 6.8189975e-06 1.9307558e-06 9.0595395e-06 5.224549e-07 1.9213e-06 1.3484212e-06 8.605309e-22
3.9365123e-06 4.9503374e-06 4.727215e-06 2.8476866e-22 5.8687592e-21 1.4126239e-06
00000000: 82e0 f336 576a a335 ccd3 9935 1d18 cd36
00000010: 6f60 e436 732d 2a37 0000 0000 62aa 0935
00000020: c591 5435 ee7a ca35 241f c936 8cf8 8035
00000030: 93d2 a435 37e3 0637 833b 4236 f1e2 dc36
00000040: ea84 a635 bece e436 2292 0136 6dfe 1737
00000050: d43e 0c35 afef 0036 66fb b435 2d0a 821c
00000060: 6216 8436 131b a636 789e 9e36 d121 ac1b
00000070: 28b7 dd1d 6399 bd35

exp_avg f4 [2, 30]
-0.00024810177 0.00013370723 -3.6888698e-05 0.00014918679 -0.00024970333 -0.0001341658 0.0 7.4300004e-07
-1.3182703e-05 0.0003729915 -0.00016629603 0.0003709675 0.00030015755 0.00062611833 -7.4211275e-05 0.00037079817
0.00017445735 0.00014818093 7.773326e-05 0.00020853215 1.07431e-05 6.177115e-05 -0.00023149549 -6e-45
-2.449251e-05 0.00040765648 0.00016847721 -6e-45 6e-45 0.00044734246 -0.00031559408 0.00019776713
0.00023986417 -5.0742707e-05 0.0004176333 -9.2595285e-05 0.0 -5.5762666e-05 2.2587994e-06 -0.000113760776
0.0003687491 -0.00015598827 -0.00013613843 -0.0003323437 0.0007112315 -0.0007162476 -0.00046140494 -0.00027984576
0.00028122994 0.00017696063 1.0015986e-05 -0.00034870105 0.00037439016 -6e-45 0.00010632312 -0.00050556316
0.00027263808 6e-45 -6e-45 -7.932936e-05
00000000: a813 82b9 c333 0c39 f0b8 1ab8 066f 1c39
00000010: 9dea 82b9 dcae 0cb9 0000 0000 9372 4735
00000020: 472b 5db7 128e c339 c05f 2eb9 6a7e c239
00000030: 775e 9d39 1722 243a e0a1 9bb8 b067 c239
00000040: 8aee 3639 0461 1b39 ba04 a338 6ca9 5a39
00000050: 433d 3437 228b 8138 99bd 72b9 0400 0080
00000060: 4475 cdb7 baba d539 42a9 3039 0400 0080
00000070: 0400 0000 4a89 ea39 5276 a5b9 b65f 4f39
00000080: 0c84 7b39 91d4 54b8 cbf5 da39 b72f c2b8
00000090: 0000 0000 b5e2 69b8 e195 1736 da92 eeb8
000000a0: ab54 c139 c890 23b9 62c0 0eb9 6b3e aeb9
000000b0: f071 3a3a 90c2 3bba b9e8 f1b9 43b8 92b9
000000c0: 0b72 9339 828e 3939 550a 2837 ddd1 b6b9
000000d0: cc49 c439 0400 0080 caf9 de38 c587 04ba
000000e0: ddf0 8e39 0400 0000 0400 0080 a05d a6b8

exp_avg_sq f4 [2, 30]
1.9053249e-06 8.015942e-07 8.106468e-06 2.0610929e-07 6.522549e-06 5.190748e-07 0.0 1.1870954e-08
6.754607e-09 4.239267e-06 1.5447202e-06 3.419387e-06 2.3346963e-06 1.3339783e-05 6.9542853e-06 8.7348235e-06
2.9122336e-06 3.1497916e-06 3.6263103e-07 7.9923166e-07 1.1608192e-08 9.0012156e-07 8.354713e-07 5.471977e-23
3.6192148e-08 1.0185137e-05 2.330021e-06 2.7247895e-24 1.2544666e-21 5.2682026e-06 3.0037254e-06 9.5111466e-07
1.1409426e-05 2.5692185e-07 8.983681e-06 7.0924204e-07 0.0 1.917843e-08 1.0646694e-08 4.64001e-06
2.426734e-06 3.935717e-06 2.7191022e-06 1.607284e-05 9.409019e-06 1.0071584e-05 3.2818593e-06 3.7180994e-06
4.6609912e-07 1.0452594e-06 1.1087809e-08 1.5781195e-06 9.751533e-07 1.23000344e-23 7.992223e-08 1.17020645e-05
2.539326e-06 1.7022086e-24 9.562107e-21 5.9766335e-06
00000000: 77ba ff35 222d 5735 0401 0837 e44e 5d34
00000010: 45dc da36 8c56 0b35 0000 0000 02f1 4b32
00000020: 2716 e831 073f 8e36 2f54 cf35 9f78 6536
00000030: c7ad 1c36 efcd 5f37 db58 e936 c88b 1237
00000040: cb6f 4336 0261 5336 a1af c234 c88a 5635
00000050: 5e6d 4732 e29f 7135 2745 6035 e64d 841a
00000060: b071 1b33 d5e0 2a37 755d 1c36 04d2 5218
00000070: d391 bd1c 84c5 b036 9c93 4936 1a50 7f35
00000080: 1d6b 3f37 12ef 8934 9eb8 1637 be62 3e35
00000090: 0000 0000 d0bd a432 a8e8 3632 62b1 9b36
000000a0: f9da 2236 8d0f 8436 d279 3636 29d4 8637
000000b0: 6edb 1d37 20f9 2837 ea3d 5c36 7684 7936
000000c0: 2d3c fa34 d74a 8c35 b37c 3e32 c6cf d335
000000d0: 03e2 8235 d2ea 6d19 b6a1 ab33 fc53 4437
000000e0: 4a69 2a36 b7b3 0318 839f 341e e48a c836

exp_avg f4 [2]
0.0006177551 0.00011823815
00000000: d8f0 213a a0f6 f738

exp_avg_sq f4 [2]
7.099641e-05 8.6728076e-05
00000000: e8e3 9438 c8e1 b538
