logs_feed_forward/epoch=99-step=109400.ckpt (torch, 24858 bytes, 18 tensors)

linear1.weight f4 [30, 11]
000000 37 1f 8f be c3 e4 aa be 04 e8 51 be ac 67 72 3a
       -0.27953503 -0.33377656 -0.20498663 0.00092470157
000010 c0 a3 4a 3f 30 a0 bd bb 79 97 0d be c8 9c ea bd
       0.7915611 -0.005786918 -0.13827313 -0.11455685
000020 91 53 ea bf a0 02 45 bf 49 11 a0 bc e6 1e fc bd
       -1.8306752 -0.7695713 -0.019539492 -0.12310581
000030 e8 ea 86 bf b5 1c 1f bf 97 52 82 bb 0a 47 89 3e
       -1.0540438 -0.6215318 -0.0039771306 0.2681201
000040 b8 6a cb bd de 7c 4a be 37 e4 44 be 17 24 b9 be
       -0.09932464 -0.19774196 -0.19227682 -0.36160347
000050 6f 7b 5a bd f0 78 77 3d 4a 96 48 bd fb 3e 90 bb
       -0.05334037 0.06041807 -0.04897145 -0.004402039
000060 98 d6 3c bd ca d4 af 3c f0 65 a2 3f 23 08 a9 be
       -0.04610309 0.02146377 1.2687359 -0.3301402
000070 57 63 be 3e bd 9f 80 bf 1e cd 05 bf 37 e5 c2 3e
       0.37185165 -1.0048748 -0.5226611 0.38065502
000080 52 e8 59 bd ec f9 a5 bd 9c 54 92 bf 51 2b 11 bc
       -0.053200074 -0.081043094 -1.1432071 -0.008860425
000090 8e 48 6d bb ed 0b d2 be ad 82 4d 3d 2c 99 a4 3d
       -0.0036206576 -0.41024724 0.05017345 0.08037028
0000a0 f5 35 15 3f be b4 9b 3e 06 0e 53 be ca 9b 12 be
       0.58285457 0.30411333 -0.20610818 -0.14317241
0000b0 f5 ff 3a bd a9 c3 86 be 83 29 85 bd 36 b3 7a 3c
       -0.045654256 -0.26321152 -0.06502058 0.015301516
0000c0 07 07 08 bd 0f 73 1a 3e 04 c0 83 3e 9b ae 36 3c
       -0.033209827 0.15082954 0.25732434 0.011150028
0000d0 1b cf 2a 3e 5f e5 07 3c e9 4c 7d 3f aa 7e 04 be
       0.16680567 0.008294432 0.9894548 -0.12938944
0000e0 c7 35 1e bf e6 d3 c9 be 2b f0 a7 bc 28 9f 46 3e
       -0.6180081 -0.39419478 -0.020500263 0.19396651
0000f0 95 c2 84 be 13 e6 94 3c db 21 3f 3e 5a 8c ad 3e
       -0.25929704 0.018176114 0.18665259 0.33896142
000100 8a 65 81 3d 76 c1 a1 be 6e 46 2d be b3 29 a1 be
       0.06318195 -0.3159291 -0.16921398 -0.31477126
000110 74 5f 9c 3d 01 99 85 bb b5 6e 61 3b 4e 00 6e 3c
       0.07635394 -0.0040770774 0.0034398262 0.01452644
000120 25 4e 14 3e 39 35 39 bc 26 27 eb 3f cf a3 a9 3e
       0.14482935 -0.011304193 1.8371322 0.3313279
000130 04 f8 5f 3d 9b d7 62 be 50 c4 6c bc 8e 22 dd 3d
       0.054679886 -0.2215256 -0.014451101 0.107976064
000140 55 12 5a 3b b7 7f 1a bd 1d 9b c3 be 8a 4d be be
       0.0033275087 -0.037719455 -0.3820428 -0.37168533
000150 72 b2 99 be 0b 41 38 be 5b 1e 15 bd d4 f7 a5 3c
       -0.30018955 -0.17993562 -0.036405902 0.020259775
000160 02 bf a0 be 7c 73 0a 3f b0 b6 75 3d 62 8a a2 bb
       -0.31395727 0.54082465 0.059988678 -0.004960344
000170 51 b2 46 3f 38 3b 36 bc d7 6f 00 3e 94 62 ab bc
       0.7761584 -0.011122517 0.12542664 -0.02092103
000180 91 b5 44 c0 c8 3a 27 3e 22 6f 17 3d f2 08 a8 bd
       -3.073582 0.16331017 0.03697122 -0.08204831
000190 a3 39 b3 be ad 4b b9 bd 4c e2 52 bc 9f 96 f1 3d
       -0.3500491 -0.09047637 -0.012871336 0.11796307
0001a0 9e a4 18 bd 5f f5 5b 3e 53 37 bd bf ad 90 e0 3e
       -0.037266366 0.2148032 -1.4782509 0.4386038
0001b0 16 f0 09 be 69 27 bd bb 1c 32 09 3f 31 0b e8 bd
       -0.13470492 -0.0057725203 0.53592086 -0.113302596
0001c0 65 00 2f 3d a9 e1 3a 3c e5 51 1a 3d ed a4 47 bf
       0.042724986 0.011406341 0.037675757 -0.7798603
0001d0 fe 09 d4 3d bd d4 9c bd 72 9c c9 bd e0 06 b7 3c
       0.10353468 -0.07657764 -0.09844293 0.022342145
0001e0 d2 e8 81 bd 46 c1 b7 3c 6c 97 26 bf ab 71 0b 3e
       -0.06343235 0.022431027 -0.650748 0.1361758
0001f0 d3 91 07 bb 3b e2 28 3f 9b 68 53 bd 6f a9 37 3e
       -0.0020686283 0.659702 -0.05161343 0.17935728
000200 a0 8e aa 3f e2 e7 f9 3e 98 92 44 3e c9 8e de bd
       1.3324776 0.48809725 0.19196546 -0.10867078
000210 49 85 09 be 5e de 23 bf f5 38 d3 be d7 d2 2b bc
       -0.1342975 -0.6401118 -0.41254392 -0.01048728
000220 e6 d0 ae bd e7 80 3f 3e 49 7b 08 bd 86 5c 10 3f
       -0.08535938 0.18701516 -0.0333207 0.5639118
000230 16 2e b0 3f 36 25 05 be ee 00 2b 3e 02 79 78 3e
       1.3764064 -0.13002476 0.16699573 0.24264911
000240 d9 e3 9f 3e f5 6c 65 be 5e 85 bb bc cf d2 5f bd
       0.3122852 -0.22404845 -0.022890743 -0.054644402
000250 94 fe 92 bc e2 48 12 bd 6a e9 ea 3e 3d a9 b5 3f
       -0.017943658 -0.035714038 0.45881206 1.4192272
000260 d8 80 a1 bd 68 1e 26 bf 0e 16 81 bd 50 da bc 3e
       -0.07885903 -0.64890146 -0.06303035 0.3688531
000270 68 64 5e bd a6 eb 05 3c 2e d8 84 bf 0a f9 f7 bc
       -0.054294974 0.008173859 -1.0378473 -0.030270118
000280 94 c0 4f be 52 d7 da be ee 45 b5 bd c9 a2 ed 3d
       -0.20288306 -0.427424 -0.08851229 0.116033144
000290 1b 6d c3 3c d9 77 2a be 44 23 1b 3f ad 42 e9 be
       0.023855736 -0.16647281 0.60600686 -0.45558682
0002a0 cc 1f ab 3a 6f c9 0f 3f c1 7f d1 bd 52 80 d5 3d
       0.0013055741 0.5616674 -0.10229445 0.10424866
0002b0 ab ae fc 3d 9d 5e b7 3e 44 ac 3b 3f 5e 48 7d 3d
       0.12338003 0.35814372 0.7330973 0.061836593
0002c0 06 74 f7 bd ea c7 64 3f c2 23 05 3e 22 2d 8b bb
       -0.120826766 0.89367545 0.13001922 -0.0042473236
0002d0 39 aa 4c bd 34 75 86 bd a8 1a f9 3d 76 67 2c be
       -0.049967024 -0.065653235 0.121632874 -0.16836342
0002e0 3d 08 00 3f 48 48 76 be 1e e4 25 bd 31 09 80 3e
       0.5001257 -0.2405101 -0.040500753 0.25007012
0002f0 25 5f 9d bd 19 9a b6 3e 38 d1 e1 ba c4 da a4 3c
       -0.07684163 0.35664442 -0.001722849 0.020123847
000300 ad e4 7f 3d ec fd a8 bc 92 48 be 3c c1 71 ff be
       0.06247394 -0.020628892 0.023227964 -0.49891475
000310 cb 11 76 bf 0d af 97 3c 91 1a 65 3e 2f 4f 9f 3e
       -0.961209 0.018516088 0.22373416 0.311151
000320 b1 96 7a 3e 2f c3 8d 3b 28 e8 c0 3d 18 5b b6 3c
       0.24471547 0.004326246 0.0941928 0.022260234
000330 b3 17 8d 3d 88 80 cc 3c 92 eb 23 bf d9 22 86 3f
       0.06889286 0.024963632 -0.64031327 1.0479385
000340 62 05 81 3c 7b c8 da 3b 33 2b 81 be e0 85 2a 3e
       0.015749637 0.006676731 -0.2522827 0.16652632
000350 e2 1d b8 bc fb 1a b0 3d 4b d3 25 3e 44 7b 91 3b
       -0.022475187 0.08598896 0.16193883 0.0044397432
000360 f4 92 07 3c 68 d1 fa bd 81 cf 09 bd 13 a3 97 be
       0.008274782 -0.12246972 -0.033645157 -0.29616603
000370 fd d4 84 3e 28 c3 3c bf fd 5d 22 be c8 23 9e 3a
       0.25943747 -0.73735285 -0.15856166 0.0012065107
000380 fc 57 32 bd e8 9b 97 bc b2 58 0b 3f c5 b0 b5 3e
       -0.04354094 -0.01850696 0.54432213 0.35486427
000390 a4 14 a4 be b2 d6 3b bd 6d 25 ee bc 60 42 80 3e
       -0.32046998 -0.045859046 -0.02907058 0.2505064
0003a0 22 d8 b9 3e 18 2b 07 be 7c b5 a8 3b ee 3e 29 bf
       0.3629771 -0.13200033 0.0051485877 -0.6611165
0003b0 4e 32 18 3e cd 6b 27 3f 2d 6b 64 3e 47 4b 13 be
       0.1486294 0.65398866 0.2230651 -0.14384185
0003c0 6b 58 0b 3f 03 d6 9c 3e 99 26 83 bd 43 b5 49 bf
       0.5443179 0.30632028 -0.06403846 -0.7879221
0003d0 9d 76 1e bf 52 52 7f bc 2d 1d a5 3e f2 1d f2 bc
       -0.6189974 -0.015583592 0.32248822 -0.029555295
0003e0 2e 90 0f 3f 16 d8 78 3e 56 2b 84 bf 1c 04 8b be
       0.56079376 0.2430118 -1.0325725 -0.27151573
0003f0 83 54 e2 bc ea a9 65 3e 75 22 14 bf 35 de 65 3d
       -0.027628189 0.22428098 -0.5786508 0.056120116

linear1.bias f4 [30]
000000 c8 7e 84 be df b8 01 3e f5 55 67 be a4 94 98 be
       -0.25877976 0.12668179 -0.22591384 -0.29800904
000010 a9 6c 00 bf 48 31 78 3e 5c 8a 60 3d 77 4f 6d be
       -0.501658 0.2423755 0.05481945 -0.23174845
000020 e7 2b 77 3e fb 3a d7 bc 9e bc 11 be 4e f0 ea bd
       0.24137841 -0.026273241 -0.14232108 -0.11471616
000030 a7 55 5d 3e 02 ee 02 bd cc 77 86 be e6 14 4b be
       0.21614705 -0.031965263 -0.26263273 -0.19832191
000040 7b 5a 6d 3e 40 e3 83 bd f2 05 3e 3d ec 10 81 3e
       0.23179047 -0.06439829 0.04639239 0.25208223
000050 69 e9 92 3e 16 48 c2 be 1f 4b 3a 3d 3d 4b bd 3e
       0.28693703 -0.37945622 0.045481797 0.36971465
000060 6e f0 b2 bc 06 98 5a be 50 35 8a be 3a fb ee be
       -0.021843161 -0.21347055 -0.269938 -0.46676046
000070 7e 47 de bc 60 40 8f be
       -0.0271337 -0.27978802

linear2.weight f4 [30, 30]
000000 d3 aa 4f 3b b6 ea 15 3e 25 21 e8 3d 1b 9e 89 3d
       0.0031687513 0.14640316 0.11334447 0.06719609
000010 e5 0d 09 bd 1a 16 4b 3e ef 40 03 3e f7 98 b1 3d
       -0.033460516 0.1983265 0.12817739 0.08671754
000020 56 cf 4c be c3 d9 bb be f3 0e f7 bc 12 44 ae 3e
       -0.20000967 -0.36689577 -0.030158496 0.3403631
000030 42 33 9d bd 08 1b a8 be 27 0a d0 be cb 14 ec bf
       -0.07675792 -0.32833123 -0.40632746 -1.8443846
000040 72 82 1d bc 93 de 8a 3e f9 db 56 bf 0f 4a ad 3b
       -0.00961362 0.27122936 -0.839294 0.0052883695
000050 f8 f0 17 3e 2b e3 4b 3f 78 4b e8 3d b6 3e 4a be
       0.14838016 0.79643506 0.113425195 -0.19750485
000060 6f 71 4d 3f bb 0c be 3e 57 14 0a bf aa 19 0a 3f
       0.8025121 0.37119088 -0.53937286 0.5394541
000070 a5 7a 78 3e 00 d4 78 3d 1e a1 82 c0 e3 2b 21 bf
       0.24265535 0.060749054 -4.0821676 -0.6295759
000080 5a a0 f6 3e 75 f2 cc bd b4 af 3b 3e 50 eb 7f 3e
       0.48169214 -0.100071825 0.18328744 0.24992108
000090 eb 22 09 3e e4 4b 5a 3c c6 69 b7 be 14 0d b8 3c
       0.13392226 0.013323758 -0.35822886 0.022467174
0000a0 6b b4 d7 3e 2d e8 f8 be 7b c1 e7 bd fa 64 7f bc
       0.42129835 -0.48614636 -0.113162 -0.0155880395
0000b0 19 bc c1 be c8 a9 a6 3e b9 80 49 bf 2f a8 86 3f
       -0.3783882 0.32551408 -0.7871204 1.0520076
0000c0 d9 dd 87 3e 02 2a 25 bd e4 ca d8 be 7f 7e d4 3e
       0.26536444 -0.040323265 -0.42342293 0.4150276
0000d0 5e 7b 61 3f df 4e 8c bd c7 53 3b bd d8 35 56 3f
       0.8807887 -0.06850981 -0.045734193 0.8367591
0000e0 37 6c 46 be 7b 76 d2 bf 95 d0 15 3f 54 c8 8a 3f
       -0.19377218 -1.6442407 0.58521396 1.0842385
0000f0 1b f3 d7 3d 86 86 04 3e 13 cd e8 3e ce b9 24 be
       0.105444156 0.12941942 0.4546896 -0.16086504
000100 c0 7e b6 bd 87 22 d3 3d f5 82 14 3e a3 1a 10 3e
       -0.089108944 0.1030932 0.14503081 0.14072661
000110 23 a7 4d bd ff 09 3a bf a8 3b 7e 3d 89 cf 9c bd
       -0.050208222 -0.726715 0.06206861 -0.07656772
000120 5e 21 87 be 74 62 19 3e 46 d9 0d be 17 87 99 3e
       -0.26392645 0.14978963 -0.13852414 0.29985878
000130 05 8f 13 be 4b 83 40 3f cf e1 32 3d 15 ca 26 3e
       -0.14410026 0.7520034 0.04367238 0.16288026
000140 37 84 5c 3d 8a 0b ba 3e 88 ed 4c bf 37 b3 4b be
       0.053837027 0.3633693 -0.80049944 -0.19892584
000150 a7 df ca be 7e 53 e4 3e 8b d1 c9 bf be 62 f7 bf
       -0.39623758 0.4459495 -1.5767072 -1.9327009
000160 61 99 70 3e 17 54 7d bd 29 a3 96 be ad 41 a7 bc
       0.2349601 -0.061847772 -0.29421356 -0.020417059
000170 05 ca 16 3e aa 46 d2 3e 59 fa 2d 3f 07 57 7f 3e
       0.14725502 0.41069537 0.67960125 0.24935542
000180 39 aa f6 bd fc 09 03 3f 91 d1 a5 bd 8a 7d aa be
       -0.12044186 0.5118711 -0.08096612 -0.33298904
000190 38 99 20 3f dd 99 51 3e 73 39 0c be 32 75 79 bd
       0.62733793 0.2046885 -0.1369379 -0.06090278
0001a0 c2 81 a2 3c e1 a8 79 be 5f 0a 9f be 0a 7c ca 3b
       0.019837264 -0.24380828 -0.310626 0.0061793374
0001b0 ad da 59 3e a7 b4 59 bd 05 ac 46 3c 45 2a 6c be
       0.21274824 -0.0531508 0.012125974 -0.23063
0001c0 c5 8c 79 be 96 f4 f1 bd bc 86 f9 bc 7e b6 fa 3e
       -0.24370106 -0.11814229 -0.030459754 0.48967355
0001d0 83 ea f0 bd d5 5c ae 3d 21 00 74 3e e1 e1 d0 3d
       -0.117634796 0.085138 0.23828174 0.10199333
0001e0 05 79 08 3e 35 40 9e be 77 ee ef bf 91 ff 79 3d
       0.13327415 -0.3090836 -1.8744649 0.061034743
0001f0 6c 7f a5 bd 56 16 1e bd c9 2b 90 be 04 1f 34 3e
       -0.080809444 -0.03859552 -0.28158405 0.17589957
000200 22 2a 6c be a9 fc f0 be 8b d8 69 3e 22 5d 6e 3c
       -0.23062947 -0.47067764 0.22836511 0.014548572
000210 28 69 1f 3e 15 f9 83 3e e9 c7 26 be f3 68 5e be
       0.15567458 0.25775972 -0.16287197 -0.21719722
000220 72 37 f1 3d 9f 66 46 3f 47 86 50 3e bd 71 81 be
       0.117781535 0.7750034 0.20363723 -0.25282088
000230 d7 18 a1 3d 57 71 16 bf 0a ee 31 be 75 ad a3 3c
       0.07866066 -0.5876669 -0.17375961 0.019980172
000240 c2 32 e6 3e 14 d1 03 3f ad 70 03 3e 75 f1 6d bf
       0.449606 0.514909 0.12835951 -0.9294656
000250 27 0d 09 c0 3c 46 9f be a1 bd 96 be 6e b3 91 3e
       -2.1414278 -0.31108272 -0.2944155 0.28457206
000260 eb f2 b5 3c 35 e6 c7 be e9 f7 9e 3d 24 d7 60 3d
       0.022210559 -0.39042822 0.07762129 0.054892674
000270 d5 8e 8f 3e be 7e 23 3e 13 5f 15 bf f6 a2 fc 3e
       0.2803866 0.15966317 -0.58348197 0.4934308
000280 04 3e 0c 3e fa 49 b1 be ad af 29 bf 44 53 87 be
       0.13695532 -0.34626752 -0.66283685 -0.26430714
000290 ca 36 8c 3e 74 1d a3 3d 85 da 97 3e 33 ac 8e be
       0.2738555 0.07964602 0.29658905 -0.27865753
0002a0 86 0d 0f bf f8 ce 86 3c 4a 73 00 be 7c ca e9 3c
       -0.5588001 0.016456112 -0.1254398 0.028538935
0002b0 1e 64 cb be 07 69 80 3d cb ed 07 3d 98 dd f5 be
       -0.3972482 0.062700324 0.03318576 -0.48020625
0002c0 0e 3a 35 3f 79 18 1b bf c8 c0 c4 3b 82 d7 4b bd
       0.7079171 -0.6058422 0.0060044266 -0.04976607
0002d0 b1 51 26 3e 4e 2d f7 be c3 e3 16 3c ff 54 fe be
       0.162421 -0.48276752 0.009209576 -0.49674222
0002e0 e5 fc c1 3d 5d 53 9e 3e 2e 36 99 3e 48 a6 03 3e
       0.09472064 0.30922976 0.29924148 0.128564
0002f0 10 21 95 be d0 50 25 3e 8a 58 c5 3e 02 05 e1 3e
       -0.29126787 0.16144109 0.38544112 0.43949133
000300 6c 20 d7 3d 63 27 5c bd ae aa c2 bd 41 04 5e 3e
       0.10504231 -0.0537485 -0.09505211 0.2168131
000310 ac 44 28 3c 0c cc 2a 3d f9 a7 09 be b1 f6 91 bd
       0.010270279 0.0416985 -0.13442983 -0.07127131
000320 e5 a3 08 bf 02 ac 18 be d4 31 09 3f 72 23 9e 3d
       -0.53375083 -0.14909366 0.53591657 0.077216044
000330 81 03 ae 3d 48 cf 16 3e 31 64 bf bd ba 17 b3 bf
       0.08496762 0.14727509 -0.09345282 -1.3991616
000340 77 2d 90 bd bb 9b cf be c0 8d 05 bf 12 aa 73 3e
       -0.07039922 -0.405485 -0.5216942 0.23795345
000350 6a 0f 69 3e 7b e1 7f bd 50 e1 13 3e 12 71 90 3e
       0.22759786 -0.062470894 0.14441419 0.28211266
000360 24 fe e8 bd 07 42 dd 3d cb 9a 9c 3e 7a 74 8c bc
       -0.113765985 0.10803609 0.30586848 -0.017145384
000370 d9 1d bd 3e 8f 7d 12 bf 86 7c 6a be 75 25 2a bf
       0.36936834 -0.5722284 -0.22899064 -0.66463405
000380 ea 52 89 be ea 7d 13 3f 7b 05 31 3e 87 73 90 3e
       -0.2682107 0.57614005 0.17287247 0.2821314
000390 aa bf 01 bf 06 37 81 bd 23 35 f1 3d e5 7b 9e 3e
       -0.5068308 -0.06309323 0.11777713 0.309539
0003a0 dd d1 04 bf a2 65 45 bc 0a e3 de 3e 30 98 01 3f
       -0.51882726 -0.012048157 0.43532592 0.50622845
0003b0 62 88 1d 3f 57 d5 aa be 76 c7 9e bf 0c 66 a9 be
       0.6153623 -0.3336589 -1.2404621 -0.33085668
0003c0 be c7 26 bf c7 bc b8 bc 50 b6 3d be 9b ee 09 be
       -0.6514853 -0.022550954 -0.18526578 -0.13469927
0003d0 67 1b c8 bd c3 a9 82 bd 34 87 fc bd 94 4e b8 bc
       -0.097708516 -0.06380036 -0.123304754 -0.022498406
0003e0 e2 c6 b5 3e bb 13 b1 be ea f7 3c 3e 0b 0f 5a be
       0.35503298 -0.34585366 0.18453947 -0.21294801
0003f0 25 07 25 bd e7 29 78 be b8 03 a2 be 2f ce e4 3e
       -0.040290017 -0.24234734 -0.31643462 0.44688556

linear2.bias f4 [30]
000000 3f 56 fb bd 8b 68 f0 39 a3 25 48 be 5d 5f 46 3e
       -0.122723095 0.00045854258 -0.19545607 0.19372316
000010 c5 f5 d6 bd 68 3e 1b 3e 66 9e 42 be aa 1f 94 bd
       -0.104960956 0.15160525 -0.19005737 -0.07232602
000020 90 6b de 3e c0 55 12 3e e5 2f ce be 96 ec f8 bd
       0.4344144 0.14290524 -0.40270916 -0.121545
000030 b2 3c 62 bd 66 47 cc 3e b9 2f eb 3d c9 14 e9 be
       -0.055233665 0.39898223 0.11483712 -0.4552367
000040 53 e5 d6 3d 89 62 5e 3e c4 c4 75 3e 93 6b 83 bc
       0.10492959 0.21717276 0.24000841 -0.016042506
000050 f1 7c 13 3d d9 6c cb bd 97 c9 0e 3e f6 dd e3 be
       0.036007825 -0.099328704 0.13944088 -0.4450528
000060 11 9a 27 3e ca ee 05 be 70 65 1d 3e 77 69 52 bd
       0.16367365 -0.13079372 0.15370727 -0.05137011
000070 12 c6 db 3d 37 29 39 3e
       0.10731138 0.18082128

linear3.weight f4 [2, 30]
000000 d7 08 9d bd a7 54 c3 3e 85 4f b1 3c 48 4c f2 bd
       -0.07667702 0.38150522 0.021644363 -0.11830956
000010 98 c0 2a 3e 31 12 5c be 3f 53 3b be 3a e5 26 3e
       0.16675031 -0.21491314 -0.18293475 0.1629838
000020 ba 12 70 be a5 5f 2b be 04 69 33 bf b4 37 8c 3d
       -0.23444644 -0.16735704 -0.70082116 0.06846562
000030 a3 52 1c 3c 4d cb 54 3e 03 3e 7f bd 60 9f 76 3e
       0.0095411865 0.20780678 -0.062315 0.24084234
000040 be 11 b3 bd bc 7c 4d 3e fc 9f eb 3e 26 ec 99 3e
       -0.087436184 0.20067114 0.46020496 0.3006298
000050 d0 3e 45 3e be e1 f9 3d 9b 92 8e be 60 d0 8e bd
       0.19262242 0.1220126 -0.27846226 -0.06973338
000060 d0 7e c5 bd 70 32 fe bd ef 24 40 be 3d 5c 24 be
       -0.09643328 -0.12411964 -0.18764089 -0.16050811
000070 e4 57 13 be 6e 39 11 3e 93 6d 11 be 5f 1b 41 3e
       -0.14388996 0.14182064 -0.14201955 0.18858097
000080 96 85 66 3e ee 21 48 be c2 ba 9d 3e 0d 88 3e be
       0.22511896 -0.19544193 0.30806547 -0.18606587
000090 be d3 2e bd f8 31 d8 bb 2a 72 49 be 48 9b b5 3c
       -0.0426824 -0.0065977536 -0.19672456 0.02216877
0000a0 80 ad ed be da 13 38 3f 9e 59 4f 3f 40 80 7b 3e
       -0.46421432 0.7190529 0.8099612 0.24560642
0000b0 99 d1 12 be fa 85 48 3e ef 1b db bd a4 13 bb bd
       -0.14337768 0.19582358 -0.10698687 -0.091346055
0000c0 ae 81 28 3d c9 d8 b3 3e 43 7e 59 3e 9e 6d 58 3e
       0.041139297 0.3512633 0.21239571 0.21135566
0000d0 16 d9 f1 be b6 1c 91 bf 3e 13 b8 3c f3 54 98 bd
       -0.47235936 -1.1336887 0.022470113 -0.07438078
0000e0 e5 74 4a bd 0b 77 5f bd 71 c4 4e bd 18 70 4d 3e
       -0.049427886 -0.054556888 -0.05048031 0.20062292

linear3.bias f4 [2]
000000 b6 30 cd 3b dc 33 28 be
       0.0062619103 -0.16426033

exp_avg f4 [30, 11]
000000 09 15 35 39 9a ae b3 38 f0 f6 a5 b7 18 31 51 b8
       0.00017269341 8.567907e-05 -1.9784522e-05 -4.9875205e-05
000010 36 3c 08 b9 30 3a e9 b7 ab 84 d1 38 c1 50 95 b8
       -0.00012992401 -2.780286e-05 9.990608e-05 -7.119915e-05
000020 83 bb a7 b6 44 cf bd 38 d6 55 d7 b9 15 8e 03 39
       -4.998817e-06 9.0508285e-05 -0.00041071948 0.00012546063
000030 ed 68 58 b9 a4 59 91 39 61 ec fc 39 c6 e1 7e 39
       -0.00020638453 0.00027723343 0.00048241302 0.00024307435
000040 99 86 8c 38 36 f3 33 b9 f8 c9 a8 39 ba a3 58 b7
       6.700791e-05 -0.00017161373 0.00032193935 -1.2912724e-05
000050 9d 9a 02 b8 28 35 99 b9 98 2a 82 38 ef 98 8a b8
       -3.113841e-05 -0.0002922204 6.206817e-05 -6.608839e-05
000060 69 b2 95 38 af 1b d5 b8 44 41 a8 37 5d f3 a1 38
       7.138105e-05 -0.00010161788 2.0057552e-05 7.722408e-05
000070 04 47 90 b8 a0 1f af b5 64 47 fc b6 84 a1 5d 38
       -6.879683e-05 -1.304772e-06 -7.518496e-06 5.284093e-05
000080 c5 e0 e5 b8 8b 4e b0 b8 7a b0 b9 b7 3a 9f 0e b8
       -0.000109614375 -8.406964e-05 -2.2135897e-05 -3.400373e-05
000090 44 b3 da 39 bc 0b 2a 37 3d ba 70 b9 40 95 c4 38
       0.00041713763 1.0135522e-05 -0.00022957563 9.373808e-05
0000a0 38 fe f4 36 c4 69 b6 37 c7 26 e1 b9 70 d7 e6 b8
       7.3013616e-06 2.1745342e-05 -0.00042944236 -0.00011007383
0000b0 ba de 08 3a 7f 23 39 39 5d 54 9c b9 6c cc be 39
       0.0005221177 0.00017656198 -0.00029817494 0.0003639193
0000c0 c6 f3 52 39 58 75 a8 39 1b 11 23 39 de e6 01 b8
       0.00020117973 0.00032130885 0.00015551264 -3.097101e-05
0000d0 24 7f 8c b8 ad 9e 0b ba e7 4d 9c b9 90 94 e0 b7
       -6.699402e-05 -0.0005326074 -0.0002981268 -2.677206e-05
0000e0 42 fb 69 38 fe 4c 85 b9 0d 95 97 39 56 f2 02 b7
       5.578553e-05 -0.000254251 0.00028912016 -7.805027e-06
0000f0 76 f3 05 39 e2 49 13 b8 23 72 49 39 b6 99 5c 37
       0.00012774565 -3.511634e-05 0.00019211373 1.31488105e-05
000100 96 ce e1 b9 63 15 53 39 6b de 82 39 00 b6 df 34
       -0.00043069263 0.00020130495 0.00024961247 4.166941e-07
000110 60 76 47 b9 b0 0a c9 39 e2 52 da 38 4a 06 cb 38
       -0.00019022217 0.0003834567 0.00010410488 9.680966e-05
000120 99 a9 2b b9 df 3e 81 39 f9 7b 4c b7 b8 e5 af b9
       -0.00016371011 0.0002465164 -1.2188212e-05 -0.00033549755
000130 33 46 3e 39 97 2e a5 38 07 80 b2 37 f6 cd 19 b9
       0.00018145963 7.876491e-05 2.1278871e-05 -0.00014667943
000140 ca 74 45 38 2a d7 90 38 cf 09 8e 39 2c aa 9d 37
       4.707723e-05 6.9065325e-05 0.0002709166 1.8795101e-05
000150 72 ca 4e 38 4b 3f 9e 37 8c ff 1c 39 40 d1 95 b6
       4.930277e-05 1.886454e-05 0.00014972518 -4.464906e-06
000160 c6 02 77 ba c7 63 51 b9 f7 fb c4 39 c2 cb a9 b9
       -0.00094227155 -0.00019968963 0.00037571762 -0.00032386003
000170 fa 5b a1 b8 3a 38 41 ba d8 2a ab b7 72 97 88 b8
       -7.69421e-05 -0.0007370744 -2.040474e-05 -6.513194e-05
000180 0e d9 2f 38 f6 04 84 b9 f4 7e b5 39 70 fc a3 38
       4.19254e-05 -0.00025180698 0.00034617598 7.819466e-05
000190 f8 46 10 39 6b bf 6d b9 14 41 87 39 10 9b 23 b8
       0.00013759348 -0.0002267339 0.00025797694 -3.900664e-05
0001a0 53 25 02 3a 6f a4 b8 b7 5e a0 fd b7 9a a0 9c b7
       0.0004964668 -2.201108e-05 -3.0234627e-05 -1.8671435e-05
0001b0 01 ad a9 39 4c 60 12 b8 e5 dc 26 3a c6 95 7a 39
       0.0003236309 -3.4898796e-05 0.00063653133 0.00023897653
0001c0 2b 3d 04 ba d0 bd 3a b8 de 78 17 b8 59 72 26 3a
       -0.0005044515 -4.4522632e-05 -3.611377e-05 0.00063494366
0001d0 93 e3 5d 39 32 79 9f 38 a9 e8 a7 b7 27 1c 2d b9
       0.0002116098 7.604285e-05 -2.0016292e-05 -0.00016509053
0001e0 66 01 28 39 f4 7e d5 b8 1e fa 15 38 a8 c8 58 b9
       0.0001602225 -0.00010180278 3.5757308e-05 -0.00020674116
0001f0 ec 40 86 38 93 aa c7 b7 fa 85 85 39 5a 9b 8d b8
       6.4017106e-05 -2.3802078e-05 0.00025467557 -6.7523404e-05
000200 3e 75 0f 39 31 37 37 36 58 c9 bb b9 00 40 b5 39
       0.00013681219 2.730125e-06 -0.00035817432 0.00034570694
000210 ae ba ad b9 88 8b 2a 38 fc 3e f5 37 dc d0 a5 b9
       -0.0003313622 4.0661107e-05 2.9235605e-05 -0.00031626865
000220 1a c3 14 b9 e7 ff 93 b9 00 0a 98 38 d2 61 9f b8
       -0.00014187061 -0.00028228687 7.2497874e-05 -7.599931e-05
000230 77 d9 20 38 c2 cd 59 b9 be 76 99 b7 64 0f 5a b9
       3.8349503e-05 -0.00020771383 -1.8294315e-05 -0.00020795834
000240 f0 46 49 b7 7e c7 21 39 10 84 45 b9 f6 7e 00 b8
       -1.199705e-05 0.00015428473 -0.00018836581 -3.063582e-05
000250 de b4 5a b9 13 c8 99 38 0a 93 08 37 85 01 1e 37
       -0.00020857478 7.332875e-05 8.140467e-06 9.417888e-06
000260 46 b6 1b 38 8b 38 44 b9 84 f9 95 b7 5b 45 a2 38
       3.7124635e-05 -0.0001871308 -1.7878374e-05 7.7376804e-05
000270 5c 9f b6 b8 fe 31 9c 37 3a 14 87 b7 91 17 28 39
       -8.708119e-05 1.8619929e-05 -1.6102673e-05 0.00016030508
000280 0a 5b 95 37 e0 d3 ba 38 80 7f 90 34 e1 48 db 38
       1.7804578e-05 8.908636e-05 2.691486e-07 0.000104563085
000290 c2 e4 dc 38 78 eb c2 38 fc c7 86 b7 92 db d8 38
       0.00010533027 9.2945e-05 -1.606717e-05 0.00010340581
0002a0 3f a8 65 b8 eb e8 92 b7 78 fc da b8 da be 84 38
       -5.4754546e-05 -1.7513017e-05 -0.00010442076 6.329799e-05
0002b0 8a 99 29 b8 4e 85 38 36 47 cd c0 b8 d6 5b f9 38
       -4.0435734e-05 2.749573e-06 -9.193509e-05 0.00011890351
0002c0 55 af a9 b9 05 be 5d 38 14 eb 6c 38 b0 ce 39 b9
       -0.00032364824 5.2867475e-05 5.648572e-05 -0.00017719972
0002d0 c0 60 ad b8 80 e7 47 37 f6 37 17 38 b9 63 82 b8
       -8.267304e-05 1.1915225e-05 3.6053323e-05 -6.217458e-05
0002e0 f7 49 df 37 6c 15 30 3a 40 a5 4c b7 37 a3 92 39
       2.6618114e-05 0.00067170593 -1.2197823e-05 0.00027968895
0002f0 a8 dc d0 38 7c 0b 89 b8 18 f4 ec b7 d0 37 9a 36
       9.959313e-05 -6.534808e-05 -2.8247057e-05 4.596055e-06
000300 b1 00 ae 39 f0 34 d0 38 c5 77 1a b9 63 85 43 36
       0.0003318838 9.928073e-05 -0.00014731202 2.9134906e-06
000310 ac 33 c9 39 10 85 9c b9 e2 08 64 b9 71 04 53 b9
       0.00038376206 -0.00029853778 -0.00021747084 -0.00020124183
000320 71 12 ad 39 a8 f2 1c 37 a3 46 c6 38 d6 0d fd b9
       0.0003301087 9.354822e-06 9.454533e-05 -0.0004826623
000330 79 7b e0 b8 86 fb 5e 38 58 24 c8 36 6e 13 32 38
       -0.00010704151 5.3163174e-05 5.9646954e-06 4.2456602e-05
000340 42 b2 78 b9 b1 15 ee b8 79 8e ab b8 9a 18 49 38
       -0.00023717529 -0.00011352765 -8.180453e-05 4.7945046e-05
000350 ca dd 67 39 1d 9e 96 38 4a 88 72 b9 a0 a3 1b b9
       0.000221125 7.182008e-05 -0.0002312969 -0.00014842907
000360 97 98 98 38 78 13 56 b7 f1 1d b2 b9 d0 12 c2 b8
       7.276347e-05 -1.2759927e-05 -0.00033973114 -9.254145e-05
000370 b9 ac 82 b9 0e 6c 2e b8 34 fb 0a 38 db d2 44 38
       -0.0002492422 -4.1585467e-05 3.3135715e-05 4.6926416e-05
000380 5a bc 6f b8 c1 ec af b8 1e 34 0a b9 19 c6 49 39
       -5.7157456e-05 -8.388749e-05 -0.00013180121 0.00019242651
000390 aa 0f ae 37 ee 16 aa 38 ae a7 8f 39 53 4d 02 38
       2.074971e-05 8.110503e-05 0.00027400017 3.106643e-05
0003a0 84 38 85 37 1e 7d bf 37 10 49 47 b6 82 47 94 b7
       1.5881153e-05 2.2827237e-05 -2.9695839e-06 -1.7676273e-05
0003b0 7e 02 42 b9 a9 01 f0 38 7d d0 39 b8 39 28 03 37
       -0.0001850221 0.00011444401 -4.4301607e-05 7.8175735e-06
0003c0 65 2a a4 b9 06 ea 8e 37 b6 7d aa 39 9f c2 33 37
       -0.00031312104 1.7036695e-05 0.0003251859 1.0714545e-05
0003d0 8b 5d a9 b7 98 87 09 39 d2 e6 62 38 dd 18 4e 39
       -2.018993e-05 0.00013115851 5.4097567e-05 0.00019654953
0003e0 fa 6e 5d b8 18 95 17 38 85 3e 77 b7 b1 59 54 39
       -5.279386e-05 3.614006e-05 -1.4736904e-05 0.00020251308
0003f0 d1 cc 4c b9 a0 46 b3 b9 a6 17 fc 38 37 c9 16 b9
       -0.00019531256 -0.0003419416 0.00012020701 -0.00014380073

exp_avg_sq f4 [30, 11]
000000 6a 8f 7e 36 4b 7c e4 34 1f 51 aa 35 38 ab f7 35
       3.7932427e-06 4.2558744e-07 1.2689596e-06 1.8452765e-06
000010 22 c7 b6 34 3e 62 0f 36 c9 5a f5 34 7f 0e 9a 34
       3.404503e-07 2.1365845e-06 4.570086e-07 2.8695283e-07
000020 fc ca 9d 32 be 26 00 36 16 bb b2 35 d4 5f a9 36
       1.8369512e-08 1.9096037e-06 1.3316483e-06 5.0477483e-06
000030 b2 01 ce 34 a0 dd 95 35 d0 8f 1d 36 d3 d3 d0 34
       3.8371724e-07 1.1165866e-06 2.3478533e-06 3.8897142e-07
000040 9a 83 1d 36 15 9f ac 34 17 40 df 34 9b 13 fd 32
       2.3471425e-06 3.2153244e-07 4.1583618e-07 2.9461992e-08
000050 5d b0 4b 36 ca 0c af 35 70 c7 46 35 64 d7 1b 34
       3.0352014e-06 1.3042238e-06 7.405097e-07 1.4513859e-07
000060 2f 21 9a 34 ac 0f c5 34 2f 2b 7a 33 0e f6 08 35
       2.870888e-07 3.6705512e-07 5.8246936e-08 5.1022005e-07
000070 72 03 cc 33 f1 b7 7a 33 b2 a2 9e 31 ba 50 b2 34
       9.500117e-08 5.8374955e-08 4.6169015e-09 3.321382e-07
000080 8a fc 7d 34 ef 9f 57 36 09 9c 94 34 ac 71 5a 35
       2.3654334e-07 3.213059e-06 2.768068e-07 8.1376743e-07
000090 7b 84 e3 35 cd f3 ae 34 b3 3f ec 35 d3 3c a8 34
       1.6951375e-06 3.2587414e-07 1.7601909e-06 3.1336694e-07
0000a0 24 5b ba 34 b3 c7 24 33 56 b3 03 36 59 d1 5e 35
       3.4711513e-07 3.836585e-08 1.9624908e-06 8.3006086e-07
0000b0 0a f7 aa 36 9a 6b dd 34 ee ca a0 35 65 f8 30 36
       5.095154e-06 4.1242748e-07 1.1979989e-06 2.6370628e-06
0000c0 ac 5b 1d 35 23 be 5b 36 7e 6a 08 35 67 47 10 35
       5.862046e-07 3.2744217e-06 5.0818915e-07 5.3748084e-07
0000d0 37 7b 38 33 ee df 5e 36 34 6b 2f 36 48 ed cc 36
       4.29529e-08 3.3210922e-06 2.6139433e-06 6.107297e-06
0000e0 d8 a4 08 35 59 5f cf 35 45 e1 3f 36 98 00 16 35
       5.090383e-07 1.5450452e-06 2.8592342e-06 5.588022e-07
0000f0 a7 b2 4e 36 8e b1 1b 35 ce e0 0a 35 8d 88 7a 33
       3.0800381e-06 5.8000376e-07 5.173614e-07 5.8331853e-08
000100 c2 90 53 36 e8 d1 c5 35 48 aa 9f 36 81 d8 dc 34
       3.152571e-06 1.4738735e-06 4.7583926e-06 4.113572e-07
000110 f5 07 c1 35 23 27 1f 36 93 83 ee 34 0b 7a 44 36
       1.4381936e-06 2.3715627e-06 4.4426687e-07 2.9277314e-06
000120 f3 61 14 35 d0 3e eb 34 94 de 2f 33 4f 0d 36 36
       5.527683e-07 4.3817863e-07 4.0947796e-08 2.712786e-06
000130 32 c7 c9 35 30 b2 eb 35 91 ae 9b 34 85 f0 38 35
       1.503364e-06 1.7560724e-06 2.8998014e-07 6.8895343e-07
000140 2e 78 57 35 1b 3b 66 34 a5 e9 ae 35 18 0f 34 34
       8.0268626e-07 2.1441922e-07 1.303201e-06 1.6769297e-07
000150 17 39 cc 33 1f 24 07 33 67 b0 fc 34 09 6e 12 35
       9.509875e-08 3.146499e-08 4.7067007e-07 5.454936e-07
000160 50 44 12 36 d4 16 a0 34 86 3f 35 35 82 35 92 35
       2.1795458e-06 2.9818932e-07 6.7520193e-07 1.089342e-06
000170 16 02 59 34 0f cc bf 35 11 22 9f 34 14 9c 3f 34
       2.0210459e-07 1.4289998e-06 2.9640844e-07 1.7845042e-07
000180 08 1a ed 31 41 55 96 35 7e 10 44 35 3d 74 94 35
       6.9005672e-09 1.1200683e-06 7.303969e-07 1.1060689e-06
000190 0e b5 33 34 dc 22 f0 34 86 76 0a 35 07 c5 ff 33
       1.6736541e-07 4.4728847e-07 5.158148e-07 1.1910202e-07
0001a0 79 90 53 35 ec db 02 34 8c d8 17 33 7c 0d 4d 32
       7.881386e-07 1.21872e-07 3.5354375e-08 1.19356365e-08
0001b0 2f 5c f1 34 d4 ab b3 34 ae 1e 94 36 ef 35 4f 35
       4.495682e-07 3.346637e-07 4.4143153e-06 7.7191993e-07
0001c0 6d bb 0a 36 5a cb fb 35 75 17 da 34 23 e7 93 36
       2.0672699e-06 1.876014e-06 4.0622731e-07 4.4078492e-06
0001d0 f5 88 06 35 29 87 32 34 1c bb 46 33 bd 46 b2 35
       5.011819e-07 1.6626713e-07 4.6270642e-08 1.3282621e-06
0001e0 d9 93 07 36 53 4f 91 36 9b 9c c8 34 82 46 9b 35
       2.0202626e-06 4.3305713e-06 3.7366848e-07 1.156892e-06
0001f0 ef 95 00 36 fb ed a2 34 5e bf 1a 36 af cb cc 34
       1.916076e-06 3.0348005e-07 2.3059179e-06 3.814616e-07
000200 67 b6 cf 34 f2 ce 11 33 99 d9 21 36 49 fa ac 35
       3.868947e-07 3.394866e-08 2.4117528e-06 1.2887841e-06
000210 a8 d1 55 36 7e 48 fe 34 9c 78 a0 35 86 80 cd 35
       3.186151e-06 4.7363932e-07 1.1956031e-06 1.5311095e-06
000220 16 4b aa 34 4e 51 0d 36 ea 54 df 34 66 64 53 34
       3.17196e-07 2.1057963e-06 4.159877e-07 1.9687431e-07
000230 87 92 f8 32 d7 5c d7 35 5a 98 a7 35 7f 9b 87 35
       2.8937633e-08 1.6045768e-06 1.248681e-06 1.0103539e-06
000240 40 d2 23 34 3a 85 06 35 5f 32 05 35 46 24 d2 33
       1.5257046e-07 5.011276e-07 4.961966e-07 9.785485e-08
000250 ce 77 7c 35 a4 e0 d9 33 12 b1 2d 33 7a 56 88 32
       9.4051654e-07 1.0145712e-07 4.0440746e-08 1.5871809e-08
000260 c2 56 ef 34 f7 d9 2a 35 07 6a a8 35 57 c6 ea 33
       4.4580344e-07 6.3647116e-07 1.2547833e-06 1.0932552e-07
000270 91 c3 88 34 90 0e 20 35 67 e1 5c 34 d1 61 15 35
       2.5474267e-07 5.9625836e-07 2.0571098e-07 5.5649167e-07
000280 ac 4c 19 34 9b f3 d6 33 0f bb 0d 32 85 97 5d 35
       1.4277128e-07 1.0009463e-07 8.249812e-09 8.2549406e-07
000290 42 c2 ac 34 33 b6 ef 35 d3 38 26 34 d5 fd bf 34
       3.2178838e-07 1.7859915e-06 1.5480627e-07 3.576121e-07
0002a0 ae 3a 72 35 e3 89 2e 34 fd 64 81 35 f4 ab 4c 34
       9.0237415e-07 1.6255176e-07 9.64064e-07 1.9061537e-07
0002b0 47 c4 42 34 b6 89 b1 32 55 a0 b9 35 c9 fb 0b 35
       1.8139063e-07 2.0668136e-08 1.3830237e-06 5.214793e-07
0002c0 a3 3b 50 36 2d 43 4a 34 ac 7d 4a 35 70 20 cf 35
       3.1029128e-06 1.8837154e-07 7.543374e-07 1.5432142e-06
0002d0 d4 8c 72 34 02 3f e7 35 ed 09 4e 34 ae 57 80 34
       2.2589239e-07 1.7229179e-06 1.9188856e-07 2.3905653e-07
0002e0 5a 9c d1 32 83 6a 17 36 43 d4 69 35 a2 e6 64 36
       2.4401903e-08 2.2562751e-06 8.7108145e-07 3.4108893e-06
0002f0 9b 83 94 34 b4 94 a5 35 42 e3 e1 35 28 7a 84 34
       2.7662904e-07 1.2336736e-06 1.6829947e-06 2.4675796e-07
000300 41 16 0d 36 7d f1 c4 34 1a 69 90 34 fd 72 ad 32
       2.102359e-06 3.668355e-07 2.6898562e-07 2.0192141e-08
000310 9d 16 02 36 fe bf a6 35 ae 1e 26 36 ec 98 d4 34
       1.9384672e-06 1.2423841e-06 2.4753786e-06 3.9599342e-07
000320 05 79 70 35 d8 c3 9d 35 27 66 ab 34 f4 39 e9 35
       8.9583074e-07 1.175441e-06 3.1925558e-07 1.7376719e-06
000330 48 76 a2 34 2d f3 0f 34 fc ba d8 32 6a 9e a3 35
       3.0260912e-07 1.340638e-07 2.523074e-08 1.2190551e-06
000340 51 94 7b 35 33 58 d5 35 14 d4 ed 33 04 8c d8 34
       9.3720615e-07 1.5895406e-06 1.1074749e-07 4.033501e-07
000350 94 82 4d 35 fa 8f 81 34 03 34 27 35 77 cc 73 34
       7.655847e-07 2.413288e-07 6.2288035e-07 2.2705522e-07
000360 bb fa 29 34 c9 b9 9d 32 0c 91 87 35 b2 e0 ab 34
       1.5830567e-07 1.836169e-08 1.0100498e-06 3.201472e-07
000370 93 e6 c5 35 94 88 14 34 32 9d de 34 76 79 25 35
       1.474475e-06 1.3833261e-07 4.1465097e-07 6.164404e-07
000380 7e ff 39 34 80 82 89 35 48 60 06 34 ab 2f ea 33
       1.7322415e-07 1.0245276e-06 1.251475e-07 1.0905145e-07
000390 5a 68 35 32 9b fa 87 35 90 85 09 35 73 e1 05 35
       1.0559313e-08 1.013122e-06 5.1230836e-07 4.987443e-07
0003a0 4e d8 0c 33 c7 cd b5 33 9e 11 84 34 77 39 ea 33
       3.2793018e-08 8.4659e-08 2.4599734e-07 1.0906927e-07
0003b0 12 a8 61 34 89 68 46 33 63 23 75 33 87 12 d3 31
       2.1015902e-07 4.619554e-08 5.707569e-08 6.1430145e-09
0003c0 9d 87 e5 34 61 ea ef 33 37 26 91 35 b4 98 d2 33
       4.2753246e-07 1.1171938e-07 1.0814464e-06 9.8066636e-08
0003d0 26 20 82 34 ad b8 0e 35 7a d0 d8 33 46 bd 1c 35
       2.4237778e-07 5.316786e-07 1.00962055e-07 5.838996e-07
0003e0 62 18 fe 33 92 33 bf 33 b5 7a a8 31 15 f8 0c 35
       1.1832232e-07 8.903511e-08 4.9033937e-09 5.251507e-07
0003f0 5d c9 ac 34 1f 3f 44 36 f1 6c a5 34 f5 75 45 35
       3.2184008e-07 2.9243017e-06 3.081291e-07 7.355987e-07

exp_avg f4 [30]
000000 bb 1a 30 b9 f6 2d fe b8 9e ba 84 b8 ac 50 c7 38
       -0.00016794626 -0.00012120225 -6.329011e-05 9.504086e-05
000010 70 d7 0c ba c0 a0 d6 37 b6 c9 84 b9 28 77 9a b8
       -0.0005372679 2.5585643e-05 -0.00025327288 -7.365487e-05
000020 68 65 78 3a 97 1b b3 b8 80 8f 29 ba 47 cb ad 38
       0.000947556 -8.540524e-05 -0.00064682215 8.287146e-05
000030 2f f7 b0 39 03 93 64 39 c0 9b 00 38 0d c6 cd b8
       0.00033753502 0.0002179854 3.066263e-05 -9.8120516e-05
000040 a6 b8 af 39 50 fb 8c b9 e0 d4 4d 39 25 19 ee 38
       0.00033516175 -0.00026890123 0.00019629626 0.00011353408
000050 46 d3 8d 39 16 1c ed b7 1f a7 ab b9 68 64 c0 39
       0.00027051027 -2.826568e-05 -0.00032740177 0.00036695902
000060 2a db 60 39 7a 5c ca b9 c2 81 bc 38 8a 01 33 b9
       0.0002144395 -0.00038597343 8.988708e-05 -0.00017071344
000070 6d 49 b2 b8 8e a5 83 38
       -8.501378e-05 6.277404e-05

exp_avg_sq f4 [30]
000000 5a 3f 80 36 2a 4a aa 36 ef 45 48 35 4a 43 5b 36
       3.8220724e-06 5.0750286e-06 7.460757e-07 3.267271e-06
000010 64 88 ad 36 f3 de cf 36 73 04 a2 36 4e 66 f2 35
       5.1716797e-06 6.1950354e-06 4.828494e-06 1.806018e-06
000020 32 36 13 36 c2 5f 96 35 c1 7c 97 36 35 3e 93 36
       2.1936253e-06 1.120374e-06 4.514674e-06 4.3881832e-06
000030 ca bc 58 36 55 39 8c 35 6d 0c ab 35 7e 6e f1 35
       3.2296398e-06 1.0447499e-06 1.2744109e-06 1.7988057e-06
000040 08 d7 52 36 f9 0b 6a 36 ae 96 28 36 f2 d2 da 35
       3.1417603e-06 3.4875686e-06 2.5121658e-06 1.6303659e-06
000050 ad b7 c9 35 1b 15 07 35 5b 14 92 35 2b 85 47 36
       1.5029124e-06 5.032213e-07 1.0883772e-06 2.9730825e-06
000060 27 d6 bc 35 ef ab 19 36 87 84 71 35 2f 65 38 37
       1.4069418e-06 2.2898855e-06 8.997235e-07 1.0990813e-05
000070 3f dd 53 36 02 bb 72 35
       3.1570232e-06 9.042416e-07

exp_avg f4 [30, 30]
000000 6e 03 bb 38 fb de a8 38 55 06 96 b8 c1 54 f0 38
       8.917494e-05 8.0523976e-05 -7.153737e-05 0.000114598784
000010 15 c1 90 37 b0 ea 2f 37 34 85 da 37 a4 04 0f b8
       1.7256049e-05 1.0485455e-05 2.6049653e-05 -3.409818e-05
000020 d8 42 86 b6 67 28 c3 b8 30 74 2d b8 4c 24 b0 38
       -4.001293e-06 -9.30585e-05 -4.1354622e-05 8.399095e-05
000030 76 8b 77 39 80 0c 8e b3 c6 02 c5 b6 59 97 81 36
       0.00023607709 -6.614664e-08 -5.8713804e-06 3.862119e-06
000040 f0 d3 40 b7 f9 8a 8e 38 23 54 12 b8 70 1c a9 b7
       -1.1493437e-05 6.796973e-05 -3.488747e-05 -2.0159612e-05
000050 3d f6 2a 38 80 ff dc b5 58 73 59 38 4f 22 ae 38
       4.0760486e-05 -1.6465638e-06 5.1844254e-05 8.303357e-05
000060 6d d2 71 38 34 df 21 37 21 80 e2 b6 42 8b 9a b7
       5.7654852e-05 9.648316e-06 -6.750241e-06 -1.8423078e-05
000070 46 fb 94 36 6e 5b 91 38 4e b1 8b b4 86 2c 96 b7
       4.439996e-06 6.931169e-05 -2.6019774e-07 -1.7902126e-05
000080 a9 85 25 b6 55 33 80 b6 5f ee 34 b7 1c e2 e5 b8
       -2.4664716e-06 -3.820673e-06 -1.0784336e-05 -0.00010961687
000090 d0 0d 28 b9 e2 b5 4f 36 7d c4 a1 b8 4b 0d 3b b5
       -0.00016026874 3.0951273e-06 -7.713677e-05 -6.968227e-07
0000a0 db ef 7b b7 94 71 b7 b8 f0 3d 06 b9 07 3e b8 b7
       -1.50166115e-05 -8.7472756e-05 -0.0001280231 -2.1963393e-05
0000b0 39 76 9c b8 8e 43 08 b9 d7 d2 78 b8 fe 5a 25 b5
       -7.46068e-05 -0.00012995137 -5.9324168e-05 -6.15997e-07
0000c0 3d 0d 19 b9 fd 74 92 b7 d1 5f 01 b8 f9 d8 a6 b8
       -0.00014596149 -1.7459033e-05 -3.0845233e-05 -7.955911e-05
0000d0 ad c1 d1 b5 95 19 b9 b8 79 9e b9 b8 da 03 48 b7
       -1.562808e-06 -8.8262525e-05 -8.851005e-05 -1.1921826e-05
0000e0 cf 66 e7 b7 57 b3 ff b4 32 09 56 b8 b7 47 bb b7
       -2.758522e-05 -4.7627938e-07 -5.103014e-05 -2.2325532e-05
0000f0 39 a9 cf b8 46 59 95 b8 11 79 a1 38 d5 1e 8d b8
       -9.902049e-05 -7.121502e-05 7.6996286e-05 -6.729147e-05
000100 47 55 0a b7 ca da 33 38 6c ac 46 38 b4 ad aa 37
       -8.245296e-06 4.288069e-05 4.736746e-05 2.0346466e-05
000110 64 a2 34 38 ba d2 93 38 63 9e 12 38 cd c4 cc b7
       4.3066582e-05 7.048757e-05 3.495662e-05 -2.4410338e-05
000120 7e 1e f2 b8 45 41 b9 37 41 7b ca b6 41 5f 2f b8
       -0.00011545139 2.2084112e-05 -6.0344178e-06 -4.1811963e-05
000130 d0 8a a6 36 1a cb bb b8 96 48 eb 36 82 23 55 38
       4.9633454e-06 -8.9546855e-05 7.011996e-06 5.0816227e-05
000140 44 55 88 36 79 26 a7 b5 48 0b ab b7 b1 ee 9d b7
       4.063042e-06 -1.2453667e-06 -2.0390042e-05 -1.8827008e-05
000150 42 bb 15 b8 c3 a1 5d b8 2b 85 06 35 62 c1 31 b6
       -3.5698766e-05 -5.284116e-05 5.0112675e-07 -2.648762e-06
000160 8f 63 e2 b7 2e fd 99 b8 d8 93 e7 38 00 d2 e3 b6
       -2.698766e-05 -7.342767e-05 0.000110424764 -6.7895744e-06
000170 49 53 be b8 a4 bf e0 38 84 ef 8c b6 c0 e2 cb b8
       -9.075419e-05 0.00010716848 -4.2002084e-06 -9.72203e-05
000180 78 1f dd b8 a4 a0 58 b9 1c 9c 22 b8 80 c6 4d b9
       -0.00010543963 -0.00020659209 -3.8769198e-05 -0.0001962427
000190 66 95 76 b8 40 2f b0 b5 3e 78 4b 39 e8 93 53 b7
       -5.879011e-05 -1.3126773e-06 0.00019404382 -1.2611017e-05
0001a0 7c 69 5e 38 04 d9 84 38 0c c5 9d b8 08 fb 7b 37
       5.3027165e-05 6.334673e-05 -7.523046e-05 1.5019214e-05
0001b0 ba 34 87 b8 9a b0 c3 b8 bc 45 b1 37 d7 65 11 38
       -6.447123e-05 -9.331219e-05 2.1132517e-05 3.466554e-05
0001c0 5e 70 66 38 5b 7e 9b b8 12 31 cb 38 9a 56 f2 37
       5.4940923e-05 -7.4145115e-05 9.6889344e-05 2.8888975e-05
0001d0 6c 48 80 b8 c9 42 39 b8 70 f0 b0 36 ec 83 d4 38
       -6.117005e-05 -4.4169636e-05 5.2731993e-06 0.0001013352
0001e0 5f 62 52 b9 67 59 31 b9 6a 54 1f b4 1a b7 5a b9
       -0.00020063807 -0.0001691334 -1.4838739e-07 -0.00020858311
0001f0 0e 05 1c b8 87 b3 58 b9 0e 11 c3 b8 c9 22 84 b8
       -3.7198006e-05 -0.00020666244 -9.301501e-05 -6.30073e-05
000200 08 37 65 b8 26 33 b1 38 53 32 94 37 ea fc 38 b9
       -5.4649106e-05 8.449545e-05 1.7666409e-05 -0.00017641825
000210 fc 46 8e b9 9f 57 d0 b6 9a c6 8e 36 cb 75 a3 b6
       -0.00027137238 -6.2090835e-06 4.25505e-06 -4.8714915e-06
000220 9a a1 0b 38 6b 03 24 b9 64 7a cd b7 83 03 b2 b8
       3.3290686e-05 -0.00015641532 -2.4494897e-05 -8.4883555e-05
000230 05 7d d3 b8 d7 f6 88 b6 6a 82 c3 b8 99 74 0b b9
       -0.00010084551 -4.081852e-06 -9.322616e-05 -0.00013299509
000240 87 60 8b b8 80 69 1c b6 40 46 cb 37 98 47 32 38
       -6.646016e-05 -2.330722e-06 2.4232198e-05 4.2505184e-05
000250 16 05 15 b4 c6 d9 c8 b8 93 25 99 b8 e0 f9 6d b9
       -1.3878557e-07 -9.5773066e-05 -7.302607e-05 -0.00022695167
000260 25 07 7a b8 b2 97 fc b8 13 e4 13 b8 24 03 b3 b9
       -5.96113e-05 -0.00012044552 -3.525994e-05 -0.0003414388
000270 ad e0 a2 b9 b0 76 a1 b9 c8 9b 96 b8 11 55 55 b9
       -0.00031066444 -0.00030796742 -7.181574e-05 -0.00020344953
000280 20 7a 8a b8 0d 1e 9f b8 fe c1 29 b9 ae e1 f4 b7
       -6.6031e-05 -7.587308e-05 -0.00016189364 -2.9192157e-05
000290 38 b1 e4 b7 f0 5c c1 b7 d7 6f 35 b9 f7 26 0e b9
       -2.7262242e-05 -2.305067e-05 -0.00017303169 -0.00013556691
0002a0 cf 3e b9 b8 f8 3c 41 b9 8e b5 e8 b8 b9 66 85 b8
       -8.8331864e-05 -0.00018428627 -0.00011096439 -6.361068e-05
0002b0 40 88 c8 34 5a ee a1 b9 96 fa cf b7 52 68 eb b7
       3.7352038e-07 -0.000308859 -2.4793011e-05 -2.8062761e-05
0002c0 21 4d a3 b8 a7 47 50 b7 d5 db 80 b7 0a db 1a 37
       -7.786812e-05 -1.2414449e-05 -1.5361156e-05 9.230114e-06
0002d0 97 af 3a b8 3a 62 2c b9 40 74 c2 b8 9b b1 32 b8
       -4.4509386e-05 -0.0001643979 -9.272294e-05 -4.2603915e-05
0002e0 63 2a 59 b7 38 e7 a4 b9 06 27 4f b9 b6 4e 94 b9
       -1.2944077e-05 -0.0003145279 -0.00019755596 -0.00028287404
0002f0 9f 5e e8 b8 92 85 13 b9 16 d4 96 b8 9e e9 3e b9
       -0.000110802466 -0.00014068771 -7.1920615e-05 -0.00018206841
000300 60 12 ad 37 72 3f 0b b8 38 46 4b b7 60 56 04 38
       2.0631764e-05 -3.319927e-05 -1.2116092e-05 3.1551695e-05
000310 06 f0 8c b8 63 a0 10 b7 28 ac db b8 79 47 43 b9
       -6.720428e-05 -8.620412e-06 -0.000104748004 -0.00018623275
000320 40 32 12 b7 e8 94 8a 37 0d 76 06 37 0b 0c b2 b8
       -8.713978e-06 1.6520222e-05 8.014508e-06 -8.4899446e-05
000330 be 56 13 38 16 dc a6 b6 c6 c7 f3 b7 4f aa a1 35
       3.5128316e-05 -4.972807e-06 -2.9060884e-05 1.2045001e-06
000340 3b c9 2c 36 e5 11 bf b7 f0 63 60 38 ae 96 37 39
       2.5747129e-06 -2.2777307e-05 5.3498836e-05 0.00017508373
000350 4a a3 0e 38 4a fa ee b6 e6 b5 ce 37 2f fc 27 39
       3.4007513e-05 -7.12209e-06 2.4641817e-05 0.00016020307
000360 13 63 09 39 24 b5 3e 39 23 98 74 38 5c 0a 58 39
       0.00013102246 0.00018187292 5.831582e-05 0.00020603224
000370 af a6 a8 37 01 d8 c2 36 54 24 bd 38 83 7d 84 36
       2.0104779e-05 5.8067967e-06 9.018989e-05 3.948518e-06
000380 20 ae b5 38 98 41 8c 37 5a 2c 04 39 49 e9 8a 37
       8.663186e-05 1.6719845e-05 0.00012605023 1.6559514e-05
000390 5f bd a9 37 9d 7c 5d 38 90 97 62 36 f9 12 d6 37
       2.0234553e-05 5.280656e-05 3.3764845e-06 2.5519623e-05
0003a0 d2 ff a8 37 44 c9 02 39 ea 32 3e 37 8b 34 5a 38
       2.0146286e-05 0.00012472743 1.1336737e-05 5.2024185e-05
0003b0 ef 83 8d 37 b9 e5 0e 37 59 b9 a4 36 b8 23 c1 36
       1.6869946e-05 8.517346e-06 4.909158e-06 5.7560064e-06
0003c0 e8 e9 db 37 bc e4 f3 b8 1a 11 2f b7 03 63 f3 38
       2.6215755e-05 -0.00011629748 -1.0434795e-05 0.00011605585
0003d0 80 68 c6 b4 f0 07 e8 b8 d6 3b f4 b8 8c d6 4d b9
       -3.6956408e-07 -0.000110641005 -0.00011645972 -0.00019630248
0003e0 44 b8 2b b8 79 25 53 b9 ee 42 ff b7 ea 5e f5 38
       -4.0941188e-05 -0.00020136488 -3.0429535e-05 0.000117001895
0003f0 8c cd 6d 37 98 55 20 b8 40 17 3e b7 b1 ee 7b b8
       1.4174158e-05 -3.8226688e-05 -1.1330296e-05 -6.0065362e-05

exp_avg_sq f4 [30, 30]
000000 84 b7 0a 34 c2 4e 45 34 56 4a 25 33 7c 7f 32 34
       1.2919014e-07 1.8375707e-07 3.8484664e-08 1.662392e-07
000010 93 fa 2b 32 5a 40 15 35 aa 66 88 34 9c 0b 50 34
       1.0010484e-08 5.560047e-07 2.5406672e-07 1.9375733e-07
000020 31 2e 6c 33 81 14 39 33 5c e9 bf 32 fb 12 88 34
       5.4990043e-08 4.3092317e-08 2.2341446e-08 2.5345784e-07
000030 16 0c b2 34 98 0a 9f 32 5d 38 0e 32 bd eb c6 2f
       3.3163877e-07 1.8514854e-08 8.278303e-09 3.6183492e-10
000040 aa f4 57 34 fc f5 63 34 0b 94 52 32 7c 0f 5b 34
       2.0112444e-07 2.1230511e-07 1.225727e-08 2.0401598e-07
000050 be fb 8b 33 23 f7 b7 2f d0 6e 4c 33 fa d9 1d 34
       6.5184835e-08 3.3463107e-10 4.7598235e-08 1.4701064e-07
000060 55 55 11 33 a6 9d 80 33 22 d7 bd 31 ec 69 24 33
       3.3838052e-08 5.9891406e-08 5.5250817e-09 3.828056e-08
000070 ba 35 ee 30 37 9e 18 33 a7 46 0a 2e 96 85 fa 33
       1.7332049e-09 3.5534153e-08 3.144032e-11 1.1665831e-07
000080 b5 d2 64 33 c9 16 37 33 89 08 b0 32 c9 f7 27 35
       5.3277024e-08 4.262873e-08 2.0492978e-08 6.2572923e-07
000090 5d a5 82 35 8c 0f 58 34 e3 71 56 34 42 86 80 33
       9.733882e-07 2.0122224e-07 1.9971735e-07 5.984886e-08
0000a0 71 48 f2 32 ee 58 99 34 9b f1 bf 34 51 33 2f 32
       2.820545e-08 2.8563176e-07 3.5752313e-07 1.0198009e-08
0000b0 76 99 2e 34 e2 e3 ee 34 55 0e c4 33 e5 c0 b5 31
       1.6260842e-07 4.449676e-07 9.129568e-08 5.289723e-09
0000c0 0a 41 8b 35 50 91 44 34 99 3c bc 32 58 2e 2a 34
       1.0375236e-06 1.8306787e-07 2.1913637e-08 1.5849344e-07
0000d0 47 e4 94 30 09 3d 7c 34 ea 1a e6 33 d1 a6 33 32
       1.0833298e-09 2.3491533e-07 1.0715105e-07 1.0457101e-08
0000e0 75 73 3f 33 58 3d fa 2d 6e 64 8f 34 be 5b da 31
       4.457566e-08 2.8448952e-11 2.6708898e-07 6.355065e-09
0000f0 d0 ab db 33 60 2d 3d 34 58 fa 8c 33 f2 b2 b6 33
       1.0229235e-07 1.7618504e-07 6.564795e-08 8.5075854e-08
000100 07 ae 97 31 bf c8 14 35 22 0e 65 34 e8 9d 5d 34
       4.414463e-09 5.542642e-07 2.1332428e-07 2.0639675e-07
000110 d1 36 cb 33 f4 65 06 33 ac 1f ca 32 3e 8a 80 34
       9.462895e-08 3.1292032e-08 2.3530298e-08 2.3942442e-07
000120 6f d8 b7 33 21 53 08 32 94 03 82 32 bc fe 92 33
       8.5609706e-08 7.935143e-09 1.5135619e-08 6.844991e-08
000130 db e4 5d 33 cf 06 b0 33 6e 07 25 34 75 cb 5c 34
       5.1663715e-08 8.196877e-08 1.5369525e-07 2.0563114e-07
000140 4f 6f 74 32 6b f2 11 32 1b 44 d9 31 c4 1c 54 33
       1.4227978e-08 8.49523e-09 6.323274e-09 4.938626e-08
000150 2a 14 b5 31 5b e6 fd 32 ee 6f dd 2e 86 25 73 30
       5.2700857e-09 2.955783e-08 1.0069799e-10 8.845621e-10
000160 03 7f 57 33 5b 51 3d 33 85 ca 85 34 76 f8 1d 35
       5.0174105e-08 4.4078984e-08 2.4920533e-07 5.8848616e-07
000170 cb 8e ea 33 8e 51 d9 34 e7 f9 4e 33 37 93 ee 35
       1.0922448e-07 4.047874e-07 4.8190397e-08 1.7775227e-06
000180 23 21 a4 35 74 3a 38 35 79 b6 6f 34 09 18 81 34
       1.2228596e-06 6.86304e-07 2.2324993e-07 2.404561e-07
000190 5f 58 9e 33 97 ab 63 35 fa a8 65 35 27 27 3d 33
       7.373523e-08 8.4813786e-07 8.555504e-07 4.40406e-08
0001a0 b1 05 fb 33 0d 0a 0c 34 54 53 d3 34 d7 35 cb 34
       1.16891336e-07 1.3042172e-07 3.9362442e-07 3.785087e-07
0001b0 20 19 fc 34 01 02 16 35 d1 ee 39 34 ee ce ad 32
       4.695694e-07 5.588227e-07 1.7316349e-07 2.0233951e-08
0001c0 d0 f7 ad 33 70 87 26 35 ef d6 0e 34 e4 b3 f8 33
       8.101017e-08 6.2036906e-07 1.3302973e-07 1.1581122e-07
0001d0 95 22 47 33 6e 2e 80 33 06 be bf 33 48 36 9f 33
       4.636475e-08 5.96891e-08 8.928696e-08 7.413888e-08
0001e0 7e 27 c4 34 f9 23 2c 34 b6 6f b1 2b ba e1 dd 34
       3.653658e-07 1.6031835e-07 1.2607612e-12 4.1328695e-07
0001f0 6e 69 16 33 82 3d 3d 35 d6 ad a0 34 2f bd 7e 34
       3.5020484e-08 7.049749e-07 2.9928805e-07 2.3724418e-07
000200 c7 2e a9 33 79 79 58 33 0c 2e ef 32 aa 7c 9c 34
       7.8781845e-08 5.0401898e-08 2.7844202e-08 2.914797e-07
000210 c7 7e 92 35 b4 07 7f 33 69 a9 7f 32 38 af 2f 31
       1.0914745e-06 5.937882e-08 1.4881473e-08 2.5565452e-09
000220 29 6c 5d 35 a8 6a 6c 35 9a f3 05 33 f3 0d ac 34
       8.248631e-07 8.8072056e-07 3.118803e-08 3.2047646e-07
000230 9b de 5d 34 48 3c 3e 30 44 bf 3b 34 99 72 d0 34
       2.0663212e-07 6.920726e-10 1.7485314e-07 3.88264e-07
000240 41 94 a1 33 dc be 89 34 cb 21 47 33 30 3f 1d 34
       7.524114e-08 2.5657107e-07 4.6364033e-08 1.4644752e-07
000250 f9 f0 b1 2f 4b d1 14 33 d9 ef 20 33 8a 41 cd 34
       3.2367334e-10 3.4649286e-08 3.7471043e-08 3.8231912e-07
000260 84 70 af 33 a3 05 2c 34 be 6a 05 33 ae fb 82 35
       8.169539e-08 1.6020799e-07 3.1063557e-08 9.759003e-07
000270 2c 36 4c 35 4e f8 08 35 3b 1c 83 33 d2 0c e9 34
       7.607475e-07 5.102528e-07 6.105298e-08 4.340896e-07
000280 4f a7 5b 33 a2 04 16 34 0d 8e 47 34 98 92 47 32
       5.1142077e-08 1.3971524e-07 1.8584997e-07 1.1616656e-08
000290 ff 32 84 34 eb 41 91 33 92 6e 90 34 c3 22 96 33
       2.462402e-07 6.764079e-08 2.690254e-07 6.9912424e-08
0002a0 b2 fd 50 34 11 d0 a6 34 42 d8 49 33 51 e0 6a 33
       1.9463803e-07 3.1071298e-07 4.6995645e-08 5.4686385e-08
0002b0 f1 6c 25 32 69 ab c0 34 22 30 d1 32 28 6b 4d 32
       9.6290345e-09 3.5887504e-07 2.435269e-08 1.1956935e-08
0002c0 af 78 11 33 50 b8 97 32 c4 db d2 32 b1 eb 05 32
       3.3870204e-08 1.766253e-08 2.4547155e-08 7.795209e-09
0002d0 95 e1 48 33 3d ee 48 34 89 fe 3e 33 a8 16 d0 33
       4.6771294e-08 1.8713122e-07 4.446932e-08 9.689876e-08
0002e0 18 23 72 32 eb b4 2e 35 f8 95 11 35 03 b1 6a 34
       1.4094233e-08 6.508332e-07 5.423494e-07 2.1857345e-07
0002f0 e5 b2 8f 33 5e a8 c3 33 e3 61 e7 32 df 23 ae 34
       6.691497e-08 9.111021e-08 2.6936453e-08 3.2436125e-07
000300 07 55 86 34 38 90 6f 32 ac 11 31 33 b9 a6 41 33
       2.502131e-07 1.39444225e-08 4.1227096e-08 4.5087948e-08
000310 11 ba a0 33 e7 aa fc 32 29 8d 49 34 f5 c9 47 34
       7.484426e-08 2.9414378e-08 1.8770938e-07 1.8606791e-07
000320 3e b2 35 33 51 27 57 32 4a 7d 8f 32 ac 74 56 34
       4.2304457e-08 1.2523587e-08 1.6704366e-08 1.9972748e-07
000330 9d 15 78 33 8b 3d af 32 47 d7 63 32 82 cb 12 2f
       5.7761657e-08 2.0400668e-08 1.3262087e-08 1.3350923e-10
000340 a4 61 d9 32 b6 84 ad 32 be f3 be 32 8e 35 b3 33
       2.5306527e-08 2.02002e-08 2.2229752e-08 8.3450786e-08
000350 d8 e1 98 32 34 75 0b 33 56 0d 08 32 c4 4f 46 34
       1.779783e-08 3.2470055e-08 7.919274e-09 1.8469206e-07
000360 8e 04 c3 33 5c 83 e2 33 ed 00 cf 32 67 39 b3 33
       9.0812236e-08 1.0547839e-07 2.4098393e-08 8.3457785e-08
000370 25 db 25 32 81 05 96 32 ec 96 86 33 21 db 0f 31
       9.654092e-09 1.7464801e-08 6.267314e-08 2.09338e-09
000380 4a fe b6 32 a0 c7 62 32 34 87 ef 33 70 5a 6c 33
       2.1303226e-08 1.3200321e-08 1.1153898e-07 5.5030284e-08
000390 dd f6 bd 32 3f 2c 79 33 07 27 79 32 b8 e5 27 32
       2.2114756e-08 5.8015072e-08 1.4502581e-08 9.772911e-09
0003a0 bf e2 17 32 c6 93 a4 33 0f 3c a5 31 01 0b d0 32
       8.840913e-09 7.663725e-08 4.80896e-09 2.4219391e-08
0003b0 f8 9e 4c 32 97 bc 64 32 68 81 d7 30 e3 29 d4 2f
       1.1910508e-08 1.3314227e-08 1.5680088e-09 3.8592338e-10
0003c0 66 8d 30 34 eb cc 04 35 63 b3 c8 33 d3 f3 b1 34
       1.6442718e-07 4.9472027e-07 9.345856e-08 3.3146225e-07
0003d0 c5 44 5d 33 58 39 a8 35 19 f5 5e 35 37 a0 1e 35
       5.1518118e-08 1.2533665e-06 8.305811e-07 5.909273e-07
0003e0 03 2c 5d 34 77 97 a8 34 b4 d8 77 33 00 43 04 35
       2.059824e-07 3.1402644e-07 5.770626e-08 4.927133e-07
0003f0 ea 21 56 35 1e f5 fb 32 87 93 0b 34 18 f1 02 34
       7.9770564e-07 2.9331712e-08 1.2999054e-07 1.2194903e-07

exp_avg f4 [30]
000000 da bf b7 38 c2 dc 72 b9 40 a4 ba 37 d0 4a 54 b9
       8.761855e-05 -0.00023161157 2.2249413e-05 -0.00020245765
000010 56 51 96 b9 2f f8 35 ba 20 69 e0 b9 d9 06 c6 39
       -0.0002867083 -0.0006941584 -0.00042802934 0.00037770605
000020 0e ae b3 b9 34 fa d5 b9 91 a8 d2 b9 84 7e 85 38
       -0.0003427122 -0.00040812942 -0.00040179913 6.3654996e-05
000030 b7 9c 79 b9 13 21 08 39 f0 8a ec b8 6c 99 92 39
       -0.00023804871 0.00012982292 -0.00011279236 0.00027961598
000040 ad 9a 5e b9 00 f7 9a 36 34 89 6d 38 4c 10 9f 38
       -0.00021229191 4.6183122e-06 5.6632984e-05 7.584746e-05
000050 c3 90 15 3a 30 74 17 b9 5e 02 1f 37 d4 30 95 b9
       0.000570547 -0.00014443765 9.47769e-06 -0.00028455874
000060 6a 34 99 b9 88 ff 47 37 87 01 37 b9 60 e1 e3 b9
       -0.00029221486 1.192082e-05 -0.00017452809 -0.0004346473
000070 91 a8 9f b9 65 19 26 b9
       -0.00030452435 -0.00015840454
