pred_logs_lstm/86077_pred24/epoch=14-step=4110.ckpt (torch, 7474 bytes, 12 tensors)

lstm.weight_ih_l0 f4 [4, 11]
000000 81 f6 43 3f 57 42 0b c0 31 56 8e be 47 9a 15 3d
       0.7654801 -2.175924 -0.27800134 0.036524083
000010 d9 ad 11 3f 6c af d6 be 70 97 cb 3d bc 06 9f 3e
       0.56905895 -0.4193071 0.09940994 0.31059825
000020 f4 30 34 3d 90 cd bd 3f 78 b3 9b bd c0 d8 4c bf
       0.043991998 1.4828358 -0.0760259 -0.80018234
000030 19 3f 8c 3f bd f6 a2 bf f2 d3 7f be e5 06 f1 bf
       1.0956756 -1.2731549 -0.24983194 -1.8830229
000040 7f b1 94 3f 69 55 63 3f 45 b4 f6 bf 26 7b 8a bf
       1.1616668 0.888022 -1.9273764 -1.0818832
000050 d0 5f b5 be df 7a 73 3e b6 b8 bf bd 3b e4 36 40
       -0.35424662 0.2377734 -0.09361403 2.85768
000060 77 52 74 3e 6e 26 78 3d d5 8b 02 3f 7e ed 56 3f
       0.23859583 0.060583524 0.50994617 0.83956134
000070 ef 09 91 be fb d3 2c 3f 18 13 2b c0 1e 0c 4b be
       -0.2832789 0.67510957 -2.6730404 -0.19828841
000080 22 be 73 3e df cc 5a ba a6 b9 1a c0 bc a2 18 be
       0.23802999 -0.0008346568 -2.417581 -0.14905828
000090 25 59 07 3d 19 4b c8 be 09 dc 20 bf d2 d0 87 3e
       0.033044 -0.39119795 -0.62835747 0.26526505
0000a0 39 50 0e 3f e8 9f ff 3e ae ac e4 bf 17 44 9e be
       0.5559116 0.49926686 -1.7865198 -0.30911323

lstm.weight_hh_l0 f4 [4, 1]
000000 c9 bd df be 00 b3 0e 40 98 ad 49 3e ac 28 98 3e
       -0.43699482 2.2296753 0.19695127 0.2971853

lstm.bias_ih_l0 f4 [4]
000000 4c 11 12 3f 59 da 90 bf 24 be 5c bf 0b 80 32 bf
       0.5705764 -1.1316634 -0.8622763 -0.6972663

lstm.bias_hh_l0 f4 [4]
000000 ac 1c c9 be 04 b1 7f be dc d8 3a 3f e1 11 18 3f
       -0.39279687 -0.2496987 0.7298715 0.5940228

exp_avg f4 [4, 11]
000000 90 d5 bf b8 67 4c 8a b8 f4 a0 16 39 b8 75 ee b7
       -9.147369e-05 -6.594584e-05 0.00014365074 -2.8426628e-05
000010 bc 8b e1 38 00 53 87 b9 83 c2 10 b9 d6 20 ca b6
       0.000107548636 -0.00025811046 -0.00013805371 -6.0238917e-06
000020 40 98 d8 35 c0 7e 68 38 77 31 ad b8 38 c8 4a 39
       1.6137565e-06 5.5431155e-05 -8.2584964e-05 0.00019338808
000030 00 d8 ed b2 f4 ab ad 37 f1 ad bc 38 7b 1d 1a 39
       -2.7688657e-08 2.0703279e-05 8.996938e-05 0.00014697567
000040 90 bc e6 b6 96 64 2c b8 60 b9 d7 b7 71 93 c2 b7
       -6.8764857e-06 -4.1101674e-05 -2.571632e-05 -2.319526e-05
000050 7c 7a 3c b9 d8 05 8b b8 30 31 a4 3a 28 35 e9 b8
       -0.00017974706 -6.629125e-05 0.0012526866 -0.00011120207
000060 a2 e1 8c b8 8f df 16 3a 54 e1 8e b8 82 37 f8 39
       -6.7177476e-05 0.0005755359 -6.813058e-05 0.00047343603
000070 9e da 2c 39 da 34 a3 b9 6c 4c 45 b8 d9 81 a7 ba
       0.0001648464 -0.0003112916 -4.7039634e-05 -0.0012779786
000080 8a 0b 21 ba 24 69 bd b9 98 09 69 b9 6d 68 75 3a
       -0.0006143382 -0.00036127225 -0.00022224186 0.0009361569
000090 10 43 a8 b8 20 d0 1e 3a eb 01 93 ba d6 fd 45 ba
       -8.0233556e-05 0.0006058235 -0.0011215782 -0.0007552778
0000a0 12 da ef b8 5a 55 d2 b8 30 8d 39 39 08 a5 1b ba
       -0.00011437027 -0.00010029478 0.00017695571 -0.00059373723

exp_avg_sq f4 [4, 11]
000000 d5 17 ad 37 bb 98 6f 36 c4 8f 2b 37 9c ce b4 36
       2.0634305e-05 3.5702676e-06 1.0225867e-05 5.3884705e-06
000010 0b b7 2e 36 4c 82 a4 37 3a 41 ea 35 5a 1d 46 35
       2.6034566e-06 1.9610998e-05 1.7453342e-06 7.380346e-07
000020 53 44 86 34 5f 7b d0 36 d0 bf 02 36 f1 a3 e6 35
       2.5009157e-07 6.2132453e-06 1.948316e-06 1.7184049e-06
000030 80 79 4a 34 8c 6d 06 35 6a bd 07 35 08 03 ef 34
       1.8856917e-07 5.00783e-07 5.056705e-07 4.4519425e-07
000040 51 80 95 35 b9 b7 f8 33 8a 3d 0c 34 85 57 e8 32
       1.113871e-06 1.1581819e-07 1.3060904e-07 2.7048154e-08
000050 ec af 3b 35 d4 d1 4a 34 7f c6 89 37 d5 8e 37 35
       6.991893e-07 1.8889051e-07 1.6424105e-05 6.838066e-07
000060 5b 46 d3 35 5e c5 81 36 20 d8 be 35 a1 e1 3a 36
       1.5741201e-06 3.867476e-06 1.4219004e-06 2.7847493e-06
000070 79 f7 85 35 08 fa 8a 35 64 6f 5e 33 f1 b1 0a 37
       9.981296e-07 1.035457e-06 5.1789712e-08 8.266871e-06
000080 5a 79 9e 35 84 04 c0 37 b7 b7 59 36 35 a5 ff 36
       1.1807235e-06 2.2890286e-05 3.2442456e-06 7.618825e-06
000090 66 23 d0 36 cf 79 68 36 c7 21 75 37 1d 04 ef 35
       6.203004e-06 3.4641596e-06 1.4611002e-05 1.7808085e-06
0000a0 3d 80 5e 35 a8 13 c7 34 60 b3 34 37 6b 7c 6f 35
       8.2888056e-07 3.708094e-07 1.07706e-05 8.921549e-07

exp_avg f4 [4, 1]
000000 d2 5a 70 b8 1f a2 98 37 d0 12 01 b7 82 1d 18 b9
       -5.7305042e-05 1.8195306e-05 -7.693379e-06 -0.00014506842

exp_avg_sq f4 [4, 1]
000000 64 01 42 36 93 59 61 34 51 31 4f 34 ba 2e 48 36
       2.8909062e-06 2.0987345e-07 1.9296318e-07 2.982952e-06

exp_avg f4 [4]
000000 70 0f b8 38 f2 44 4f b9 26 07 a4 ba 64 33 ad 39
       8.776679e-05 -0.00019766742 -0.0012514337 0.0003303542

exp_avg_sq f4 [4]
000000 91 80 b1 37 87 73 ec 35 2b 4b 8a 37 2a 74 c4 37
       2.1159913e-05 1.7616993e-06 1.6485885e-05 2.3419114e-05

exp_avg f4 [4]
000000 70 0f b8 38 f2 44 4f b9 26 07 a4 ba 64 33 ad 39
       8.776679e-05 -0.00019766742 -0.0012514337 0.0003303542

exp_avg_sq f4 [4]
000000 91 80 b1 37 87 73 ec 35 2b 4b 8a 37 2a 74 c4 37
       2.1159913e-05 1.7616993e-06 1.6485885e-05 2.3419114e-05
