logs_feed_forward_deeper/epoch=1-step=2188.ckpt (torch, 37954 bytes, 24 tensors)

linear1.weight f4 [30, 11]
0	0xbe6f9015	-0.23394807
1	0x3cca1c5a	0.024671722
2	0x3de21395	0.11038891
3	0xbe3cb757	-0.18429314
4	0xbe9cf16c	-0.3065294
5	0xbd071dda	-0.032987453
6	0x3e28ca34	0.16483384
7	0xbf07b1b2	-0.53005517
8	0x3e7f4f62	0.24932626
9	0x3dd1954d	0.10233555
10	0xbd769997	-0.06020507
11	0x3db108d8	0.08644265
12	0xbd2dfcbe	-0.04247736
13	0xbe198ac3	-0.1499434
14	0xbaeeb9a4	-0.0018213284
15	0xbe293d8c	-0.16527385
16	0x3e4d7f74	0.20068151
17	0xbd2d0557	-0.04224142
18	0xbedabf57	-0.42724106
19	0xbd282e91	-0.041060034
20	0xbe407806	-0.18795785
21	0xbec9e960	-0.39435863
22	0x3dd91241	0.10599185
23	0x3cc50cbf	0.02405393
24	0x3e9398dd	0.28827563
25	0xbdd9d8c1	-0.10637046
26	0x3cd29414	0.025705375
27	0x3c2fd6eb	0.010732393
28	0xbe8e6804	-0.27813733
29	0xbea931a5	-0.33045688
30	0xbcfe5abd	-0.031049127
31	0xbea64d91	-0.32481053
32	0xbcef08df	-0.029179035
33	0x3ca5f882	0.0202601
34	0x3ebcecc1	0.3689938
35	0xbd19c649	-0.037542615
36	0x3df98b21	0.1218474
37	0x3dd526d0	0.104077935
38	0x3d2a3610	0.041555464
39	0xbe34c4a1	-0.17653133
40	0x3e13527e	0.14386937
41	0x3e4e1e27	0.2012869
42	0x3e74099e	0.23831794
43	0x3e0ac374	0.13551122
44	0x3cb414d0	0.02198258
45	0x3e9101ef	0.28321788
46	0x3e321ea5	0.17394502
47	0xbd974802	-0.07386781
48	0x3e934a38	0.28767562
49	0xbe7cb6f5	-0.24679168
50	0x3d28247c	0.04105042
51	0xbe2c805a	-0.16845837
52	0x3d1d858d	0.038457442
53	0x3e75adfd	0.23992153
54	0x3df0be01	0.1175499
55	0xbe20a7f5	-0.1568907
56	0x3e58bde8	0.21166193
57	0xbdf6681e	-0.120315775
58	0xbe2dff19	-0.16991843
59	0x3eef916e	0.46790642
60	0x3e8013bd	0.2501506
61	0xbdb9aa98	-0.09065741
62	0xbc536ba4	-0.0129040815
63	0xbf00c2e8	-0.50297403
64	0xbda2c173	-0.07947054
65	0xbe56e361	-0.20985176
66	0xbdce8497	-0.10083883
67	0x3c958850	0.018253475
68	0x3e58a5f5	0.21157058
69	0xbd02d6bd	-0.03194307
70	0x3e272051	0.16320921
71	0x3dd9a53c	0.10627219
72	0x3e7fefb1	0.24993779
73	0xbe7a04b4	-0.24415857
74	0xbf25fc78	-0.6483836
75	0xbe3525d4	-0.17690212
76	0xbd13a5c8	-0.036046773
77	0xbcc175da	-0.023615766
78	0xbbe72090	-0.0070534423
79	0x3b4661a0	0.0030270591
80	0x3e391d2a	0.18077531
81	0x3e7191bb	0.23590748
82	0x3de5f332	0.112280264
83	0x3e25a1db	0.16175024
84	0xbe692f99	-0.22772063
85	0xbd990209	-0.07471091
86	0xbcaabe0a	-0.02084257
87	0xbdfcee7b	-0.12350174
88	0x3e07503b	0.13214199
89	0xbf0f397b	-0.55947083
90	0x3d356950	0.044289887
91	0xbcd66462	-0.026170913
92	0xbdebf8bd	-0.115220524
93	0x3d311bb3	0.043239307
94	0x3dcf21c3	0.101138614
95	0xbe12c6bb	-0.14333622
96	0x3e8a105c	0.26965606
97	0x3d0d314c	0.03447084
98	0xbdad3de5	-0.08459071
99	0x3d0728b8	0.032997817
100	0xbc851fe5	-0.01625056
101	0xbda51bc0	-0.080619335
102	0xbd90d347	-0.07071548
103	0x3f0b65f8	0.54452467
104	0xbd9ab777	-0.075545244
105	0x3e739809	0.23788466
106	0x3ee57b1c	0.44820487
107	0xbe857c16	-0.26071233
108	0xbe1b6760	-0.15176153
109	0x3bc09c93	0.00587804
110	0x3ea4a359	0.32155874
111	0xbdf867f4	-0.121292025
112	0x3e0ee06d	0.13952799
113	0xbd037a3a	-0.032098986
114	0x3dab4e71	0.08364571
115	0xbe9dc3f4	-0.30813563
116	0xba88da1e	-0.001044098
117	0xbd862b4a	-0.065512255
118	0x3ea0b9fa	0.3139189
119	0x3c188161	0.00930819
120	0x3cfcfc31	0.030881973
121	0x3dff9230	0.12479055
122	0x3e82d810	0.25555468
123	0x3e157c38	0.14598167
124	0x3e95cba0	0.29256916
125	0x3e7b1864	0.24521023
126	0x3e8dcdcc	0.27696073
127	0xbe89aae6	-0.26888198
128	0x3d2632c8	0.040575773
129	0xbe8731fc	-0.26405323
130	0xbd37f740	-0.04491353
131	0x3e72a82c	0.23696965
132	0xbe48cd9f	-0.19609688
133	0xbea6dd5a	-0.32590753
134	0xbe59a091	-0.21252657
135	0x3d86f9fe	0.06590651
136	0x3dd880d7	0.10571449
137	0xbe916a74	-0.2840153
138	0xbe6e2fa8	-0.23260367
139	0x3e44e3e1	0.19227554
140	0x3e210ee1	0.15728332
141	0x3d052fe9	0.032516394
142	0x3dc590ab	0.09646734
143	0xbe5e32f2	-0.21699122
144	0x3f005845	0.5013469
145	0xbe58556d	-0.21126337
146	0xbce3ed7d	-0.027823204
147	0x3eaa8a4c	0.33308637
148	0xbcf4c832	-0.029880617
149	0xbe2c6469	-0.16835178
150	0x3de92c39	0.11385388
151	0xbe054a3f	-0.13016604
152	0x3e20089b	0.15628283
153	0x3d672062	0.056427367
154	0xbe51d104	-0.2048989
155	0x3e1bc0a7	0.1521021
156	0x3e26f707	0.16305171
157	0x3e0f9d6c	0.14024895
158	0xbe57cb65	-0.21073683
159	0xbdcf7401	-0.10129548
160	0xbd4a1160	-0.049332976
161	0xbe67c1b1	-0.22632481
162	0xbeab9648	-0.33513093
163	0xbed9f5cb	-0.42570338
164	0x3df35d19	0.11882991
165	0xbe22b1f7	-0.158882
166	0xbe152852	-0.14566162
167	0xbe827986	-0.2548334
168	0xbca061fc	-0.019577973
169	0x3e75a336	0.23988041
170	0xbe554c20	-0.2082982
171	0x3d5b76b7	0.053580012
172	0x3e89a237	0.26881573
173	0x3de7f44f	0.11325895
174	0xbec281d0	-0.37989664
175	0xbe1470d6	-0.14496168
176	0xbe77d18e	-0.24201033
177	0xbd984b64	-0.074362546
178	0x3b6f30a2	0.0036497493
179	0xbc015eda	-0.0078961495
180	0xbdb5f6db	-0.088849746
181	0x3d730f68	0.059340864
182	0xbe833995	-0.2562987
183	0x3e1d9bab	0.15391414
184	0x3eb54892	0.3540693
185	0xbcd561b3	-0.026047563
186	0xbdd0e2d6	-0.101995155
187	0xbe8ae993	-0.27131328
188	0xbed6af09	-0.41930416
189	0xbe5e4cb0	-0.21708941
190	0xbe1171c1	-0.1420355
191	0x3d90579a	0.07047959
192	0xbe6a86a9	-0.22902931
193	0xbba1e167	-0.0049402
194	0xbd7d23ca	-0.06180171
195	0x3eb163ec	0.34646547
196	0xbe408afc	-0.18803018
197	0x3e6bf66d	0.23043223
198	0x3de107f9	0.10987849
199	0xbc4a1418	-0.012333892
200	0xbd50ef49	-0.05100945
201	0x3d4a05f3	0.04932208
202	0xbe08c841	-0.13357641
203	0xbdb5abe7	-0.088706784
204	0x3e26d5d3	0.16292505
205	0x3e3ffa0b	0.18747728
206	0x3eed796f	0.4638171
207	0xbeac3c35	-0.33639684
208	0x3afe45b1	0.0019399432
209	0xbe0eed64	-0.13957745
210	0xbe848dd0	-0.25889444
211	0x3e92aee0	0.28649044
212	0x3d5f09ea	0.054452814
213	0x3e991228	0.29896665
214	0xbe59f945	-0.21286495
215	0x3e260a83	0.16214947
216	0x3ed2c50a	0.41165954
217	0x3daeb1a2	0.085299745
218	0xbc3444b3	-0.011002707
219	0xbe874e09	-0.26426724
220	0xbdd12eff	-0.10214042
221	0xbeae6b2d	-0.34066144
222	0x3dc7f3b8	0.097632825
223	0x3e06ad72	0.13152102
224	0xbe6e1a49	-0.23252214
225	0xbea8034c	-0.32815015
226	0x3e43bbc1	0.19114591
227	0xbda51362	-0.080603376
228	0xbd821fab	-0.063536964
229	0x3d9c07d2	0.07618679
230	0x3d8fe3b8	0.07025856
231	0xbe27dd35	-0.16392978
232	0xbe990fed	-0.29894963
233	0xbdeb0811	-0.11476148
234	0x3d9960d9	0.07489175
235	0xbef3fcc0	-0.4765377
236	0xbcbcc7fe	-0.023044582
237	0x3dc15a0d	0.09441004
238	0x3e921831	0.28534082
239	0x3dfa8c68	0.122338116
240	0xbc85a64e	-0.016314652
241	0x394ca69f	0.00019517027
242	0x3dcab506	0.09897809
243	0xbe431a07	-0.19052897
244	0xbda796e5	-0.08183078
245	0xbe4bde6c	-0.19909066
246	0xbe4d34c6	-0.20039663
247	0xbe02ec61	-0.12785484
248	0x3e980c97	0.29697105
249	0x3d76961f	0.06020176
250	0x3e112342	0.14173606
251	0xbe491a05	-0.19638832
252	0xbe832d41	-0.25620463
253	0xbe238ef7	-0.15972506
254	0x3e8e5b3a	0.27803975
255	0xbe0cc1f8	-0.13745868

linear1.bias f4 [30]
0	0x3e02fe19	0.12792243
1	0x3e23c094	0.15991431
2	0xbe2161e5	-0.1576
3	0xbc9e2e5e	-0.019309219
4	0x3e7f1dc6	0.24913701
5	0xbe194f1d	-0.14971586
6	0xbdaff088	-0.085907996
7	0xbe4bca43	-0.19901375
8	0x3eaf8ff3	0.34289512
9	0x3eb3e579	0.3513601
10	0xbbbc819f	-0.0057527567
11	0xbe8d2b80	-0.2757225
12	0x3d7ac124	0.06121935
13	0xbd759fce	-0.059966855
14	0xbe292f30	-0.16521907
15	0xbe1c184b	-0.15243642
16	0xbd740a17	-0.059579935
17	0xbd35c903	-0.044381153
18	0x3e01980b	0.12655656
19	0x3df5a0fc	0.11993596
20	0xbe836718	-0.25664592
21	0xbe246296	-0.16053233
22	0x3ca76354	0.020433106
23	0x3e2d85cc	0.1694557
24	0x3ed04416	0.40676945
25	0xbcb637a6	-0.022243332
26	0x3c988873	0.018619752
27	0xbe7f8c6f	-0.24955915
28	0x3e2227e4	0.1583553
29	0x3e1a74c2	0.15083602

linear2.weight f4 [30, 30]
0	0xbe50149a	-0.20320359
1	0xbda3e8c0	-0.08003378
2	0x3dc4b901	0.09605599
3	0xbdf75df8	-0.1207847
4	0x3d85363c	0.06504485
5	0x3dd4c342	0.10388805
6	0x3d3c71ab	0.04600684
7	0xbe37ab4e	-0.17936441
8	0xbd38dc50	-0.04513198
9	0xbd8911a8	-0.06692821
10	0xbdfd70c1	-0.12375022
11	0xbdcf9445	-0.10135702
12	0xbd1b72ac	-0.037951156
13	0xbe0edf38	-0.13952339
14	0xbc629b04	-0.013830904
15	0xbd7f6547	-0.062352445
16	0x3d81135d	0.063025214
17	0xbe1dad3b	-0.15398113
18	0xbd45eede	-0.048323505
19	0x3da7b782	0.08189298
20	0xbdbae66b	-0.0912598
21	0xbe0d3423	-0.1378942
22	0x3d8382dd	0.064214446
23	0x3dda20be	0.10650776
24	0xbe41dac4	-0.18931109
25	0x3e2c1d0e	0.16807958
26	0x3d8757dc	0.06608555
27	0x3db936f7	0.09043687
28	0x3e07c384	0.13258177
29	0xbe0b532f	-0.13605951
30	0xbe28f17f	-0.16498373
31	0x3d081106	0.03321936
32	0x3e899377	0.2687032
33	0x3e9d8608	0.3076632
34	0xbe27effd	-0.16400142
35	0x3d547062	0.05186499
36	0x3e9126f0	0.2835002
37	0xbc274946	-0.010210341
38	0xbdc7ec20	-0.09761834
39	0x3e49086a	0.19632116
40	0x3d2f656a	0.042821325
41	0xbe099fb3	-0.13439827
42	0xbd1544e4	-0.036442652
43	0xbb571742	-0.003282026
44	0x3e768e6e	0.2407777
45	0xbd92d2e0	-0.071691275
46	0x3d8e35c0	0.06943846
47	0xbd987066	-0.07443313
48	0x3e215ecd	0.1575882
49	0xbde821da	-0.11334582
50	0x3d46a918	0.048501104
51	0xbe451e6c	-0.19249886
52	0xbd9ada7c	-0.07561204
53	0x3deee0d6	0.11663978
54	0xbd0d65a8	-0.034520775
55	0x3dc06e8b	0.093960844
56	0xbd81dc50	-0.063408494
57	0xbe32afe3	-0.17449908
58	0xbdeba524	-0.115061074
59	0x3d031cc0	0.03200984
60	0xbcdc7f47	-0.02691616
61	0x3d6771f8	0.056505173
62	0x3dae1f8d	0.085021116
63	0x3e55cb2e	0.20878288
64	0xbc3f074c	-0.011659455
65	0x3e4aef15	0.19817765
66	0x3b3f407e	0.0029182727
67	0x3db39ea2	0.08770491
68	0xbdf2a935	-0.1184868
69	0x3e4a8ef8	0.19781101
70	0xbe169d39	-0.14708413
71	0x3e04f91a	0.1298565
72	0xbe0c377f	-0.13693045
73	0x3e925cf8	0.28586555
74	0x3dd19c17	0.1023485
75	0xbac43f78	-0.0014972528
76	0xbd0550ab	-0.032547634
77	0xbd706e5d	-0.058699
78	0x3d9e3af1	0.07726086
79	0xbe17d67c	-0.14827913
80	0x3ca298d7	0.01984827
81	0xbd3bf073	-0.045883607
82	0x3e222c15	0.15837128
83	0x3e2e1981	0.17001916
84	0x3e675c7a	0.22593871
85	0x3d675be7	0.05648413
86	0x3e71105a	0.23541394
87	0x3daffd17	0.08593195
88	0xbda79b2a	-0.08183892
89	0x3e2c1da4	0.16808182
90	0x3dc5dad4	0.09660879
91	0x3d0fbb19	0.03509054
92	0xbd86d718	-0.065839946
93	0xbe067320	-0.13129854
94	0xbd8a61a9	-0.067569084
95	0x3d817d75	0.06322757
96	0x3d901659	0.070355125
97	0xbd4cd917	-0.05001172
98	0xbd98e577	-0.07465642
99	0x3dfa7bbd	0.122306325
100	0xbdf14009	-0.11779792
101	0x3e064b56	0.13114676
102	0xbd4c3576	-0.04985567
103	0xbe2f1b00	-0.17100143
104	0xbe7bad66	-0.24577865
105	0x3e2ea046	0.17053327
106	0x3e376f38	0.1791352
107	0xbdbc1a22	-0.09184672
108	0xbe651d1f	-0.2237439
109	0xbd8bd19f	-0.068270914
110	0x3cc414aa	0.023935635
111	0x3d3db89a	0.046318628
112	0xbc5b0598	-0.013368033
113	0xbd02b431	-0.031910125
114	0x3c671b0c	0.01410557
115	0xbda5436e	-0.08069502
116	0x3c0c6d9c	0.008571055
117	0x3ca82e59	0.020529913
118	0x3da1a0ba	0.07891984
119	0x3dd28ee8	0.102811635
120	0xbb9b1d5f	-0.004733726
121	0x3e420275	0.1894625
122	0xbdf5883a	-0.11988874
123	0x3e3316bc	0.17489141
124	0x3e0c63ee	0.13709995
125	0xbd0b8f3a	-0.03407214
126	0x3ba78861	0.005112693
127	0xbe1bbe87	-0.15209399
128	0x3e075ec8	0.1321975
129	0xbde662a2	-0.112492815
130	0xbd505b03	-0.050868046
131	0xbdcc80d7	-0.09985512
132	0x3e047e37	0.12938772
133	0x3d7e7cf3	0.06213088
134	0x3e10e65e	0.14150378
135	0xbe408aeb	-0.18802993
136	0x3c974057	0.018463297
137	0x3d814f18	0.06313914
138	0xbd0b53e3	-0.034015547
139	0xbe0109e6	-0.12601432
140	0xbd8fa1fb	-0.07013317
141	0x3d30e7e4	0.043189898
142	0x3e0dc7a7	0.13845693
143	0xbdbca9ed	-0.09212098
144	0xbe487e05	-0.19579323
145	0x3e495d5e	0.19664523
146	0x3d9669d0	0.07344401
147	0xbe840425	-0.25784412
148	0xbc3bf87f	-0.01147282
149	0x3e95e66c	0.2927736
150	0xbc9d4d2d	-0.01920184
151	0xbd625847	-0.05525997
152	0x3e2444f0	0.16041923
153	0x3e84aac8	0.25911546
154	0x3e87c5bb	0.26518044
155	0x3e27ea95	0.1639808
156	0x3df7e836	0.121048376
157	0x3e0fe531	0.14052273
158	0xbe80a741	-0.25127605
159	0xbd74821f	-0.059694406
160	0xbe2f6cbf	-0.17131327
161	0x3e149a5c	0.14512008
162	0x3d91033f	0.07080697
163	0x3e686110	0.22693276
164	0xbc0c8731	-0.008577154
165	0xbd214fe7	-0.03938284
166	0xbd192791	-0.03739125
167	0x3d93f865	0.07225112
168	0xbd23e324	-0.04001154
169	0x3db9627b	0.09051987
170	0xbddd87e3	-0.10816934
171	0xbe37648d	-0.17909451
172	0xbe31b6af	-0.17354845
173	0xbdbfef92	-0.09371866
174	0x3e0df5c2	0.1386328
175	0x3e12aecc	0.14324492
176	0xbdbe297b	-0.092852555
177	0xbc583a2e	-0.013197465
178	0xbdcbac29	-0.09944946
179	0x3d8f7856	0.07005374
180	0xbe1ed76c	-0.15511864
181	0xbdf1be83	-0.11803915
182	0x3e4a3dbc	0.19750112
183	0x3d2fc445	0.042911787
184	0x3ceacc9a	0.028662015
185	0x3d73f8dc	0.059563503
186	0xbc9315e8	-0.017954782
187	0xbda3afa4	-0.07992485
188	0x3e475efe	0.1946983
189	0x3e3f50c4	0.18683153
190	0x3e1ceaf2	0.15324
191	0xbe21cb71	-0.15800263
192	0x3dc6d81a	0.09709187
193	0xbe1ad66b	-0.15120856
194	0xbe2c75da	-0.16841832
195	0xbc89eb88	-0.016835943
196	0x3a806ab4	0.0009797425
197	0xbd7b9d75	-0.06142946
198	0xbd9f1796	-0.077681705
199	0xbc832d07	-0.016012682
200	0x3e348955	0.17630513
201	0xbd61b475	-0.055103738
202	0x3e2b4104	0.1672402
203	0x3e1aaed1	0.1510575
204	0xbd12463c	-0.035711512
205	0xbb5a930f	-0.0033351814
206	0xbd5bab1a	-0.053629972
207	0x3d4c05b3	0.049810123
208	0x3b6c1555	0.0036023457
209	0xbcbaa1e4	-0.022782274
210	0xbe51fa93	-0.20505743
211	0x3c563558	0.013074242
212	0x3d72acf4	0.059246972
213	0x3db4b0bd	0.08822773
214	0x3e238b78	0.15971172
215	0x3e459713	0.19295911
216	0x3dc4987c	0.095993966
217	0x3db7a22e	0.0896648
218	0xbe01e8c5	-0.12686451
219	0x3d46a6a0	0.04849875
220	0x3dabdd8e	0.083918676
221	0x3e2a44c2	0.16627792
222	0xbdf468ba	-0.119340375
223	0x3dd3ac50	0.103356004
224	0xbded4a0e	-0.115863904
225	0x3df3377e	0.11875819
226	0xbe10f237	-0.14154898
227	0x3d646577	0.055760827
228	0x3cc19889	0.023632305
229	0x3da78185	0.08179001
230	0x3dc0a45f	0.09406351
231	0xbe6ce466	-0.23134002
232	0x3d2fecfb	0.04295061
233	0x3dc839c8	0.09776646
234	0xbd8f95b9	-0.07010979
235	0xbd1bc0c8	-0.038025647
236	0xbe678d37	-0.22612463
237	0x3ea0606e	0.3132357
238	0xbd3433cd	-0.043994714
239	0x3b32abab	0.0027262967
240	0x3ddfd810	0.109298825
241	0x3e449b1e	0.19199798
242	0xbd2674a8	-0.040638596
243	0x3d5f3e7c	0.05450295
244	0x3d1d9c4d	0.03847914
245	0x3dafc9ba	0.08583398
246	0xbbfbae72	-0.0076807076
247	0x3dfc36ce	0.12315141
248	0xbdb5d8bf	-0.08879232
249	0x3d82fa0d	0.0639535
250	0x3e46f5c3	0.19429688
251	0x3dc8a158	0.09796399
252	0x3de7e91a	0.113237575
253	0xbe4d2fde	-0.20037791
254	0x3d2a635b	0.04159866
255	0xbd0e30a8	-0.03471437

linear2.bias f4 [30]
0	0xbe3bddb3	-0.1834629
1	0x3e0cf5f7	0.13765703
2	0x3e4ef4bd	0.20210548
3	0x3e1661fd	0.14685817
4	0xbd28f7cc	-0.041251943
5	0x3e4d1a89	0.20029654
6	0xbc38b15c	-0.0112727545
7	0x3e2bf72f	0.16793512
8	0x3e1baac5	0.15201862
9	0x3e0b4ebc	0.13604254
10	0x3ded3cb1	0.115838416
11	0x3d144d84	0.036206737
12	0x3dd3b79b	0.10337754
13	0xbd8dc951	-0.06923164
14	0x3d719830	0.058983028
15	0x3e265b6f	0.16245817
16	0x3ad5d33f	0.0016313567
17	0xbe0cb155	-0.13739522
18	0xbe02f328	-0.12788069
19	0xbce534c6	-0.027979266
20	0x3d432bf0	0.047649324
21	0xbe193a6c	-0.14963692
22	0xbdf0834d	-0.11743794
23	0x3e03fe78	0.12890041
24	0xbe26c920	-0.1628766
25	0x3e4551c5	0.19269474
26	0xbe3452fe	-0.17609784
27	0xbe20a021	-0.15686084
28	0xbd2dfe7b	-0.04247902
29	0x3e0926d5	0.1339372

linear3.weight f4 [30, 30]
0	0xbd4ed8c1	-0.05049968
1	0xbd94d6f8	-0.072675645
2	0x3c0ee071	0.008720503
3	0x3e3f2a8c	0.18668574
4	0x3e46698e	0.19376203
5	0xbc5f80e7	-0.013641573
6	0xbdedeff6	-0.116180345
7	0x3d8f06be	0.06983708
8	0xbda71bb8	-0.08159584
9	0xbd0d8359	-0.03454909
10	0x3e3b8fe7	0.18316613
11	0xbe733243	-0.23749642
12	0x3e7b9fd7	0.24572693
13	0x3e60c2f9	0.21949376
14	0xbe18b3e1	-0.14912368
15	0x3dabb8cd	0.08384857
16	0x3e484061	0.19555809
17	0x3d744f70	0.05964607
18	0x3e6a75df	0.22896527
19	0x3e5667f2	0.2093809
20	0x3e54fc12	0.20799282
21	0x3d5ac79c	0.05341302
22	0x3e9a56a3	0.30144224
23	0xbe199a46	-0.15000257
24	0x3d1051ae	0.035234146
25	0x3d096576	0.033544026
26	0xbea2a8e7	-0.31769487
27	0xbe6f25b2	-0.23354223
28	0xbe50e02b	-0.20398013
29	0x3d70e48a	0.0588117
30	0xbdb49228	-0.088169396
31	0x3dfd0cba	0.12355943
32	0xbe59e5b6	-0.21279034
33	0xbdc7567c	-0.097332925
34	0x3e2fe12a	0.17175737
35	0xbdeb0853	-0.11476197
36	0x3c2e2e83	0.010631206
37	0xbde26453	-0.110542916
38	0x3e2e7013	0.1703494
39	0x3e0ce3b9	0.13758744
40	0x3e8acc8a	0.27109176
41	0xbd163e59	-0.036680553
42	0x3d996898	0.07490653
43	0x3d995ef2	0.074888125
44	0x3d69ae1b	0.057050806
45	0x3b9b7ba3	0.0047449633
46	0x3e323037	0.17401205
47	0x3d8e9574	0.069621
48	0x3cee22d0	0.029069334
49	0xbcc633f6	-0.024194699
50	0xbda295b8	-0.07938713
51	0x3d3ae1c8	0.045625478
52	0x3e24bf29	0.16088547
53	0xbde7e8b6	-0.11323683
54	0xbdd58ec9	-0.10427625
55	0xbdf5dc09	-0.12004859
56	0xbe3868f4	-0.18008786
57	0xbcdc5e29	-0.026900368
58	0x3d56a069	0.052399073
59	0x3e59415e	0.21216342
60	0xbe10930d	-0.14118595
61	0x3d57cf90	0.05268818
62	0xbd4170c4	-0.047226682
63	0x3df2250e	0.11823474
64	0xbe992cdd	-0.2991704
65	0x3e18b4c5	0.14912708
66	0x3cadb9ec	0.021206819
67	0xbcbaa4be	-0.022783633
68	0xbd805ca4	-0.0626767
69	0xbe370437	-0.17872702
70	0xbc0077ca	-0.00784106
71	0x3dfb9169	0.12283594
72	0x3cb359c1	0.021893384
73	0xbe208525	-0.1567579
74	0x3e5d6dc2	0.216239
75	0xbe504e57	-0.20342384
76	0x3d0fdb31	0.035121147
77	0xbdaf0406	-0.08545689
78	0x3d9ae2f8	0.07562822
79	0x3c09ff8d	0.008422744
80	0x3ce601be	0.028077003
81	0xbe8124bb	-0.25223336
82	0xbc882131	-0.01661739
83	0x3d83a25a	0.064274505
84	0x3d66621a	0.0562459
85	0x3d100c4e	0.035167985
86	0xbd37f50a	-0.04491142
87	0x3eac20ea	0.3361886
88	0x3d0ebc3d	0.034847487
89	0xbd096b0f	-0.033549365
90	0xbcf9b472	-0.03048155
91	0xbe177bc2	-0.14793304
92	0xbe312ae2	-0.17301515
93	0x3d914490	0.070931554
94	0x3e3a0f1d	0.18169828
95	0x3d586dd4	0.052839115
96	0x3e44921c	0.19196361
97	0xbe08af35	-0.13348086
98	0x3e31daf3	0.17368679
99	0xbdeacb41	-0.11464549
100	0x3e077c91	0.13231112
101	0x3db15ca3	0.08660247
102	0xbcc8ca20	-0.024510443
103	0x3e24e6f8	0.16103733
104	0x3d91fa4a	0.07127817
105	0x3cc2de03	0.023787504
106	0xbc400738	-0.011720471
107	0x3e2a3976	0.16623482
108	0xbc5eef60	-0.013606876
109	0x3e33fbc5	0.17576511
110	0x3d9b3b0f	0.07579624
111	0x3e2cd7ef	0.16879247
112	0x3e91c74c	0.28472364
113	0x3e2ef927	0.17087232
114	0xbd95a382	-0.07306577
115	0xbe24537e	-0.16047475
116	0xbe3c9131	-0.18414761
117	0xbe0fea6c	-0.14054269
118	0xbe3ad09c	-0.1824364
119	0x3e0b0b93	0.13578634
120	0xbd54a9a4	-0.051919594
121	0xbb3cd479	-0.0028813167
122	0xbd9cb9a1	-0.076525934
123	0xbdfc8bf7	-0.12331384
124	0xbe56bb68	-0.20969927
125	0x3bf35449	0.007425819
126	0x3e8a06a4	0.2695819
127	0x3e12b0b2	0.14325216
128	0xbd4c35ff	-0.049856182
129	0x3b9e6099	0.0048332927
130	0xbe288f8c	-0.16461009
131	0x3e295bd9	0.16538943
132	0x3df01183	0.1172209
133	0x3da7a235	0.081852354
134	0xbc4f4430	-0.0126505345
135	0xbdc3b8a0	-0.09556699
136	0xbe963f57	-0.293452
137	0x3e15aecc	0.14617461
138	0xbe5f2cce	-0.21794435
139	0x3e92ec12	0.28695732
140	0xbdff6343	-0.124701045
141	0xbe4541f0	-0.19263434
142	0xbdb5ccdd	-0.08876965
143	0xbdbc04bc	-0.091805905
144	0xbdc07727	-0.093977265
145	0x3c2ee4b7	0.010674647
146	0x3d456a5c	0.048197135
147	0x3dbaef41	0.09127665
148	0xbce00bf5	-0.027349452
149	0xbd83272b	-0.06403955
150	0x3d93ad72	0.072108164
151	0x3dcb3ec3	0.0992408
152	0x3c8d89dc	0.01727765
153	0x3c380060	0.011230558
154	0xbd154927	-0.036446717
155	0x3e2707a5	0.1631151
156	0xbc027dda	-0.007964576
157	0xbdc532b8	-0.096288145
158	0xbda115c6	-0.07865481
159	0xbe02d5cc	-0.1277687
160	0x3cc68f09	0.024238126
161	0x3e830f02	0.25597388
162	0xbde273e1	-0.110572584
163	0x3dd18f9b	0.10232469
164	0xbd38f1d1	-0.04515249
165	0xbe783359	-0.24238338
166	0xbe0740d3	-0.13208322
167	0xbd93a442	-0.07209064
168	0xbdbe7f64	-0.093016416
169	0x3db85173	0.0899991
170	0xbe5ed769	-0.2176186
171	0xbee87516	-0.4540183
172	0xbec393b6	-0.38198632
173	0x3b258ee2	0.0025262167
174	0xbdc6a4e6	-0.09699421
175	0xbe8168dd	-0.25275317
176	0x3de5d632	0.11222495
177	0x3d9d58be	0.07682942
178	0xbe3d0a05	-0.18460853
179	0xbd927ab6	-0.071523115
180	0x3e139364	0.14411694
181	0xbe7c41a2	-0.24634412
182	0xbe037889	-0.1283895
183	0xbe2bc9ad	-0.16776152
184	0x3de7964b	0.11307963
185	0x3ddcb870	0.10777366
186	0x3d726487	0.0591779
187	0xbdd4924e	-0.10379468
188	0xba9e7d33	-0.0012091756
189	0xbd8e55a0	-0.069499254
190	0x3dba7db9	0.09106011
191	0xbe0a85dd	-0.13527627
192	0x3e06cfa2	0.13165143
193	0x3e3f86b6	0.18703732
194	0xbbbb8b1d	-0.0057233707
195	0x3dc2dada	0.09514399
196	0x3e1bfc96	0.15233073
197	0xbd9032a7	-0.07040911
198	0xbd5bda79	-0.05367515
199	0x3ce1fa98	0.027585313
200	0x3dd15b75	0.10222522
201	0xbe8e8c61	-0.27841476
202	0xbd4f37cd	-0.050590325
203	0x3e1dfb6e	0.15427944
204	0x3d1ab77f	0.03777265
205	0x39bdaec3	0.00036179097
206	0xbdb2168b	-0.08695706
207	0x3dccdf8d	0.100035764
208	0xbdef759d	-0.11692355
209	0x3e40c6eb	0.18825881
210	0xbe0ee9ea	-0.13956419
211	0xbe205327	-0.1565672
212	0xbdfc3e11	-0.12316526
213	0xbe02e6f6	-0.12783417
214	0x3dec8da0	0.1155045
215	0x3c06dc0e	0.008231176
216	0xbd5085e5	-0.05090894
217	0xbe438308	-0.19092953
218	0x3d218e5b	0.0394424
219	0xbc6a7fd4	-0.014312703
220	0xbe383e73	-0.17992572
221	0x3dc452ed	0.09586129
222	0x3deb82c3	0.1149955
223	0x3da7de45	0.081966914
224	0x3e2b2818	0.16714513
225	0xbe0161f6	-0.12635025
226	0x3d736172	0.059419103
227	0xbdc6890f	-0.096941106
228	0x3e2c9dce	0.16857073
229	0x3d935c02	0.071952835
230	0xbe2ca075	-0.16858084
231	0x3d88808c	0.06665143
232	0x3e02df58	0.12780511
233	0x3dbbd24e	0.09170972
234	0x3e04c641	0.12966253
235	0x3dfc6f5e	0.12325929
236	0x3dc81a44	0.09770635
237	0xbe11f0b2	-0.14251974
238	0xbd336722	-0.043799527
239	0xbe07b8e3	-0.13254122
240	0x3dad12f3	0.0845088
241	0xbdb19cd2	-0.08672489
242	0xbe0e3ce8	-0.13890421
243	0xbdb086f2	-0.08619489
244	0x3d403def	0.046934064
245	0x3e0d8ae4	0.13822514
246	0xbc7b8aca	-0.015352914
247	0x3e207400	0.1566925
248	0x3e34ed49	0.17668642
249	0xbe14d136	-0.14532933
250	0x3e40b6b2	0.18819693
251	0xbe4a68ae	-0.19766495
252	0xbd3970dd	-0.04527365
253	0x3e73acb3	0.23796348
254	0xbdaa2231	-0.08307303
255	0x3e0cefd4	0.13763362

linear3.bias f4 [30]
0	0xbc8c31eb	-0.017113646
1	0x3e2f4bd8	0.17118776
2	0x3e0223e4	0.12709004
3	0x3d9d35b6	0.0767626
4	0x3d57e4e3	0.052708518
5	0x3e2a794f	0.16647838
6	0x3dba5e49	0.09100015
7	0xbe276dd0	-0.16350484
8	0x3d2352c8	0.03987387
9	0x3dded67e	0.10880755
10	0x3d830ea9	0.063992806
11	0x3def6340	0.11688852
12	0x3e2fdec8	0.17174828
13	0xbc3c989c	-0.011510994
14	0xbe3b0651	-0.18264128
15	0x3e141c37	0.14463888
16	0x3e1e1a5e	0.15439746
17	0xbd839b3d	-0.06426094
18	0xbd7e7d22	-0.062131055
19	0xbb5743f2	-0.0032846895
20	0x3d170790	0.036872447
21	0xbdaf4171	-0.08557404
22	0x3d8d41ac	0.068972915
23	0x3d89f0e1	0.06735397
24	0x3e21ce4f	0.15801357
25	0x3df3d456	0.11905734
26	0x3df4894d	0.119402505
27	0xbe19dcb7	-0.15025602
28	0xbe125acd	-0.1429245
29	0xbe2a0b59	-0.16605891

linear4.weight f4 [2, 30]
0	0xbe45c4ba	-0.19313326
1	0xbd2ef76f	-0.04271644
2	0x3dedaec8	0.116056025
3	0xbe2077f2	-0.15670756
4	0xbe395e3d	-0.18102355
5	0x3e901ba3	0.28146085
6	0x3d01f3b0	0.03172654
7	0x3e14aa73	0.14518146
8	0xbd7b3c49	-0.06133679
9	0xbe203370	-0.15644622
10	0x3e5200d1	0.20508124
11	0xbe0c0734	-0.13674623
12	0xbdd12557	-0.102122
13	0x3e046daf	0.12932466
14	0x3d8a978d	0.06767187
15	0x3e61facb	0.22068326
16	0xbdd80e98	-0.105496585
17	0xbe7c284e	-0.2462475
18	0x3c445142	0.011982264
19	0xbdf2e6e8	-0.11860448
20	0xbd44bb62	-0.048030265
21	0x3c3b916e	0.011448247
22	0x3eb8c8de	0.3609075
23	0x3e7ea564	0.24867779
24	0xbe3067ea	-0.1722714
25	0xbe130fe1	-0.14361526
26	0x3cf480b0	0.02984652
27	0xbd886cca	-0.06661375
28	0x3ddcec1e	0.10787223
29	0xbc052721	-0.008127005
30	0xbd35d8c7	-0.044396188
31	0xbe1347bf	-0.14382838
32	0x3d565a4c	0.052332208
33	0xbdf5d749	-0.12003953
34	0x3e3cd2bf	0.18439768
35	0x3e13d801	0.14437868
36	0xbdb2162a	-0.08695634
37	0xbd94ccf0	-0.07265651
38	0xbe82c295	-0.2553908
39	0xbd83bd3f	-0.0643258
40	0xbd021a70	-0.031763494
41	0x3bb8436d	0.005623272
42	0xbe234ea9	-0.15947975
43	0x3dbefa4d	0.09325085
44	0x3de80683	0.11329367
45	0x3e31e4e3	0.1737247
46	0xbe48441f	-0.19557236
47	0xbdd9417d	-0.10608194
48	0x3e6dc77d	0.2322063
49	0xbb4ee9d7	-0.0031572485
50	0x3e88846e	0.26663536
51	0x3da9a5ee	0.08283602
52	0xbd2c87c3	-0.04212166
53	0x3e818809	0.252991
54	0x3c8ded0f	0.017324952
55	0xbdfb5c47	-0.1227346
56	0xbe278a67	-0.1636139
57	0xbe0fe497	-0.14052044
58	0xbde29137	-0.11062854
59	0xbd484cd0	-0.04890138

linear4.bias f4 [2]
0	0xbdbececd	-0.09316788
1	0xbddbb13b	-0.107271634

exp_avg f4 [30, 11]
0	0xb974216b	-0.00023282102
1	0xb9030c06	-0.00012497613
2	0x394657d4	0.0001891547
3	0x38d13c75	9.9771576e-05
4	0x36beee0c	5.6901536e-06
5	0xb999b761	-0.00029319062
6	0xb868faba	-5.5546618e-05
7	0x380f0c37	3.4105233e-05
8	0xb5e69db4	-1.7182233e-06
9	0xb950c0ba	-0.00019908222
10	0x380a2ae2	3.29417e-05
11	0xb8443020	-4.677486e-05
12	0xb866446d	-5.49e-05
13	0x38c15038	9.217899e-05
14	0xb92809f0	-0.0001602543
15	0xb6847378	-3.947349e-06
16	0xb95c2290	-0.0002099371
17	0x37a172bb	1.9246121e-05
18	0x36ee0590	7.0936003e-06
19	0xb6b6852b	-5.4395255e-06
20	0xb8540329	-5.0547682e-05
21	0xb8f8bf69	-0.000118612144
22	0x389e8bd4	7.560072e-05
23	0x38d9b5af	0.000103812075
24	0xb8cc55a2	-9.7434284e-05
25	0x398f524e	0.00027336407
26	0x3858564f	5.1578794e-05
27	0x39785340	0.00023682136
28	0x38f0f21e	0.0001148919
29	0xb50515e0	-4.9578193e-07
30	0x35dee910	1.6608119e-06
31	0xb74d3d50	-1.2233228e-05
32	0xb81cae1c	-3.735545e-05
33	0x392e6988	0.00016633247
34	0x388d3762	6.73372e-05
35	0xb9268ec2	-0.00015884175
36	0xb5a8a213	-1.2564145e-06
37	0x38182946	3.6278063e-05
38	0x38511ad3	4.9854465e-05
39	0xb83d50c7	-4.513634e-05
40	0xb8e1c119	-0.00010764803
41	0xb84fe116	-4.9562273e-05
42	0xb8c673cd	-9.462945e-05
43	0xb7a168aa	-1.9241434e-05
44	0xb82e829c	-4.1606472e-05
45	0xb8dbac47	-0.00010474823
46	0xb6c011f0	-5.724134e-06
47	0x38812bd6	6.1593644e-05
48	0xb6a01194	-4.770418e-06
49	0xb925e881	-0.0001582224
50	0xb8e3ac94	-0.00010856349
51	0xb72a998e	-1.0168542e-05
52	0x3640e44c	2.8743116e-06
53	0xb8f8a1b3	-0.0001185568
54	0x388932d5	6.542137e-05
55	0xb876efb6	-5.887422e-05
56	0xb7a8201c	-2.0042113e-05
57	0xb2a39800	-1.9044819e-08
58	0xb96a495e	-0.0002234331
59	0x37f0900a	2.8677303e-05
60	0xb7dac238	-2.6078065e-05
61	0xb89014e0	-6.870343e-05
62	0xb6e18964	-6.721517e-06
63	0x37881be4	1.6225451e-05
64	0xb5d56dc0	-1.5901678e-06
65	0xb83f979d	-4.567915e-05
66	0x38df7d7c	0.00010656842
67	0xb8705615	-5.730063e-05
68	0x38146494	3.537962e-05
69	0x3974cd72	0.00023346188
70	0x38cc9770	9.7556855e-05
71	0x385b3464	5.226246e-05
72	0xb7cf55ae	-2.471622e-05
73	0xb8b2ebdc	-8.531634e-05
74	0x38638ca2	5.4251992e-05
75	0x396ba00a	0.00022470966
76	0xb9d18379	-0.0003996154
77	0xb58feb10	-1.0722742e-06
78	0x352faab8	6.544101e-07
79	0xb555217a	-7.93974e-07
80	0x00000000	0.0
81	0xb538085f	-6.8557523e-07
82	0x35581878	8.050188e-07
83	0x35088fc0	5.087313e-07
84	0xb56f2b39	-8.9097335e-07
85	0x33c73bf9	9.2775686e-08
86	0xb56b5b56	-8.7677233e-07
87	0x341558ec	1.3909056e-07
88	0x3a582f9e	0.00082468416
89	0x39dcd648	0.00042121322
90	0xb7f5d1c0	-2.9303948e-05
91	0xb874fca4	-5.8409423e-05
92	0x38ad8bb0	8.275302e-05
93	0x3a3276fb	0.00068078906
94	0x39e5720e	0.0004376326
95	0xb7b5cbfc	-2.1671869e-05
96	0xb91284a4	-0.00013973058
97	0x38c1525a	9.218296e-05
98	0xb9a9d343	-0.00032391594
99	0x39e25344	0.00043168117
100	0x3909cbf9	0.00013141324
101	0xb95e107a	-0.00021177708
102	0x37dd5054	2.6382659e-05
103	0xb70d43d8	-8.420051e-06
104	0x3986146a	0.0002557368
105	0x38bbb562	8.95064e-05
106	0x37d2c632	2.5126243e-05
107	0xb7c6a6b3	-2.3681065e-05
108	0x39248572	0.00015689971
109	0x386eb216	5.6909477e-05
110	0x39b6b4f0	0.00034848554
111	0x3997c91c	0.00028950803
112	0xb96d7e3a	-0.00022649104
113	0xb97be736	-0.00024023358
114	0xb7e04284	-2.6733855e-05
115	0x3a03636c	0.00050120684
116	0x397063a8	0.00022925308
117	0xb7994c38	-1.8274513e-05
118	0xb8115c7f	-3.4656838e-05
119	0x38602a38	5.344508e-05
120	0xb9ecb2fd	-0.00045146784
121	0x00000000	0.0
122	0x00000000	0.0
123	0x00000000	0.0
124	0x00000000	0.0
125	0x00000000	0.0
126	0x00000000	0.0
127	0x00000000	0.0
128	0x00000000	0.0
129	0x00000000	0.0
130	0x00000000	0.0
131	0x00000000	0.0
132	0x3a0d9e25	0.00054022885
133	0x3960e6a2	0.00021448222
134	0xb8e9eeec	-0.000111548085
135	0xb8df3b28	-0.00010644487
136	0x3915b598	0.00014277396
137	0x39dde6a0	0.00042324234
138	0x3901eddb	0.00012391007
139	0xb7bc9eb2	-2.2485245e-05
140	0xb89c6fa6	-7.459456e-05
141	0x3887c8b0	6.4746826e-05
142	0xb9672cf2	-0.0002204662
143	0xb888f98a	-6.5314656e-05
144	0xb7a2b853	-1.9397738e-05
145	0xb82ead5a	-4.164628e-05
146	0xb98c86b6	-0.00026803248
147	0xb8654a8e	-5.466729e-05
148	0xb8d95f0f	-0.000103650724
149	0xb8d65b0e	-0.000102212754
150	0x3841af44	4.6178015e-05
151	0xb7bd994f	-2.2601946e-05
152	0x37ed0a96	2.8257531e-05
153	0x394804b3	0.00019075237
154	0xba172a31	-0.000576648
155	0xb9489bfe	-0.00019131598
156	0x399086e3	0.0002756632
157	0xb8cbf76f	-9.7258824e-05
158	0x37fcf724	3.0155825e-05
159	0xb9b28155	-0.00034047166
160	0xb8abe6be	-8.1968945e-05
161	0x391c9b04	0.00014935067
162	0x38878877	6.46272e-05
163	0xb94715c1	-0.00018986223
164	0x37b7d0ad	2.1912472e-05
165	0xb93b8e14	-0.00017886638
166	0xb81de7a3	-3.7647445e-05
167	0x38042fea	3.1515876e-05
168	0xb8f32fec	-0.00011596069
169	0x3895e904	7.148276e-05
170	0xb7e09cbb	-2.6775864e-05
171	0xb83fb95d	-4.571058e-05
172	0x35eb17d0	1.7515795e-06
173	0x377f4dff	1.5217344e-05
174	0xb75087a8	-1.2429351e-05
175	0xb798a1db	-1.8195182e-05
176	0xb887bfc7	-6.473023e-05
177	0xb89124d1	-6.9209964e-05
178	0x38cfc094	9.9064e-05
179	0xb94e163c	-0.00019653974
180	0x38a3a9c7	7.804069e-05
181	0xb894d2fa	-7.0964874e-05
182	0xb8e2f753	-0.000108225875
183	0xb7d1f0d6	-2.502689e-05
184	0xb68b8e86	-4.1591147e-06
185	0x3854d5e2	5.0743933e-05
186	0xb94d8378	-0.000195993
187	0x392dae5c	0.0001656352
188	0x389afb52	7.390104e-05
189	0x38baf248	8.9142995e-05
190	0xb9d1fd97	-0.00040052526
191	0x389ee006	7.575755e-05
192	0x3908b024	0.00013035588
193	0x385dfb56	5.292458e-05
194	0xb8ce17ab	-9.827254e-05
195	0xb7c7a96a	-2.3801538e-05
196	0x388f8079	6.842701e-05
197	0xb9ba2786	-0.00035506132
198	0xb9fe56f5	-0.00048511443
199	0xb95e0170	-0.00021172105
200	0x398efdf9	0.00027273575
201	0xb8490e4f	-4.793546e-05
202	0xb831b3d4	-4.2367566e-05
203	0xba002e5d	-0.0004889721
204	0xb920a3b6	-0.00015319776
205	0xb784e2ee	-1.5841299e-05
206	0x37f7e3c7	2.9550762e-05
207	0xb9564c98	-0.00020437164
208	0xb90c0eb2	-0.00013356915
209	0x39912198	0.00027681584
210	0x394b05ed	0.00019361796
211	0xb9331463	-0.00017078365
212	0x3935c344	0.00017334247
213	0x37c95ec0	2.4005189e-05
214	0x39b938b7	0.00035328206
215	0x39269978	0.00015888165
216	0xb88b68be	-6.647546e-05
217	0xb7f2d050	-2.8945651e-05
218	0x392cfbf4	0.00016497058
219	0xb8243b7c	-3.9156046e-05
220	0x3964abf9	0.00021807839
221	0x3907c880	0.00012949295
222	0xb8aca764	-8.232778e-05
223	0xb962b31a	-0.0002161976
224	0x382a4374	4.059398e-05
225	0x3998604e	0.00029063452
226	0x38f41f46	0.00011640652
227	0x380bd3b5	3.333735e-05
228	0xb79a85c8	-1.8420527e-05
229	0xb8fa03c8	-0.00011921633
230	0x37f58d34	2.9272029e-05
231	0x3886ab38	6.42151e-05
232	0x391a8b28	0.00014738424
233	0x386c5228	5.63433e-05
234	0xb9e284a4	-0.00043204904
235	0x3753c690	1.26228115e-05
236	0xb6acec00	-5.1534735e-06
237	0x39716b3c	0.00023023499
238	0xb7854cae	-1.5890542e-05
239	0xb840a3e5	-4.5929006e-05
240	0xb916ed93	-0.00014393618
241	0x39855732	0.00025432702
242	0x38f552a2	0.00011697902
243	0x371d3f4c	9.372667e-06
244	0x3884020f	6.294634e-05
245	0xb9030270	-0.00012494042
246	0x37dfacb0	2.6664085e-05
247	0xb87bc94d	-6.003054e-05
248	0x389e0ca1	7.5363794e-05
249	0x37b86cb0	2.198512e-05
250	0xb725e9b0	-9.889176e-06
251	0x37d1f77a	2.5029982e-05
252	0x393dadfd	0.0001808926
253	0xb9db3b6c	-0.00041815208
254	0xb8fe662e	-0.00012130696
255	0x392b37a2	0.00016328556

exp_avg_sq f4 [30, 11]
0	0x35cfff13	1.5496938e-06
1	0x34704fee	2.238082e-07
2	0x351469a1	5.5288007e-07
3	0x354aa149	7.5485565e-07
4	0x34269762	1.5515027e-07
5	0x35870880	1.0060758e-06
6	0x344ecb0f	1.9259117e-07
7	0x33cb2d04	9.4611124e-08
8	0x3262297b	1.3164363e-08
9	0x35690b6e	8.6815896e-07
10	0x34ff6f87	4.7578598e-07
11	0x34ef3784	4.4557612e-07
12	0x3344cb1e	4.581954e-08
13	0x33d5f9fe	9.964059e-08
14	0x34779578	2.3058044e-07
15	0x338f8c59	6.6844855e-08
16	0x346a3d89	2.1815335e-07
17	0x3346c6fe	4.628145e-08
18	0x332a460d	3.964492e-08
19	0x31683c55	3.3794738e-09
20	0x348ff3e3	2.6813277e-07
21	0x33c91fa7	9.3655494e-08
22	0x361e94bc	2.363041e-06
23	0x349fc22a	2.975733e-07
24	0x358a6f3e	1.0314177e-06
25	0x35b630e1	1.3574282e-06
26	0x3443a88e	1.822211e-07
27	0x35ff0226	1.8999606e-06
28	0x346e0fd6	2.2171238e-07
29	0x33c19e01	9.0160036e-08
30	0x327c858c	1.4698696e-08
31	0x358eb9b8	1.0633876e-06
32	0x35632136	8.461242e-07
33	0x361cc59c	2.3360835e-06
34	0x342a5a83	1.5865412e-07
35	0x34be9c0b	3.5503794e-07
36	0x35519c9d	7.808647e-07
37	0x3429a3ca	1.5798938e-07
38	0x3576ab4d	9.1891417e-07
39	0x345e8a3b	2.0725649e-07
40	0x34a18d73	3.0091505e-07
41	0x32cb1d62	2.3645672e-08
42	0x35e9d027	1.7420433e-06
43	0x350e335c	5.297386e-07
44	0x363ba933	2.7963658e-06
45	0x34e26562	4.2169546e-07
46	0x35908eb1	1.0770365e-06
47	0x35a3039e	1.2145499e-06
48	0x344cca43	1.9072563e-07
49	0x35f859ff	1.8503632e-06
50	0x3492555e	2.7256732e-07
51	0x341be88d	1.4520101e-07
52	0x32fb1c2e	2.923306e-08
53	0x35a9606b	1.2619543e-06
54	0x353bef55	7.00112e-07
55	0x34f5ac9d	4.57604e-07
56	0x33401c59	4.4729266e-08
57	0x33c31788	9.0846754e-08
58	0x34a1b195	3.0117795e-07
59	0x33382bfe	4.288085e-08
60	0x34376d81	1.708304e-07
61	0x333e7d0d	4.4351555e-08
62	0x332ad7c8	3.977746e-08
63	0x312a11f9	2.4748472e-09
64	0x34a9fce3	3.1662702e-07
65	0x338bbb91	6.50681e-08
66	0x3653ed1d	3.1579468e-06
67	0x349ea29f	2.9548116e-07
68	0x35a3f713	1.2216354e-06
69	0x35c51d5f	1.4686192e-06
70	0x3477697b	2.3042041e-07
71	0x36047060	1.9734944e-06
72	0x3497d0a0	2.8277736e-07
73	0x3439fa8e	1.7320619e-07
74	0x328784c2	1.577644e-08
75	0x35daa024	1.6288873e-06
76	0x35707c65	8.9587985e-07
77	0x30b85391	1.3411513e-09
78	0x2f8e823a	2.592218e-10
79	0x2fb4df84	3.2900627e-10
80	0x00000000	0.0
81	0x2f3ce660	1.7180346e-10
82	0x2fd6e14f	3.9086465e-10
83	0x2fb2c1a2	3.2515596e-10
84	0x2f99da68	2.7985725e-10
85	0x2ca6df3e	4.7427886e-12
86	0x30841944	9.611445e-10
87	0x2e1bc49b	3.541754e-11
88	0x37ca2867	2.409909e-05
89	0x362cdeab	2.5759607e-06
90	0x36f2248a	7.2164157e-06
91	0x37213226	9.608024e-06
92	0x35e0ec3f	1.6758057e-06
93	0x3776a4da	1.4701125e-05
94	0x35f0f65d	1.7953095e-06
95	0x35ad04c4	1.2890891e-06
96	0x3455b959	1.99046e-07
97	0x3705337b	7.939404e-06
98	0x36b072df	5.2585815e-06
99	0x35fbece9	1.8769907e-06
100	0x34552b77	1.9852983e-07
101	0x3501369c	4.813571e-07
102	0x356d049f	8.8296105e-07
103	0x344eedb5	1.9271722e-07
104	0x357dd416	9.455847e-07
105	0x345a280f	2.0317405e-07
106	0x340e4ec1	1.3253431e-07
107	0x3260648f	1.306138e-08
108	0x358289cf	9.725862e-07
109	0x3500562d	4.780912e-07
110	0x36d67738	6.391576e-06
111	0x35873305	1.0073132e-06
112	0x36492dd6	2.9978014e-06
113	0x3633abd3	2.6773093e-06
114	0x34e39d1a	4.239635e-07
115	0x36c3b2f9	5.832288e-06
116	0x3510ef2d	5.3992227e-07
117	0x346612b8	2.1427229e-07
118	0x33826708	6.072338e-08
119	0x35f4e10c	1.8244914e-06
120	0x3605fc94	1.9965564e-06
121	0x00000000	0.0
122	0x00000000	0.0
123	0x00000000	0.0
124	0x00000000	0.0
125	0x00000000	0.0
126	0x00000000	0.0
127	0x00000000	0.0
128	0x00000000	0.0
129	0x00000000	0.0
130	0x00000000	0.0
131	0x00000000	0.0
132	0x3698653d	4.5417387e-06
133	0x3513242a	5.4814393e-07
134	0x35ce8f34	1.5389874e-06
135	0x35ed3c4b	1.7675424e-06
136	0x34b6902e	3.4005046e-07
137	0x3657e648	3.2171538e-06
138	0x34a49cc3	3.066144e-07
139	0x3454eb46	1.982963e-07
140	0x33354982	4.22092e-08
141	0x35adb0b8	1.2940936e-06
142	0x359d1629	1.1703861e-06
143	0x36b48241	5.3795816e-06
144	0x34e28c20	4.2197735e-07
145	0x35696f5a	8.69613e-07
146	0x3626b216	2.4839587e-06
147	0x34a6d12a	3.1072096e-07
148	0x36203b31	2.3876312e-06
149	0x34fd43fd	4.717439e-07
150	0x3505e85a	4.9884477e-07
151	0x330d5cb2	3.2913427e-08
152	0x36648955	3.4054585e-06
153	0x35add15a	1.2950434e-06
154	0x368b8e17	4.1590642e-06
155	0x34f21152	4.5088615e-07
156	0x35cc5357	1.522344e-06
157	0x35cc85b8	1.5238102e-06
158	0x34625f76	2.1082619e-07
159	0x36342e83	2.6849164e-06
160	0x349a7847	2.877225e-07
161	0x34658926	2.1377181e-07
162	0x32d2c2f9	2.453588e-08
163	0x35ceeed7	1.5417708e-06
164	0x3580eefc	9.606297e-07
165	0x34ffeb48	4.766864e-07
166	0x339de6cf	7.352866e-08
167	0x34364f91	1.6979017e-07
168	0x348d16a8	2.627978e-07
169	0x334354ce	4.5479105e-08
170	0x34ac5194	3.2096852e-07
171	0x337bfc19	5.8669773e-08
172	0x32d8dcc7	2.5246107e-08
173	0x31814c0f	3.763041e-09
174	0x3475fd5c	2.2909575e-07
175	0x342a1e1a	1.5843435e-07
176	0x3512b4c5	5.465229e-07
177	0x3347a0ec	4.6479656e-08
178	0x340524eb	1.2400021e-07
179	0x348bb4d6	2.6022343e-07
180	0x33519e7d	4.880575e-08
181	0x3472cdb3	2.2612839e-07
182	0x33559f9c	4.973809e-08
183	0x33423aed	4.5222738e-08
184	0x31e9d3c6	6.8052683e-09
185	0x34bfb7ac	3.571016e-07
186	0x34025e30	1.2141459e-07
187	0x365c1df3	3.2799987e-06
188	0x34f8ada7	4.6319948e-07
189	0x359ecd34	1.1831639e-06
190	0x35c04d65	1.432764e-06
191	0x3489f344	2.5695238e-07
192	0x361741f4	2.2539143e-06
193	0x34a21d62	3.019623e-07
194	0x34269b55	1.5516464e-07
195	0x331304ef	3.423059e-08
196	0x35b1994c	1.3232143e-06
197	0x356bed40	8.7889566e-07
198	0x35ef7c19	1.7843005e-06
199	0x3481de1c	2.4189728e-07
200	0x353b81e6	6.9851956e-07
201	0x35310610	6.594646e-07
202	0x34210833	1.4997276e-07
203	0x35b00466	1.3114302e-06
204	0x33fdcb7e	1.18182456e-07
205	0x33c1ca03	9.0240086e-08
206	0x32fae161	2.9206321e-08
207	0x350482b2	4.936402e-07
208	0x35060a23	4.993364e-07
209	0x35f4048f	1.8180743e-06
210	0x3489a280	2.5636473e-07
211	0x352ec0d2	6.510064e-07
212	0x3534f499	6.741116e-07
213	0x33d30f28	9.82821e-08
214	0x3598fc95	1.1398394e-06
215	0x341e86cd	1.4763937e-07
216	0x33f39d43	1.1344175e-07
217	0x3298e5fe	1.7799717e-08
218	0x3508b2f2	5.092435e-07
219	0x34cf2d99	3.858993e-07
220	0x361336bd	2.1936569e-06
221	0x349f561b	2.9678708e-07
222	0x357b7159	9.366973e-07
223	0x3560174e	8.3480415e-07
224	0x3436ab3d	1.7012367e-07
225	0x3603cea7	1.9640809e-06
226	0x34461ba6	1.8450245e-07
227	0x33b5b779	8.461843e-08
228	0x32a58bea	1.9272154e-08
229	0x354fc048	7.7393315e-07
230	0x3548b266	7.476541e-07
231	0x36c0b4e4	5.7431043e-06
232	0x34f59a30	4.5746992e-07
233	0x35cc0131	1.5199531e-06
234	0x36063968	2.000097e-06
235	0x350348c3	4.8907185e-07
236	0x36602d2a	3.340489e-06
237	0x34dcea65	4.1148738e-07
238	0x34e3df6d	4.2444609e-07
239	0x334542ba	4.5928324e-08
240	0x363e59d9	2.8364504e-06
241	0x35be8867	1.4195801e-06
242	0x35a8ece2	1.2585917e-06
243	0x34206f11	1.4941567e-07
244	0x34e3fbd9	4.2465288e-07
245	0x353f1942	7.11898e-07
246	0x342117c4	1.500294e-07
247	0x35603744	8.3526925e-07
248	0x34130a02	1.3694083e-07
249	0x33b04e74	8.209909e-08
250	0x325618cf	1.246208e-08
251	0x35385711	6.867204e-07
252	0x34daa640	4.0726627e-07
253	0x35b9b94c	1.3837503e-06
254	0x3427ed67	1.5639453e-07
255	0x3508c28d	5.0947057e-07

exp_avg f4 [30]
0	0x397798f5	0.00023612737
1	0x38969310	7.17995e-05
2	0xb8a5dd64	-7.90905e-05
3	0xb931e21c	-0.00016964268
4	0x382a6d2c	4.0632833e-05
5	0x38774ec1	5.8962734e-05
6	0xb8bd59ac	-9.028925e-05
7	0x358feb10	1.0722742e-06
8	0xba57dc06	-0.0008234385
9	0xb9e6caf0	-0.0004402022
10	0xb9c286ed	-0.0003710309
11	0x00000000	0.0
12	0xba0d8327	-0.00053982664
13	0x38870c5e	6.439605e-05
14	0x3a1c66e5	0.000596626
15	0x39371c30	0.0001746274
16	0x388b2473	6.634826e-05
17	0xb933ca9a	-0.00017146245
18	0x3a048b28	0.0005056136
19	0xb99b08ca	-0.00029570452
20	0xb9697976	-0.0002226586
21	0xb8707200	-5.732663e-05
22	0xb8d1f9e4	-0.00010012442
23	0x39e0736e	0.0004281061
24	0x391895c4	0.00014551642
25	0xb9aacb43	-0.00032576369
26	0x388e7692	6.793173e-05
27	0xb8e1cc48	-0.000107668864
28	0xb944a3a7	-0.00018752982
29	0xb8674bae	-5.5145174e-05

exp_avg_sq f4 [30]
0	0x35d3d7e4	1.5783558e-06
1	0x34f17e0d	4.4981462e-07
2	0x3622d203	2.4262124e-06
3	0x361d2e38	2.3421726e-06
4	0x363ee9a6	2.8448208e-06
5	0x34f619aa	4.5839744e-07
6	0x36585f14	3.224185e-06
7	0x30b854d1	1.3411868e-09
8	0x37cec6ae	2.4649631e-05
9	0x35ff39db	1.9015819e-06
10	0x36dd52dc	6.5959593e-06
11	0x00000000	0.0
12	0x369c8299	4.664366e-06
13	0x36b4ee0b	5.39213e-06
14	0x368e9917	4.249752e-06
15	0x35017c83	4.8237433e-07
16	0x35141c00	5.517504e-07
17	0x3660be3d	3.3489334e-06
18	0x35f9a6f2	1.8600533e-06
19	0x35fa35f4	1.8642154e-06
20	0x3617d6c5	2.2625766e-06
21	0x36c4eb03	5.868614e-06
22	0x35adb91a	1.2943376e-06
23	0x35be22a6	1.4166187e-06
24	0x36e2fd24	6.7647943e-06
25	0x3536b5bf	6.806476e-07
26	0x3505979e	4.9766993e-07
27	0x369f01c9	4.738777e-06
28	0x35503ec5	7.757738e-07
29	0x3552e03b	7.8557395e-07

exp_avg f4 [30, 30]
0	0x03cd2378	1.205696e-36
1	0x03706e29	7.065612e-37
2	0x03b4d642	1.062864e-36
3	0x00000000	0.0
4	0x0429f57e	1.9978579e-36
5	0x0360ab87	6.6024587e-37
6	0x028460dd	1.9451254e-37
7	0x00000000	0.0
8	0x0434d2a9	2.1255629e-36
9	0x04829083	3.0695566e-36
10	0x03c455fd	1.1539587e-36
11	0x00000000	0.0
12	0x049cbcbe	3.6848756e-36
13	0x00000000	0.0
14	0x0380d22d	7.571418e-37
15	0x04883040	3.2017757e-36
16	0x044d245d	2.4114331e-36
17	0x04418495	2.274792e-36
18	0x036aa9e1	6.896143e-37
19	0x05005b68	6.03532e-36
20	0x0302d970	3.8453172e-37
21	0x00000004	6e-45
22	0x039a5be1	9.072401e-37
23	0x0464ef1b	2.6911063e-36
24	0x0305c10a	3.9306785e-37
25	0x00000000	0.0
26	0x00000000	0.0
27	0x00000004	6e-45
28	0x04d170f4	4.9239395e-36
29	0x00000000	0.0
30	0x3862eb80	5.4101925e-05
31	0x37c228e4	2.3145643e-05
32	0xb7927067	-1.7456898e-05
33	0xb685a43c	-3.9828283e-06
34	0x380d32b1	3.366423e-05
35	0x38b2caa8	8.525449e-05
36	0xb7821df2	-1.5511152e-05
37	0x34045b77	1.2326733e-07
38	0x38b47f14	8.606739e-05
39	0x38a53d4f	7.879233e-05
40	0x37c9e1bf	2.4066188e-05
41	0x00000000	0.0
42	0x390a463e	0.00013186873
43	0x382a46f1	4.0597228e-05
44	0xb717de00	-9.05199e-06
45	0x3872a6bf	5.785259e-05
46	0x38bec9d8	9.097502e-05
47	0x390135d2	0.00012322448
48	0x3867a048	5.5223965e-05
49	0x39112a03	0.00013843928
50	0x38a899d0	8.039514e-05
51	0x388a72ae	6.6017135e-05
52	0x37a3d38c	1.9529623e-05
53	0x38aee16a	8.338953e-05
54	0x381eb5f9	3.783961e-05
55	0x36c5da10	5.8964433e-06
56	0x36b9fed0	5.5430937e-06
57	0x36954c49	4.449427e-06
58	0x38476da8	4.7547423e-05
59	0x37f14204	2.876018e-05
60	0x39421e0e	0.00018512478
61	0x37b8653c	2.198165e-05
62	0xb87bf1c0	-6.006821e-05
63	0x376eb111	1.4227132e-05
64	0x38b12cd8	8.4483705e-05
65	0x38e4808e	0.000108958324
66	0x36ead230	6.9982125e-06
67	0x345e3f82	2.0698465e-07
68	0x3913bfc4	0.0001409045
69	0x394bc460	0.00019432744
70	0x38a5bf1a	7.9034086e-05
71	0x00000000	0.0
72	0x398da988	0.00027019926
73	0x3885650f	6.360758e-05
74	0x36bd0ec0	5.634356e-06
75	0x3911d58d	0.00013907831
76	0x38d8b941	0.00010334189
77	0x39a7a04f	0.0003197216
78	0x38e1e86b	0.00010772127
79	0x38c2ff20	9.2981616e-05
80	0x3949db62	0.0001925058
81	0x394c081d	0.00019457978
82	0x371921a8	9.127347e-06
83	0x390e9dcb	0.00013600958
84	0x3887c1d2	6.4734035e-05
85	0x36c5922c	5.888074e-06
86	0x39198451	0.00014640509
87	0xb7dad2c0	-2.6085763e-05
88	0x374de220	1.2271601e-05
89	0x39146bab	0.0001415449
90	0x389b6f08	7.411657e-05
91	0x37679e39	1.3805512e-05
92	0x37049dab	7.904523e-06
93	0x368c0bcc	4.1736985e-06
94	0x3872234a	5.773016e-05
95	0x37469dc8	1.1838456e-05
96	0xb687ea9f	-4.050627e-06
97	0x31a0d8cf	4.681261e-09
98	0x38ab686c	8.1733655e-05
99	0x389cd27e	7.477867e-05
100	0x379f63cc	1.9000749e-05
101	0x00000000	0.0
102	0x38d0fbaf	9.9650926e-05
103	0x37b25e57	2.1263184e-05
104	0x3788a554	1.628945e-05
105	0x381834ea	3.6288904e-05
106	0x38870aef	6.439338e-05
107	0x38b2f833	8.533932e-05
108	0x377aa9d2	1.4940701e-05
109	0x38fa99b8	0.00011949561
110	0x38150e6d	3.5537803e-05
111	0x37d6d3aa	2.5609352e-05
112	0x36bb0af0	5.5743076e-06
113	0x3850034d	4.959414e-05
114	0x381f1bf3	3.7934584e-05
115	0x371b06e1	9.240322e-06
116	0x37b4b730	2.1542975e-05
117	0x37e83d0b	2.768498e-05
118	0x38b33caa	8.546685e-05
119	0x380bec19	3.3360066e-05
120	0xb9e4647b	-0.00043562413
121	0xb929bfa4	-0.00016188488
122	0xb7899089	-1.6398977e-05
123	0xb84a1222	-4.817744e-05
124	0xb9a12678	-0.00030736974
125	0xb8c80b75	-9.538877e-05
126	0xb743e000	-1.167506e-05
127	0xb484bca5	-2.4724173e-07
128	0xb9a7692a	-0.00031931076
129	0xb92bd7c0	-0.00016388204
130	0xb8a4aef2	-7.8527155e-05
131	0x00000000	0.0
132	0xba10d767	-0.00055252615
133	0xb8a53d92	-7.8792815e-05
134	0xb8f594d2	-0.0001171023
135	0xb9117b32	-0.00013874171
136	0xb97c3ccc	-0.00024055241
137	0xba067eb1	-0.0005130573
138	0xb8cd04e6	-9.776074e-05
139	0xb9aab388	-0.00032558688
140	0xb9aaf5e4	-0.0003260813
141	0xb97f830d	-0.00024367515
142	0xb7ffb020	-3.0480383e-05
143	0xb9441066	-0.00018698125
144	0xb8e4c8cf	-0.00010909291
145	0xb876c08c	-5.8830294e-05
146	0xb90c9271	-0.00013405994
147	0xb8d9f64a	-0.00010393241
148	0xb98eec84	-0.00027260568
149	0xb8fd2109	-0.000120701334
150	0xb72b0560	-1.0193646e-05
151	0x38809a18	6.132218e-05
152	0x35a78c50	1.2483306e-06
153	0x371d6f00	9.383773e-06
154	0x36221480	2.4151814e-06
155	0x389df861	7.5326076e-05
156	0xb7e2cb7c	-2.7036054e-05
157	0x34117180	1.3545468e-07
158	0x37f06244	2.8655988e-05
159	0x36379b20	2.735942e-06
160	0x37c9e5e9	2.4068127e-05
161	0x00000000	0.0
162	0x38c67f37	9.465071e-05
163	0x3805faf5	3.1943393e-05
164	0xb868fb36	-5.554707e-05
165	0x3802e3f2	3.1206706e-05
166	0x38778a8c	5.901842e-05
167	0x389b1790	7.395365e-05
168	0xb8032070	-3.1263044e-05
169	0x3789c6e4	1.6424288e-05
170	0x380d313c	3.3662873e-05
171	0xb66d2a40	-3.5340345e-06
172	0xb83becf0	-4.480494e-05
173	0x384d1ea8	4.890436e-05
174	0xb79383c8	-1.7585131e-05
175	0xb6554348	-3.1778636e-06
176	0xb8166d12	-3.5864367e-05
177	0xb7ab0d42	-2.0390962e-05
178	0x38513694	4.9880313e-05
179	0xb41fe600	-1.4891702e-07
180	0xb92a1060	-0.00016218564
181	0xb7e0beb4	-2.6791684e-05
182	0xb617ec48	-2.2638287e-06
183	0x36698aeb	3.4800566e-06
184	0xb92d1c58	-0.00016509125
185	0xb810ff9e	-3.4570337e-05
186	0xb7a1f78a	-1.9307965e-05
187	0x8e0897a2	-1.6836303e-30
188	0xb963d4a4	-0.00021727622
189	0xb968f36e	-0.00022215929
190	0xb87320d2	-5.796628e-05
191	0x00000000	0.0
192	0xb9addff3	-0.00033163987
193	0xb7b80e72	-2.1941236e-05
194	0xb8abc997	-8.1914644e-05
195	0xb8db4cb8	-0.00010457024
196	0xb91f8447	-0.00015212699
197	0xb9a22101	-0.00030923638
198	0xb89cf37a	-7.484011e-05
199	0xb9b129b6	-0.00033791148
200	0xb91be430	-0.00014866958
201	0xb89ec9b4	-7.571597e-05
202	0xb80a301f	-3.294658e-05
203	0xb908bcc2	-0.00013040288
204	0xb86f521e	-5.7058518e-05
205	0x3724bc80	9.81905e-06
206	0xb862ee40	-5.4104486e-05
207	0xb8450b42	-4.6978945e-05
208	0xb97775ea	-0.00023599682
209	0xb86fa828	-5.7138648e-05
210	0x380fe13f	3.4303634e-05
211	0x38029fd8	3.114328e-05
212	0xb6810a3a	-3.84569e-06
213	0x36ebc87a	7.0268843e-06
214	0x37b32280	2.1354528e-05
215	0x38048e9c	3.1604068e-05
216	0x37aee5a9	2.084936e-05
217	0x2e10d4d8	3.2930852e-11
218	0x3785c94c	1.5948572e-05
219	0x3889243b	6.5394175e-05
220	0x37a50dc5	1.9675945e-05
221	0x00000000	0.0
222	0x383e0d9f	4.5312216e-05
223	0x37d4fb29	2.5389325e-05
224	0x38184323	3.630215e-05
225	0x3850e580	4.9804803e-05
226	0x3734728c	1.0755506e-05
227	0x38cdcaed	9.8129596e-05
228	0x384c20f3	4.8668076e-05
229	0x37c27718	2.318206e-05
230	0x37f645ee	2.9358049e-05
231	0xb6a30fd0	-4.8596194e-06
232	0x37b3414c	2.1368869e-05
233	0x38b0821b	8.416568e-05
234	0x37eb52d2	2.805275e-05
235	0x357721e2	9.2063976e-07
236	0x3824ac15	3.926091e-05
237	0xb8145517	-3.5365196e-05
238	0x37cece30	2.4653127e-05
239	0x3866c821	5.5022658e-05
240	0xb89c5182	-7.453842e-05
241	0xb799b61c	-1.8323823e-05
242	0x37c196ce	2.3077617e-05
243	0xb7368ee2	-1.0881313e-05
244	0xb7752608	-1.4611993e-05
245	0xb737ea60	-1.096222e-05
246	0xb76d8506	-1.4157273e-05
247	0xb3629797	-5.2757596e-08
248	0x36972880	4.5048655e-06
249	0x37e936a6	2.7801212e-05
250	0xb70d24e1	-8.412841e-06
251	0x00000000	0.0
252	0xb7f51394	-2.9215393e-05
253	0xb75ef7ec	-1.3289955e-05
254	0xb83121ca	-4.2231557e-05
255	0xb76110ac	-1.3414927e-05
