logs_feed_forward_deeper/epoch=96-step=106118.ckpt (torch, 38018 bytes, 24 tensors)

linear1.weight f4 [30, 11]
-0.3379347 -0.33181342 0.1746043 0.0032692878 0.24585223 0.122489996 -0.08459385 0.13475265
-3.0368454 -0.1744101 -0.0060814633 0.53743726 -0.032160766 0.09401931 0.0034462847 -0.08220176
-0.80374026 -0.14669877 -0.052934956 0.31471962 -0.046083614 0.2687739 -0.08524311 -0.36677676
0.4288654 0.0061969995 -0.8958168 0.2052082 0.052483846 0.5324792 -0.3293186 -0.083781116
0.18608764 -0.072659805 -0.41203448 0.18580991 0.002692516 -0.7357145 0.25285742 -0.17153049
-0.53989625 -1.8478187 0.40627375 0.060481172 0.28025487 1.0759292 -0.17275536 0.014173624
0.8883533 0.109199956 -0.9352696 -0.07482344 -1.1869307 0.5261887 0.4039418 0.067814164
-0.9805839 0.27547827 0.0046953415 0.059304923 -0.076583564 0.3576413 0.30973256 0.43840864
0.161247 0.08433352 -0.18913043 0.9061458 0.032803312 -0.035527997 -0.10405992 0.06952916
0.11372206 0.0638718 0.22430576 0.066826575 -0.66124874 -0.08083247 0.11080704 -0.016804045
-0.022876887 0.03925422 -0.14006224 -0.2245335 0.15734096 -0.17261083 -0.01598177 -0.92921877
0.13196403 0.61640126 -0.06823693 -0.010830641 -0.002785669 -0.27078187 0.21313435 0.52855283
1.2900009 -0.13744493 -0.10816582 -0.352861 -0.42514017 -0.1843406 0.008041643 0.75072736
-0.11323601 0.30827984 -0.17090356 0.03660878 0.39010745 0.14586197 0.30348736 0.52265674
0.29577562 -0.013404644 -0.6035515 -0.21449193 0.2694066 0.24008304 0.10299714 0.5171153
-0.23661475 1.0802318 -0.6331322 -0.32249907 0.013868647 -0.6257964 -0.23646516 -0.2673377
-0.19953494 1.0624344 0.046249274 -0.0673199 -0.10458406 -0.5630853 -0.48896462 0.0019942634
-0.024224857 -0.33129004 -0.25419754 -0.511187 -0.34024844 0.06875558 0.2346897 -0.061003406
0.49244246 0.23316713 0.007016141 0.01105505 -0.038802437 0.07363029 0.12960134 -0.36085242
1.0034822 0.014120469 -0.036798783 -0.9858145 -0.584681 -0.01893 0.587415 0.00614398
-0.17556804 -0.14937146 -1.6483911 -0.8955697 0.0007042945 0.0033954382 -0.4270933 0.13740528
-0.001747096 -0.09782268 0.20437133 0.6065489 -0.46948966 0.258969 0.0060257944 -0.019989962
0.17603163 0.6770238 0.2818747 0.006274711 -0.11667851 0.030278651 0.12164655 -0.19306333
-0.52998435 -0.8239086 0.02505498 0.25266412 -0.43640706 -0.45090762 0.009452557 0.50509566
0.22212492 -0.13919872 -0.22691783 0.367041 0.8662306 -0.0013265256 -0.041872595 -1.3582853
-0.32281646 0.005421803 -0.22999142 0.04713666 0.07940089 -0.0037934463 2.204658 -0.034271643
0.07129402 -8.891933e-05 -0.49543303 -0.31168973 0.001248088 -1.1597887 -0.1629455 0.23453067
-0.50767726 1.3945491 0.07164113 0.07733992 0.33105513 -0.09031255 0.73451394 0.014743152
-0.29424128 -0.20695002 -0.35974354 -0.64170986 -2.275311 -0.020267554 -0.059309706 -0.11122443
0.32322228 -0.019805856 0.010278047 0.891928 -0.20736149 0.13332902 0.08729328 -0.115571894
0.7830778 -0.040747013 -0.3855386 0.7910153 0.59229773 0.019424468 0.044405606 0.20635915
-0.56145877 -0.7108317 1.1665453 0.028933648 0.11688772 0.18757178 -0.040103424 -0.6276895
00000000: c705 adbe 73e3 a9be 78cb 323e 8c41 563b
00000010: b0c0 7b3e 09dc fa3d 8a3f adbd 99fc 093e
00000020: ad5b 42c0 9098 32be 0347 c7bb 7d95 093f
00000030: 02bb 03bd 328d c03d 10db 613b 6559 a8bd
00000040: ecc1 4dbf 3438 16be 53d2 58bd ee22 a13e
00000050: 2cc2 3cbd bc9c 893e f193 aebd 2aca bbbe
00000060: 3f94 db3e 3310 cb3b 4054 65bf 1922 523e
00000070: 4df9 563d 8f50 083f 739c a8be 6f95 abbd
00000080: c28d 3e3e aace 94bd 2ff6 d2be f444 3e3e
00000090: ec74 303b c957 3cbf 8776 813e b0a5 2fbe
000000a0: a436 0abf 5385 ecbf 1d03 d03e 1bbb 773d
000000b0: 917d 8f3e 0cb8 893f c8e6 30be 7d38 683c
000000c0: 1f6b 633f 3aa4 df3d d46d 6fbf 083d 99bd
000000d0: 58ed 97bf 4db4 063f 76d1 ce3e 27e2 8a3d
000000e0: 8c07 7bbf 7d0b 8d3e 61db 993b b8e9 723d
000000f0: d8d7 9cbd c31c b73e 4495 9e3e 1977 e03e
00000100: ef1d 253e 0db7 ac3d 68ab 41be 2cf9 673f
00000110: c45c 063d ce85 11bd 5e1d d5bd 4e65 8e3d
00000120: 1de7 e83d 38cf 823d 69b0 653e 5fdc 883d
00000130: 9947 29bf 7e8b a5bd cdee e23d a3a8 89bc
00000140: 4f68 bbbc 08c9 203d 7a6c 0fbe 1cec 65be
00000150: fd1d 213e e5c0 30be 33ec 82bc 48e1 6dbf
00000160: 9421 073e 79cc 1d3f cebf 8bbd 0073 31bc
00000170: c58f 36bb eca3 8abe e43f 5a3e 3d4f 073f
00000180: c01e a53f 5dbe 0cbe 0b86 ddbd 32aa b4be
00000190: f9ab d9be c8c3 3cbe 18c1 033c ab2f 403f
000001a0: 48e8 e7bd dbd6 9d3e 5801 2fbe 17f3 153d
000001b0: 2abc c73e d75c 153e b262 9b3e d5cc 053f
000001c0: e76f 973e 279f 5bbc 5a82 1abf c6a3 5bbe
000001d0: a9ef 893e 54d8 753e 2af0 d23d ab61 043f
000001e0: 234b 72be 0945 8a3f f414 22bf 991e a5be
000001f0: 5239 633c 3134 20bf ec23 72be 7de0 88be
00000200: e352 4cbe dafd 873f e16f 3d3d 04df 89bd
00000210: 2b30 d6bd 5c26 10bf 9259 fabe 30b2 023b
00000220: 3573 c6bc d99e a9be 2e26 82be 27dd 02bf
00000230: 0b35 aebe bacf 8c3d 7f52 703e b5de 79bd
00000240: 6b21 fc3e 5dc3 6e3e a8e7 e53b 3e20 353c
00000250: 4eef 1ebd 7acb 963d 37b6 043e a6c1 b8be
00000260: 1b72 803f 8a59 673c 52ba 16bd 575e 7cbf
00000270: a7ad 15bf 1613 9bbc d460 163f 7153 c93b
00000280: 1cc8 33be d5f4 18be 7bfe d2bf 0e44 65bf
00000290: 67a0 383a 0086 5e3b f9ab dabe f8b3 0c3e
000002a0: d0fe e4ba 4257 c8bd b846 513e ca46 1b3f
000002b0: f360 f0be 9697 843e 0774 c53b fdc1 a3bc
000002c0: a341 343e 6f51 2d3f e151 903e 179c cd3b
000002d0: 25f5 eebd ef0a f83c d421 f93d 65b2 45be
000002e0: 0ead 07bf adeb 52bf 1a40 cd3c 315d 813e
000002f0: bf70 dfbe 5ddd e6be e6de 1a3c f34d 013f
00000300: b774 633e 1c8a 0ebe 265d 68be ccec bb3e
00000310: 4ac1 5d3f d0de adba 9982 2bbd 4bdc adbf
00000320: 3348 a5be 61a9 b13b df82 6bbe 5f12 413d
00000330: ef9c a23d 789b 78bb 1e19 0d40 6c60 0cbd
00000340: 9902 923d 347a bab8 66a9 fdbe cc95 9fbe
00000350: e296 a33a f573 94bf 2fdb 26be cf28 703e
00000360: 23f7 01bf 9680 b23f 96b8 923d 6464 9e3d
00000370: 0f80 a93e c9f5 b8bd 1b09 3c3f 438d 713c
00000380: cba6 96be b5ea 53be 4e30 b8be 1947 24bf
00000390: b29e 11c0 2408 a6bc bcee 72bd a2c9 e3bd
000003a0: 647d a53e e43f a2bc 4165 283c 6555 643f
000003b0: 9256 54be 6787 083e d2c6 b23d f5b0 ecbd
000003c0: c977 483f 57e6 26bd 5165 c5be fb7f 4a3f
000003d0: d3a0 173f 1020 9f3c a7e2 353d d04f 533e
000003e0: c3bb 0fbf 11f9 35bf 5b51 953f 4206 ed3c
000003f0: d462 ef3d d112 403e 7d43 24bd 42b0 20bf

linear1.bias f4 [30]
-0.20540427 -0.12515771 -0.06451999 0.08511397 -0.18179494 -0.0057579335 -0.13773574 0.2513098
0.18229315 0.18367729 -0.079875335 -0.032549705 0.2282789 -0.13475822 -0.340629 0.2336155
0.2234978 -0.14459364 -0.17726356 -0.23415165 -0.2382335 -0.40938252 -0.14328127 0.2593775
-0.026239565 -0.043555263 0.26999423 -0.18516211 0.15882738 -0.03920648
00000000: 7f55 52be 5829 00be 0e23 84bd 3c50 ae3d
00000010: 7428 3abe 0cad bcbb 990a 0dbe aeab 803e
00000020: 0eab 3a3e e615 3c3e ae95 a3bd d752 05bd
00000030: f2c1 693e 0ffe 09be ed66 aebe e738 6f3e
00000040: 9bdc 643e 5b10 14be 9484 35be 73c5 6fbe
00000050: 7cf3 73be 969a d1be 53b8 12be 21cd 843e
00000060: 5bf4 d6bc 0167 32bd af3c 8a3e 239b 3dbe
00000070: a5a3 223e f996 20bd

linear2.weight f4 [30, 30]
-0.25157717 -0.3533619 0.15272295 0.03626658 -0.87764704 -0.2575524 -0.1630428 -0.0573627
0.027835546 0.32629266 0.24170841 0.5255738 0.09839115 -0.387681 0.05830824 0.38354865
-0.5689104 -0.7692637 -0.1721341 -0.80276304 -0.37304318 -0.1727667 0.16642977 -0.09038096
0.20783146 -0.098117 0.08757925 -0.2814099 -0.65093184 -0.11411069 0.10594192 0.22556527
0.5757146 0.17752738 -0.6954344 -0.17343067 -0.2712293 0.10959559 -0.030101404 0.25176647
-0.2771701 0.4609584 -0.40038598 -0.44437838 0.06849001 -0.3466864 -0.031389967 -0.1763896
0.3407373 -0.29491952 0.25915572 0.31672716 0.17029177 0.69154346 -0.31437564 -0.25721303
0.019902857 -0.1256967 -0.7306181 -0.6116558 0.14450613 0.10899778 -0.14875571 -0.08342476
-0.13390443 0.037480034 0.11985162 0.06841079 -0.20786022 -0.18847361 0.04373449 -0.120745465
0.0068683503 -0.024038196 -0.19693255 -0.11076903 -0.06199497 0.17209095 -0.04845141 -0.16304332
-0.11066761 0.015315965 -0.12834238 0.09475288 -0.15460742 0.15317176 -0.18225366 0.083136156
-0.0049005365 0.09492561 0.18125692 0.17731097 0.104341134 0.45810845 -0.3711868 -0.2932361
0.0514994 0.07386771 -0.18527547 0.08211541 -0.09264998 -0.8806565 0.2911113 -0.35459176
-0.08510066 -0.09672917 -0.33417365 -0.24134518 -0.08501203 0.32356966 0.43957943 -0.5063929
0.03774987 -0.42070237 0.17619252 -0.08941347 -0.26676935 0.08988534 0.40302223 0.5421781
-0.38224953 -0.26778787 0.15909067 -0.40578195 -1.1812977 -0.04831679 0.5264664 -0.16366166
-0.31750995 0.044596512 -0.026647044 -0.7170399 0.18883044 0.25633004 0.14849158 0.20384713
-0.3017564 0.5682337 -0.587822 -0.24449229 0.2642294 0.024809007 -0.7717495 0.24730748
0.154335 -0.12231915 -0.17715113 -0.27211896 -0.31151727 0.44857666 0.46756822 -0.072443746
0.15714379 -0.18745987 0.649931 -0.043821674 -0.3508247 -0.3991049 0.12901233 -0.030080445
-0.35404482 0.6240074 -0.2678633 0.23718874 0.2643044 0.20690039 0.029229164 0.21757899
-0.45043212 -0.26274574 -0.6966063 -0.11858184 0.62815386 0.18404591 -0.15495554 -0.29159695
0.1452928 -2.7682567 0.08237203 0.073540576 -0.63708097 0.12841415 0.15293455 0.22676034
0.5796373 0.19470681 0.6878221 0.41072914 0.28582165 0.26873654 -0.08006921 -0.3537788
0.03879048 -0.1681565 0.4109221 -0.18248367 0.13729084 -0.5206007 0.22563799 -0.18540333
0.011021712 0.022767484 0.3280871 -0.14005874 0.20617631 -0.15435894 -0.13370518 -0.661773
-0.34339988 0.1383869 -0.29976895 0.3442092 0.37149546 -0.38760987 -0.9304085 0.29034892
0.20643312 0.14904712 0.1043221 0.34528852 0.082835235 0.6117343 -0.07167912 -0.25970083
-0.13821082 -0.040589858 -0.95826596 -1.4370633 -0.13147923 -0.20244949 0.42348486 -0.049550243
-0.5586194 0.23795474 0.6387461 -0.020710535 -0.08528803 -0.13649799 -0.021602506 -0.13816285
-0.10645552 0.59373564 0.058442328 0.007411718 0.6550511 0.27442607 -0.099264026 0.01979939
0.06332627 -0.098597705 -0.07460352 2.185563 -0.5268206 0.64425683 1.0733887 -0.026858034
00000000: b9ce 80be daeb b4be 6863 1c3e 448c 143d
00000010: 7aad 60bf e8dd 83be b1f4 26be 27f5 6abd
00000020: 5f07 e43c d50f a73e 6982 773e 018c 063f
00000030: 4d81 c93d 207e c6be 9fd4 6e3d 7d60 c43e
00000040: 1da4 11bf 77ee 44bf ec43 30be e181 4dbf
00000050: 84ff bebe c1e9 30be 916c 2a3e a719 b9bd
00000060: c5d1 543e 91f1 c8bd c05c b33d f514 90be
00000070: 78a3 26bf deb2 e9bd 14f8 d83d 95fa 663e
00000080: 0862 133f bdc9 353e fd07 32bf cf97 31be
00000090: 91de 8abe a773 e03d 3897 f6bc 89e7 803e
000000a0: 3de9 8dbe bd02 ec3e 64ff ccbe 9085 e3be
000000b0: 7e44 8c3d e180 b1be c492 00bd 7a9f 34be
000000c0: 1f75 ae3e b1ff 96be 0fb0 843e 102a a23e
000000d0: f760 2e3e fe08 313f d8f5 a0be 6db1 83be
000000e0: 510b a33c a3b6 00be ca09 3bbf 7995 1cbf
000000f0: 6af9 133e 3a3a df3d 6b53 18be 9ada aabd
00000100: 3e1e 09be aa84 193d c474 f53d f51a 8c3d
00000110: 4fd9 54be 3aff 40be f022 333d 6649 f7bd
00000120: e60f e13b c0eb c4bc b0a8 49be e0da e2bd
00000130: 70ee 7dbd 9c38 303e fc74 46bd d4f4 26be
00000140: b3a5 e2bd d0ef 7a3c 2f6c 03be cc0d c23d
00000150: 6851 1ebe 0fd9 1c3e b4a0 3abe 4a43 aa3d
00000160: ae94 a0bb 5c68 c23d 6a9b 393e 0291 353e
00000170: ceb0 d53d 318d ea3e 320c bebe 0b23 96be
00000180: 09f1 523d f447 973d dab8 3dbe 202c a83d
00000190: 46bf bdbd b472 61bf 8a0c 953e 0d8d b5be
000001a0: 4149 aebd f119 c6bd cf18 abbe 3123 77be
000001b0: ca1a aebd ecaa a53e 8e10 e13e f7a2 01bf
000001c0: 9c9f 1a3d 4d66 d7be d06b 343e 691e b7bd
000001d0: fe95 88be ce15 b83d ee58 ce3e 2fcc 0a3f
000001e0: 36b6 c3be 7e1b 89be aae8 223e a7c2 cfbe
000001f0: c334 97bf d4e7 45bd 81c6 063f ec96 27be
00000200: aa90 a2be d5aa 363d e74a dabc ed8f 37bf
00000210: c45c 413e b13d 833e 2d0e 183e 4dbd 503e
00000220: d17f 9abe c477 113f 817b 16bf 305c 7abe
00000230: 1349 873e 423c cb3c 6091 45bf 2c3e 7d3e
00000240: ff09 1e3e 7682 fabd 1b67 35be 2d53 8bbe
00000250: 317f 9fbe d7ab e53e 1a65 ef3e 635d 94bd
00000260: 4dea 203e 7bf5 3fbe e161 263f 5b7e 33bd
00000270: 4c9f b3be 7a57 ccbe cf1b 043e 446b f6bc
00000280: 5d45 b5be f3be 1f3f 6125 89be 9be1 723e
00000290: e852 873e b2dd 533e 0072 ef3c 07cd 5e3e
000002a0: 0a9f e6be 9c86 86be ca54 32bf 09db f2bd
000002b0: b1ce 203f 8876 3c3e aaac 1ebe 324c 95be
000002c0: a3c7 143e 1e2b 31c0 abb2 a83d 719c 963d
000002d0: bd17 23bf 007f 033e e09a 1c3e dd33 683e
000002e0: 1c63 143f 3961 473e 1c15 303f 174b d23e
000002f0: 3757 923e d697 893e 53fb a3bd 7f22 b5be
00000300: c4e2 1e3d 3831 2cbe 6264 d23e 00dd 3abe
00000310: f895 0c3e 1646 05bf a50d 673e 5fda 3dbe
00000320: 6994 343c e082 ba3c 08fb a73e 8f6b 0fbe
00000330: e21f 533e 4510 1ebe 03ea 08be f569 29bf
00000340: 1cd2 afbe 4cb5 0d3e 517b 99be 303c b03e
00000350: a734 be3e cd74 c6be 402f 6ebf 9da8 943e
00000360: 3463 533e cf9f 183e d3a6 d53d a8c9 b03e
00000370: 85a5 a93d 9e9a 1c3f 81cc 92bd 82f7 84be
00000380: 2387 0dbe 8d41 26bd eb50 75bf b1f1 b7bf
00000390: 7ea2 06be eb4e 4fbe 02d3 d83e 32f5 4abd
000003a0: ae01 0fbf 68aa 733e dd84 233f 24a9 a9bc
000003b0: 7eab aebd 21c6 0bbe bdf7 b0bc 907a 0dbe
000003c0: 5a05 dabd 0fff 173f 3961 6f3d ffdd f23b
000003d0: 6eb1 273f 9381 8c3e f04a cbbd 5532 a23c
000003e0: 34b1 813d 98ed c9bd bbc9 98bd 44e0 0b40
000003f0: b7dd 06bf 04ee 243f cd64 893f 6105 dcbc

linear2.bias f4 [30]
0.46895704 0.15021002 -0.1683163 0.13219146 0.54300565 0.16830751 -0.18994227 -0.020449439
-0.021662818 0.20443913 0.1264791 0.3259253 -0.31064546 0.10571011 0.12857546 0.17976788
-0.37520078 0.28737947 -0.2531973 0.39341936 -0.26336977 -0.487816 0.18710786 -0.028535243
0.0378998 0.34391752 0.44749904 -0.13800928 -0.19324423 0.18487254
00000000: 231b f03e a8d0 193e 1c5b 2cbe 335d 073e
00000010: 6b02 0b3f ce58 2c3e 3a80 42be 9585 a7bc
00000020: 3976 b1bc 7e58 513e bd83 013e aedf a63e
00000030: ec0c 9fbe 8b7e d83d 49a9 033e 1215 383e
00000040: 511a c0be 6723 933e 14a3 81be 436e c93e
00000050: 67d8 86be 05c3 f9be 3499 3f3e bec2 e9bc
00000060: d23c 1b3d f515 b03e 981e e53e 4e52 0dbe
00000070: d1e1 45be 3a4f 3d3e

linear3.weight f4 [30, 30]
-0.6456041 -0.93456376 0.07113388 -0.4265765 -0.15543927 0.23817337 -0.2528968 0.62337404
0.02298829 0.12875426 0.0249002 -0.0056366893 -1.3749425 0.17903581 0.2717508 -0.09462757
-0.51746666 0.45482275 -0.51324224 -1.3080134 0.0020104295 -0.08313293 -0.15774845 -0.6281724
-0.5441534 0.31883773 -1.5461255 -0.11718178 -0.4449042 0.030982742 -0.15416992 0.4838958
0.029950082 0.23135102 0.3384207 0.49533007 -0.10048982 0.34303772 -0.321702 -0.024166642
-0.08982679 0.11544052 0.054786433 0.09744041 0.16899729 -0.0372837 -0.23827416 -0.8104222
-0.78761876 0.043898545 -0.23754522 -0.13739958 -0.6457028 -0.4356931 -0.16019419 0.07780815
-0.19018148 0.16967644 -0.08924073 -0.3248312 -0.18663706 -0.9917205 0.13296191 -0.0030943132
0.24000184 -0.3149679 -0.14136194 -0.03655406 -0.15202278 -0.20422316 0.21064657 0.19566196
-0.0019574007 -0.8010134 -0.26943716 0.27682674 0.074691646 -0.9625151 0.061609138 0.15445125
0.465388 0.035665452 0.22921675 -0.08805556 -0.4428713 -0.44662163 -0.10048969 0.11789183
0.0037985754 0.031501383 -0.20695247 -0.08068276 0.17950577 -0.15503845 -0.5277988 0.16223036
0.15667616 0.12318292 -0.95693624 0.03273483 -0.15077692 -0.5130802 -0.32986304 0.53929615
-0.37502834 -0.1187552 0.33927605 0.3818065 -0.9351892 -0.2385914 0.28841254 -0.58065176
0.64604896 0.09430328 -0.11993791 0.5037242 -0.17693618 0.23920779 0.51091933 -0.09986139
0.1940832 0.346605 0.0329134 -0.08435973 0.07692102 0.49922243 -0.2511644 0.32051426
0.19554634 -0.041202415 -0.251697 -0.60515684 0.112226896 0.49311858 0.23480593 0.17795227
-0.31994376 0.6979221 0.062674575 -0.017325696 -0.24784839 -0.9195545 -0.4295347 -0.086897284
0.28344855 0.0703194 -0.19798194 -0.7621431 0.073474266 0.13558401 0.01761827 -0.030051192
-0.11684356 -0.17603031 -0.18282375 -0.102860734 -0.08157909 -0.05742929 -0.07896747 -0.060233165
-0.16056181 0.080695234 0.11335947 0.12485998 0.053629726 -0.16275053 0.053400334 -0.013533235
0.07812869 -0.119821936 -0.14094761 -0.016430592 -0.047295 -0.178157 0.038289838 -0.18949287
-0.056958124 0.056169357 -0.08855525 -0.001091697 -0.6003638 0.6326536 -0.15917099 -0.18077391
0.35571918 -0.39554998 -0.30690187 -0.25476378 -0.33057424 0.0497834 -0.15740271 -0.05177529
0.008852495 0.37020364 0.43590534 -0.26671657 -0.29757315 0.33568066 -0.6625889 0.035119332
-0.12058747 -0.45265004 0.23830922 -0.2656958 0.3813075 0.21994087 -0.089131474 0.15298066
0.26573995 0.0766798 -1.2300183 0.05695377 0.01922682 -0.98765075 -0.4106745 0.14648908
-0.15557306 -0.48124966 -0.18966076 0.20016994 -0.06822343 -0.33027002 0.0981437 -0.5764011
-0.23641169 0.07697738 -0.01566574 0.15069848 -0.52431226 -0.13377368 -0.27923042 -1.5431497
0.30311722 0.0510999 0.49921963 0.095111795 0.4459478 0.13883555 0.06569611 -0.07485977
-0.046010002 0.09566339 0.17403692 -0.18860312 0.13879274 -0.15991606 0.038232528 0.03184624
0.079064034 -0.12862974 -0.06593727 -0.16924591 -0.045681894 -0.007664934 -0.028126476 -0.16717581
00000000: 4f46 25bf 923f 6fbf a4ae 913d 3c68 dabe
00000010: 792b 1fbe b8e3 733e b07b 81be 7195 1f3f
00000020: f051 bc3c 28d8 033e 81fb cb3c fab3 b8bb
00000030: 1efe afbf 2a55 373e ec22 8b3e 19cc c1bd
00000040: b278 04bf 87de e83e d863 03bf fc6c a7bf
00000050: 69c1 033b 9941 aabd cf88 21be e8cf 20bf
00000060: a34d 0bbf b33e a33e 71e7 c5bf 00fd efbd
00000070: 7cca e3be 85cf fd3c b8de 1dbe 31c1 f73e
00000080: e059 f53c 48e7 6c3e 7a45 ad3e e79b fd3e
00000090: 9bcd cdbd a4a2 af3e 20b6 a4be 1ff9 c5bc
000000a0: 1cf7 b7bd 146c ec3d bd67 603d d68e c73d
000000b0: a00d 2d3e cbb6 18bd 24fe 73be d477 4fbf
000000c0: 62a1 49bf f6ce 333d 0e3f 73be 7ab2 0cbe
000000d0: c74c 25bf 2a13 dfbe f209 24be e159 9f3d
000000e0: efbe 42be a9bf 2d3e d8c3 b6bd 4650 a6be
000000f0: c91d 3fbe 65e1 7dbf 2b27 083e f6c9 4abb
00000100: 0bc3 753e 7943 a1be 2fc1 10be b6b9 15bd
00000110: dcab 1bbe e01f 51be bcb3 573e 9c5b 483e
00000120: bc47 00bb 370f 4dbf abf3 89be 3cbc 8d3e
00000130: eff7 983d 6467 76bf dd59 7c3d 7828 1e3e
00000140: 5647 ee3e f015 123d ccb7 6a3e 7956 b4bd
00000150: 07c0 e2be 97ab e4be 8acd cdbd 4671 f13d
00000160: 85f1 783b 9807 013d 59eb 53be 013d a5bd
00000170: 5cd0 373e 66c2 1ebe d21d 07bf b71f 263e
00000180: b76f 203e 5447 fc3d c6f9 74bf f514 063d
00000190: 4465 1abe 3959 03bf cfe3 a8be 500f 0a3f
000001a0: b703 c0be ed35 f3bd 97b5 ad3e 247c c33e
000001b0: 8f68 6fbf 4e51 74be cfaa 933e 98a5 14bf
000001c0: 7763 253f 1422 c13d 02a2 f5bd 12f4 003f
000001d0: c22e 35be e3f2 743e 9ccb 023f 2184 ccbd
000001e0: bfbd 463e 3676 b13e 34d0 063d cbc4 acbd
000001f0: c588 9d3d 159a ff3e 9f98 80be 721a a43e
00000200: 4d3d 483e ddc3 28bd 6ede 80be 8feb 1abf
00000210: 37d7 e53d 0a7a fc3e f770 703e 1f39 363e
00000220: abcf a3be 06ab 323f 875b 803d 9eee 8dbc
00000230: f8cb 7dbe ec67 6bbf f9eb dbbe 34f7 b1bd
00000240: 2b20 913e 9e03 903d c7bb 4abe cf1b 43bf
00000250: ad79 963d 89d6 0a3e 3154 903c eb2d f6bc
00000260: ad4b efbd 4a41 34be 2636 3bbe a6a8 d2bd
00000270: f012 a7bd fa3a 6bbd b2b9 a1bd 0db7 76bd
00000280: 516a 24be 8b43 a53d 0329 e83d 97b6 ff3d
00000290: d8aa 5b3d 13a8 26be 4fba 5a3d 80ba 5dbc
000002a0: ef01 a03d 3465 f5bd 9254 10be 7399 86bc
000002b0: 67b8 41bd ca6e 36be ced5 1c3d 6b0a 42be
000002c0: ec4c 69bd d711 663d 745c b5bd 4617 8fba
000002d0: 71b1 19bf 96f5 213f b8fd 22be cc1c 39be
000002e0: d320 b63e 8785 cabe 3e22 9dbe 6670 82be
000002f0: 0741 a9be aee9 4b3d 2d2e 21be 5412 54bd
00000300: 0e0a 113c 558b bd3e fc2e df3e 138f 88be
00000310: 825b 98be 56de ab3e 6d9f 29bf 4ad9 0f3d
00000320: 90f6 f6bd bfc1 e7be 5507 743e 4809 88be
00000330: bd3a c33e 2e38 613e 908a b6bd f6a6 1c3e
00000340: 110f 883e 4d0a 9d3d 3d71 9dbf 5b48 693d
00000350: 9081 9d3c aed6 7cbf ee43 d2be 3c01 163e
00000360: 8b4e 1fbe 5b66 f6be 6e36 42be 59f9 4c3e
00000370: bab8 8bbd 2719 a9be 90ff c83d 068f 13bf
00000380: e815 72be 51a6 9d3d 7055 80bc b450 1a3e
00000390: 5439 06bf f8fb 08be 4af7 8ebe ee85 c5bf
000003a0: 2e32 9b3e 214e 513d b799 ff3e f9c9 c23d
000003b0: 4553 e43e e82a 0e3e af8b 863d 1450 99bd
000003c0: fc74 3cbd 2beb c33d bc36 323e 2d21 41be
000003d0: af1f 0e3e 09c1 23be b699 1c3d 3471 023d
000003e0: 53ec a13d 84b7 03be 1f0a 87bd cd4e 2dbe
000003f0: f01c 3bbd 202a fbbb 7f69 e6bc 2330 2bbe

linear3.bias f4 [30]
0.32537362 0.2185698 0.22747497 0.0035189025 0.15549907 -0.09789483 0.1281779 -0.21323347
-0.13505173 0.19240879 0.09842017 -0.33087075 0.062393084 0.105291635 0.09788486 0.12486314
0.20699915 0.05880357 -0.026560849 0.017657153 -0.21862666 0.22496952 0.17910348 0.025222283
0.06501123 0.19506803 -0.03780748 0.116534114 -0.11321588 -0.09353748
00000000: 5f97 a63e c3d0 5f3e 33ef 683e 639d 663b
00000010: 263b 1f3e 167d c8bd 1141 033e e059 5abe
00000020: 004b 0abe cf06 453e 8490 c93d e467 a9be
00000030: e48f 7f3d 24a3 d73d dc77 c83d 3fb8 ff3d
00000040: 96f7 533e 03dc 703d 2396 d9bc bca5 903c
00000050: abdf 5fbe 695e 663e e766 373e f69e ce3c
00000060: 9c24 853d eabf 473e 04dc 1abd 70a9 ee3d
00000070: badd e7bd 9490 bfbd

linear4.weight f4 [2, 30]
0.53028804 0.038803376 -0.05624082 0.22051547 0.15803221 -0.004161196 -0.104560964 0.1950262
0.011135104 0.31235108 -0.012090354 0.38840184 -0.11015866 -0.25703043 -0.068785004 -0.13212456
-0.06581103 -0.14736503 -0.1561585 0.3929825 0.079203084 0.52836436 0.15352236 0.163482
-0.11622524 -0.09845298 0.17803459 0.09488098 -0.31025416 0.30109134 1.0317962 -0.17498402
-0.13584802 0.27078095 0.1503183 0.010281547 0.04935917 0.804906 -0.14030826 0.3012267
-0.15500267 0.49479127 -0.17615607 -0.042764623 0.053820975 0.06373187 -0.17477535 -0.078815594
-0.030102437 0.6012832 0.097562425 0.30009526 0.19529817 0.34998545 -0.1189171 0.03638683
-0.25150406 -0.13722707 -0.25536913 0.7187259
00000000: f5c0 073f 4af0 1e3d c65c 66bd cfce 613e
00000010: 32d3 213e a45a 88bb 0f24 d6bd f3b4 473e
00000020: 0370 363c 7bec 9f3e 9f16 46bc 9bdc c63e
00000030: dd9a e1bd 7e99 83be 27df 8cbd a94b 07be
00000040: efc7 86bd dce6 16be 04e8 1fbe 0135 c93e
00000050: 3a35 a23d e342 073f f734 1d3e d367 273e
00000060: 8007 eebd b7a1 c9bd b34e 363e f650 c23d
00000070: a2d9 9ebe a528 9a3e e611 843f 032f 33be
00000080: be1b 0bbe cda3 8a3e 0aed 193e ef73 283c
00000090: d72c 4a3d 520e 4e3f f8ac 0fbe 633a 9a3e
000000a0: 05b9 1ebe 4855 fd3e 4262 34be f529 2fbd
000000b0: 6273 5c3d db85 823d 4ff8 32be 126a a1bd
000000c0: 6399 f6bc b2ed 193f cfce c73d 16a6 993e
000000d0: 3efc 473e 4b31 b33e cf8a f3bd 5b0a 153d
000000e0: 24c5 80be 4185 0cbe bebf 82be 6cfe 373f

linear4.bias f4 [2]
-0.06764204 -0.09914276
00000000: e987 8abd 5c0b cbbd

exp_avg f4 [30, 11]
-0.00066809286 -0.00016448864 0.00030047406 -0.00022129626 -3.3637945e-05 -0.0003727269 -8.940784e-05 -4.104404e-05
3.0589257e-05 -0.00033621764 -0.00010877857 -0.0007072168 -0.00035921278 0.0004963442 -0.00037809278 9.520407e-05
-0.0006924024 -0.00023879338 0.00015168535 4.287185e-05 -0.00028022967 -2.5045596e-05 -4.9758477e-05 -1.3686022e-05
-0.00012736091 -0.000115823656 -1.413218e-05 -1.7839873e-05 -0.00014853083 9.877797e-05 -3.0570966e-06 -0.00019644243
-0.000120298406 -0.00018975891 -5.923146e-05 0.00019745012 -6.8035424e-06 -3.3258562e-05 -0.00041933893 9.3605195e-09
4.4958306e-06 9.07432e-06 9.536505e-05 -0.00011582685 -0.00033851078 1.8244567e-05 -0.00014645471 -0.00015454728
9.092534e-06 0.00019625283 -9.939692e-05 -0.000113479044 1.4875219e-05 0.00020242941 -4.2811125e-06 -7.778908e-05
1.1582553e-05 -9.0367816e-05 0.00027519697 -2.0062802e-05 -0.00016584559 0.000101769845 0.0001764707 4.43963e-05
-0.00038947852 0.00024231714 2.0908665e-05 -1.3582365e-05 2.8915962e-05 1.3202391e-05 7.3660616e-05 -0.00011474105
-5.6202538e-05 -3.8352868e-05 -8.095283e-06 -0.00013970598 -8.969287e-05 -0.00027813023 -0.00017411618 6.129136e-05
6.664426e-06 4.535984e-05 -0.00022843946 -0.0003097389 0.00013146328 3.5656107e-05 -0.00034743868 3.2439726e-05
0.000554 9.149872e-05 -0.00023124272 -8.866887e-05 2.8928705e-05 0.00022431216 -7.721048e-06 -0.00011671633
-3.3473043e-05 -3.33941e-05 -2.6901907e-05 0.0005099128 -0.00015837274 0.00017695702 0.0002835965 8.4031904e-05
-0.00011013272 -0.00035506487 0.00018667188 -4.8711976e-05 0.00026618168 -0.000102153455 0.00013119628 4.062653e-06
6.3523206e-05 0.00021875395 -5.945369e-06 1.1119126e-05 -3.454829e-05 0.00010771075 -1.5442936e-05 -0.0002015653
8.305753e-05 1.4999052e-05 1.1244986e-05 -1.3357482e-05 5.9434724e-06 1.3827376e-05 1.933596e-05 8.264888e-06
5.7673838e-06 -3.015537e-06 -9.070592e-06 1.5043528e-06 2.4401932e-05 -5.085514e-05 0.0001411274 7.310886e-05
-3.8378134e-06 -0.00017958174 -4.7332313e-05 0.00021413228 -1.1403527e-05 -0.00041967025 8.005104e-05 -0.0005382264
-0.00011295032 0.00014639318 -0.00024883312 6.7584224e-06 -0.00010667874 3.4459066e-05 -0.00017849733 5.888127e-05
0.00021937213 0.00010720837 0.00045890734 -3.605144e-05 -1.4103687e-05 0.00064307573 6.432514e-05 0.0001278205
-0.00029982638 2.6968428e-05 -9.694331e-06 0.0004257344 -0.00015535651 0.0004538523 8.556769e-05 -0.00011525094
0.00015009535 4.3641005e-05 9.8642835e-05 0.000120345576 9.878596e-06 -2.7096596e-05 3.1833915e-05 -4.4060012e-05
0.0006422843 0.0002195367 -0.00041225288 8.8132045e-05 3.187517e-05 0.0005398106 6.216113e-05 -0.00020828229
-5.56139e-05 0.0005146144 -0.00023194945 -0.00016687509 2.2378903e-05 -0.00012210185 -8.397435e-05 3.68542e-05
9.554171e-05 5.386398e-06 -7.911851e-05 1.4632721e-05 7.413585e-05 0.00011515218 -0.00083443674 -9.6803735e-05
-0.00013504575 7.8217774e-05 1.207945e-05 -0.00026450204 -0.00031563488 -0.00020179996 2.5067457e-05 0.0003329158
-0.00051978684 8.126254e-05 0.00015619685 -0.00022585478 0.00015384388 9.891679e-05 0.0005006619 0.0001422096
-3.0242982e-05 1.3819537e-05 -0.00014562442 -6.9545735e-05 0.0004561377 0.00011766407 -0.00035151828 0.00020063101
4.3767934e-05 0.0004061904 9.335984e-05 -8.842533e-06 -2.2439168e-05 0.00014649594 -8.067452e-05 -0.00046801078
-9.9184144e-05 4.5897137e-05 -0.00030947127 -1.39425065e-05 -0.00019602926 -2.6758882e-05 -0.00010845087 4.8848433e-05
0.00030570864 0.0002573634 0.00023033122 6.749311e-05 -1.6323327e-05 -0.0002456366 -7.452538e-05 0.00019721453
-4.6795805e-05 -3.2013173e-05 -8.46009e-06 0.00039305296 6.2785824e-05 -0.0001867507 0.00016889416 -0.00031267936
00000000: f422 2fba 957a 2cb9 f288 9d39 c30b 68b9
00000010: 7816 0db8 8f6a c3b9 7880 bbb8 b426 2cb8
00000020: f74c 0038 5e46 b0b9 0d20 e4b8 8464 39ba
00000030: b954 bcb9 181d 023a c13a c6b9 4ca8 c738
00000040: 5782 35ba 9c64 7ab9 ba0d 1f39 4cd1 3338
00000050: caeb 92b9 0219 d2b7 c2b3 50b8 049d 65b7
00000060: 2f8c 05b9 5ae6 f2b8 4019 6db7 d6a6 95b7
00000070: f1be 1bb9 0527 cf38 8528 4db6 1dfc 4db9
00000080: b748 fcb8 05fa 46b9 4c6f 78b8 9d0a 4f39
00000090: fc49 e4b6 1c7f 0bb8 b8da dbb9 00d0 2032
000000a0: e4da 9636 e83d 1837 b9fe c738 11e8 f2b8
000000b0: 267a b1b9 e90b 9937 a391 19b9 f80d 22b9
000000c0: 238c 1837 38c9 4d39 5173 d0b8 99fb edb8
000000d0: 9490 7937 3b43 5439 7aa6 8fb6 b222 a3b8
000000e0: b052 4237 da83 bdb8 5048 9039 8a4c a8b7
000000f0: d6e6 2db9 456d d538 fe0a 3939 2a36 3a38
00000100: ec32 ccb9 8316 7e39 0465 af37 d0df 63b7
00000110: 8e90 f237 d67f 5d37 3e7a 9a38 22a1 f0b8
00000120: 04bb 6bb8 14dd 20b8 fad0 07b7 0a7e 12b9
00000130: 7e19 bcb8 02d2 91b9 f592 36b9 8c89 8038
00000140: fc9e df36 c240 3e38 4089 6fb9 7464 a2b9
00000150: 68d9 0939 748d 1538 6e28 b6b9 e40f 0838
00000160: 503a 113a 00e3 bf38 bf79 72b9 bdf3 b9b8
00000170: ecab f237 5635 6b39 a689 01b7 9ac5 f4b8
00000180: 6865 0cb8 a410 0cb8 68ab e1b7 abab 053a
00000190: dc10 26b9 8a8d 3939 aeaf 9439 493a b038
000001a0: 0ef7 e6b8 0028 bab9 5abd 4339 1650 4cb8
000001b0: 4d8e 8b39 383b d6b8 bc91 0939 ec51 8836
000001c0: c337 8538 5161 6539 557e c7b6 488c 3a37
000001d0: f2e7 10b8 c5e2 e138 748b 81b7 465b 53b9
000001e0: 2c2f ae38 70a4 7b37 d9a8 3c37 f319 60b7
000001f0: 0a6e c736 21fc 6737 a833 a237 6ca9 0a37
00000200: 7385 c136 885e 4ab6 e52d 18b7 2be9 c935
00000210: c0b2 cc37 4a4d 55b8 99fb 1339 0552 9938
00000220: 91c6 80b6 1b4e 3cb9 af86 46b8 b288 6039
00000230: c751 3fb7 3007 dcb9 13e1 a738 c317 0dba
00000240: bedf ecb8 1f81 1939 d175 82b9 68c6 e236
00000250: b6b8 dfb8 2488 1038 032b 3bb9 48f7 7638
00000260: 4207 6639 0ed5 e038 8099 f039 f035 17b8
00000270: e09e 6cb7 1594 283a 4ce6 8638 8e07 0639
00000280: 0432 9db9 423a e237 d6a4 22b7 1b35 df39
00000290: 32e7 22b9 06f3 ed39 ce72 b338 e1b2 f1b8
000002a0: ea62 1d39 2c0b 3738 78de ce38 0a62 fc38
000002b0: 3fbc 2537 7f4d e3b7 6885 0538 14cd 38b8
000002c0: f85e 283a 6f33 6639 a523 d8b9 88d3 b838
000002d0: b4b1 0538 1382 0d3a 815c 8238 5a66 5ab9
000002e0: f842 69b8 30e7 063a 7537 73b9 31fb 2eb9
000002f0: 54ba bb37 7708 00b9 631b b0b8 e593 1a38
00000300: 915d c838 cebc b436 6dec a5b8 0f7f 7537
00000310: 6279 9b38 db7d f138 1abe 5aba 1c03 cbb8
00000320: 119b 0db9 d908 a438 d8a8 4a37 ddac 8ab9
00000330: cc7b a5b9 449a 53b9 f447 d237 348b ae39
00000340: 4e42 08ba 7e6b aa38 c6c8 2339 6ed3 6cb9
00000350: 2751 2139 8c71 cf38 da3e 033a 191e 1539
00000360: 4fb2 fdb7 76da 6737 c2b2 18b9 15d9 91b8
00000370: c425 ef39 6bc2 f638 fc4b b8b9 7a60 5239
00000380: 7693 3738 f4f5 d439 2fca c338 645a 14b7
00000390: bf3b bcb7 b49c 1939 ce2f a9b8 585f f5b9
000003a0: 1501 d0b8 ad81 4038 8840 a2b9 9cea 69b7
000003b0: 348d 4db9 4378 e0b7 1e70 e3b8 9be2 4c38
000003c0: 8547 a039 bbee 8639 1185 7139 168b 8d38
000003d0: 14ee 88b7 c9c8 80b9 824a 9cb8 5fcb 4e39
000003e0: 9d46 44b8 e245 06b8 cfef 0db7 ad12 ce39
000003f0: e2ab 8338 82d2 43b9 2e19 3139 1def a3b9

exp_avg_sq f4 [30, 11]
3.644798e-06 3.411179e-07 1.2593904e-06 1.7529203e-06 1.8975365e-07 2.0000734e-06 3.4248697e-07 3.249639e-07
1.34078455e-08 2.2156244e-06 9.5282115e-07 4.259098e-06 6.583245e-07 1.9546092e-06 1.9247955e-06 4.3843892e-07
4.079279e-06 4.4182838e-07 2.3594595e-07 4.0519897e-08 1.8899722e-06 2.0859168e-06 3.5397625e-06 3.283943e-07
1.0496653e-06 1.7431305e-06 4.6652093e-07 1.9507468e-06 4.5148624e-07 2.3459931e-07 2.9787754e-08 2.4381743e-06
1.0903012e-06 2.2210186e-06 2.112346e-07 5.96531e-07 1.1249904e-06 3.4552235e-07 1.054497e-06 3.4624003e-07
2.4446612e-07 1.7413152e-08 1.4857917e-06 4.965567e-07 1.9155673e-06 9.940639e-08 2.3134822e-07 8.563036e-07
7.809525e-08 8.335472e-07 1.6217574e-07 1.8787308e-07 8.577306e-09 1.3776572e-06 3.8001932e-07 6.9800703e-06
9.1635235e-07 2.462062e-06 3.100501e-06 4.830525e-07 4.761538e-06 6.8842746e-07 4.686374e-07 5.8977243e-08
2.6278915e-06 2.1124301e-06 1.2130029e-06 1.1737479e-07 3.581221e-07 6.6587603e-07 1.968564e-07 5.750343e-07
1.4058801e-07 1.05831106e-07 1.1887018e-08 9.125768e-07 2.717599e-07 5.4171073e-06 7.762104e-07 2.264563e-06
2.5413156e-06 5.5628226e-07 3.6186407e-06 5.529109e-07 3.665553e-07 6.883823e-08 2.3624625e-06 1.3674946e-06
2.8786633e-06 2.2724919e-07 7.434145e-07 1.327009e-06 2.963488e-07 1.4038147e-06 2.391847e-07 2.2232439e-07
2.2825489e-08 1.6552176e-06 8.6101426e-07 4.93755e-06 5.224571e-07 1.2685517e-06 2.3099753e-06 4.203499e-07
2.219029e-06 4.3236489e-07 3.6221488e-07 2.9630446e-08 2.9833966e-06 1.1320361e-06 1.4057105e-06 1.4777068e-07
4.5703723e-07 6.7127826e-07 1.7349831e-07 8.00128e-07 1.4948105e-07 1.1008152e-07 1.1924672e-08 1.0177421e-06
3.539016e-07 4.581971e-08 6.465844e-09 1.2321672e-08 2.8701884e-08 4.4462787e-08 4.5819302e-08 6.4123205e-09
5.9273244e-09 4.036238e-09 2.662445e-08 2.3359377e-08 4.96163e-06 5.5081046e-07 1.4534983e-06 2.2807762e-06
5.5398846e-07 2.99665e-06 3.8555768e-07 3.481781e-07 4.7757077e-08 2.2825423e-06 1.4643331e-06 8.12078e-06
1.0046655e-06 2.8231523e-06 3.7589273e-06 1.1213382e-06 5.3248646e-06 7.2620435e-07 5.397627e-07 8.955061e-08
5.243906e-06 2.2987797e-06 5.111947e-06 4.449136e-07 1.1856976e-06 2.4978042e-06 3.321357e-07 2.4288706e-06
3.4583104e-07 4.208189e-07 1.686892e-08 3.3253045e-06 1.5136799e-06 2.2710144e-06 2.1949664e-07 7.1496316e-07
1.1364625e-06 2.7891002e-07 1.22457e-06 2.3267076e-07 1.7314244e-07 1.8390676e-08 1.3378921e-06 6.1450305e-07
5.7918933e-06 5.149033e-07 1.8471103e-06 2.7972721e-06 4.4716737e-07 3.2304072e-06 5.0382516e-07 4.7803275e-07
2.8540175e-08 3.0342894e-06 1.8401794e-06 1.4102774e-06 1.3395017e-07 3.0021772e-07 6.886106e-07 1.2481719e-07
7.32946e-07 1.3023077e-07 1.147707e-07 1.6472345e-08 1.1249207e-06 3.7321615e-07 5.2162964e-06 3.072156e-07
1.1719364e-06 2.7407661e-06 4.7034007e-07 2.444052e-06 5.7075516e-07 6.344844e-07 3.195737e-08 3.7305922e-06
1.5014366e-06 4.659558e-06 4.5415504e-07 1.2184306e-06 2.0748591e-06 6.0059233e-07 2.301346e-06 4.3198662e-07
3.6366004e-07 2.9445038e-08 2.8814234e-06 1.4061609e-06 1.4040356e-06 3.097135e-07 9.550664e-07 7.245449e-07
1.9623938e-07 1.3986084e-06 2.4076448e-07 3.6954564e-08 7.604525e-09 6.54808e-07 6.976297e-07 3.0111983e-06
3.144917e-07 9.592861e-07 1.5929752e-06 3.6301668e-07 1.9649603e-06 3.0817398e-07 2.0194173e-07 3.7644988e-08
2.131168e-06 1.0196176e-06 5.3924878e-06 4.9128636e-07 1.515963e-06 2.586002e-06 5.014391e-07 2.989724e-06
5.4555085e-07 4.5055975e-07 3.3238123e-08 3.2388662e-06 1.7020812e-06 1.3341048e-06 1.6728885e-07 3.0340354e-07
00000000: 2799 7436 e322 b734 5308 a935 e245 eb35
00000010: 16bf 4b34 0039 0636 0ddf b734 b376 ae34
00000020: 5458 6632 23b0 1436 5fc5 7f35 60e9 8e36
00000030: b7b7 3035 ee2b 0336 bc2b 0136 9662 eb34
00000040: bde0 8836 6e34 ed34 5458 7d34 1908 2e33
00000050: f3aa fd35 c7fb 0b36 a88c 6d36 2b4e b034
00000060: 3ae2 8c35 82f5 e935 2676 fa34 93e9 0236
00000070: cc63 f234 2be6 7b34 f7df ff32 849f 2336
00000080: 7756 9235 cf0c 1536 bacf 6234 4c21 2035
00000090: 60fe 9635 3b80 b934 3e88 8d35 dee2 b934
000000a0: 2b3f 8334 ed93 9532 6a6b c735 1e4b 0535
000000b0: 328d 0036 3e79 d533 8468 7834 bcdc 6535
000000c0: 51b5 a733 edc0 5f35 8722 2e34 29ba 4934
000000d0: 645b 1332 f1e7 b835 7505 cc34 5936 ea36
000000e0: 41fb 7535 e739 2536 3412 5036 1dab 0135
000000f0: 4dc5 9f36 60cc 3835 0999 fb34 2a4e 7d33
00000100: d55a 3036 46c3 0d36 76ce a235 790f fc33
00000110: ed43 c034 a7be 3235 7a5f 5334 0e5c 1a35
00000120: 8af4 1634 4445 e333 a837 4c32 cdf7 7435
00000130: 65e6 9134 99c4 b536 c65c 5035 e5f8 1736
00000140: 788b 2a36 6d53 1535 c6d7 7236 bf6b 1435
00000150: faca c434 38d4 9333 cc8a 1e36 c28a b735
00000160: 0f2f 4136 c801 7434 0e8f 4735 af1b b235
00000170: de19 9f34 b56a bc35 4b69 8034 10b8 6e34
00000180: c811 c432 d828 de35 7320 6735 3bad a536
00000190: fb3e 0c35 1b43 aa35 1305 1b36 73ac e134
000001a0: a1ea 1436 c71f e834 6f76 c234 0a86 fe32
000001b0: 5d36 4836 77f0 9735 d8ab bc35 e5aa 1e34
000001c0: b85e f534 e431 3435 da4a 3a34 61c8 5635
000001d0: 0a81 2034 f565 ec33 43dd 4c32 5a99 8835
000001e0: deff bd34 4ecb 4433 2a2a de31 49af 5332
000001f0: 1c8c f632 5af7 3e33 dbca 4433 5e53 dc31
00000200: 4ca9 cb31 20af 8a31 c9b3 e432 d0a7 c832
00000210: 147c a636 68db 1335 d215 c335 700f 1936
00000220: ccb5 1435 0e1a 4936 a5fe ce34 3ced ba34
00000230: 761d 4d33 c72d 1936 1a8a c435 7c3e 0837
00000240: 0bd8 8635 6375 3d36 e141 7c36 e380 9635
00000250: 3dac b236 62f0 4235 36e4 1035 f84e c033
00000260: cff4 af36 bc44 1a36 4a87 ab36 76dc ee34
00000270: 4224 9f35 f39f 2736 6250 b234 aeff 2236
00000280: a8aa b934 e9ec e134 26e7 9032 4c28 5f36
00000290: a529 cb35 bb67 1836 c7ae 6b34 e5eb 3f35
000002a0: 8e88 9835 1abd 9534 e85b a435 0dd4 7934
000002b0: 08e9 3934 86f9 9d32 9f91 b335 54f4 2435
000002c0: fc57 c236 e337 0a35 3aea f735 c5b8 3b36
000002d0: 3712 f034 f9c9 5836 9a3e 0735 2952 0035
000002e0: 8228 f532 b2a0 4b36 15fc f635 c348 bd35
000002f0: f1d3 0f34 9c2d a134 f6d8 3835 7d05 0634
00000300: aabf 4435 90d5 0b34 dc77 f633 127f 8d32
00000310: fbfb 9635 705e c834 a507 af36 64ef a434
00000320: 6e4b 9d35 01ee 3736 0c83 fc34 7e04 2436
00000330: ff35 1935 7051 2a35 8041 0933 165b 7a36
00000340: f884 c935 4c59 9c36 98d2 f334 f588 a335
00000350: cf3d 0b36 6438 2135 d370 1a36 caeb e734
00000360: 0e3d c334 53ee fc32 7a5e 4136 52bb bc35
00000370: 4c72 bc35 b346 a634 d52f 8035 597e 4235
00000380: dfb5 5234 d2b7 bb35 6b42 8134 f9b7 1e33
00000390: 0ea5 0232 10c6 2f35 bf44 3b35 fe13 4a36
000003a0: 69d7 a834 d2c0 8035 36ce d535 a2e4 c234
000003b0: c3dd 0336 1c73 a534 52d5 5834 1aaf 2133
000003c0: 3005 0f36 cbd9 8835 1ef1 b436 f1e0 0335
000003d0: 1878 cb35 2d8b 2d36 a29a 0635 11a3 4836
000003e0: f871 1235 76e4 f134 b4c1 0e33 4c5b 5936
000003f0: 1173 e435 7e0f b335 02a0 3334 77e3 a234

exp_avg f4 [30]
0.0006746567 0.0007370072 5.2348434e-05 0.00020188057 0.00033888104 8.414262e-05 -1.720318e-05 0.00028253527
-0.00054324936 -0.0005129219 -0.00011842205 -2.087407e-05 -1.8744293e-05 0.0005344213 -0.00045541272 -0.0004621758
-0.0006320263 0.00017032535 0.00083827483 -9.005505e-05 -0.00044801226 0.00046828127 -0.00024031388 0.00018378127
-0.00048901554 0.00020555279 0.0002583003 4.9872644e-05 0.0003015174 2.2112523e-05
00000000: 72db 303a b733 413a b490 5b38 e7af 5339
00000010: d8ab b139 ba75 b038 8c4f 90b7 3e21 9439
00000020: d968 0eba 9b75 06ba 5b59 f8b8 b91a afb7
00000030: 103d 9db7 6818 0c3a 76c4 eeb9 3050 f2b9
00000040: 91ae 25ba 5d99 3239 acbf 5b3a f0db bcb8
00000050: 30e3 eab9 a683 f539 c4fc 7bb9 69b5 4039
00000060: 4731 00ba a889 5739 7b6c 8739 582e 5138
00000070: fb14 9e39 487e b937

exp_avg_sq f4 [30]
3.6678969e-06 4.3677633e-06 3.6247295e-06 2.2530066e-06 1.9167062e-06 7.0972933e-06 1.231171e-06 5.590159e-06
2.9100943e-06 4.9613445e-06 1.4514047e-06 5.539106e-08 5.0307017e-06 8.227447e-06 5.1259926e-06 2.3014968e-06
5.8692294e-06 1.4217169e-06 5.2541427e-06 4.7171625e-06 1.4739992e-06 3.0421054e-06 5.429828e-06 1.3365774e-06
2.3191326e-06 2.0442305e-06 3.9542506e-06 2.008383e-06 2.616919e-06 2.3919238e-06
00000000: fd25 7636 cd8e 9236 6140 7336 5c32 1736
00000010: c3a0 0036 4925 ee36 b73e a535 1a93 bb36
00000020: 0a4b 4336 a079 a636 e3cd c235 1de7 6d33
00000030: 66cd a836 9e08 0a37 f1ff ab36 6a73 1a36
00000040: 4cf0 c436 d2d1 be35 be4c b036 1e48 9e36
00000050: 3ad6 c535 f926 4c36 de31 b636 7364 b335
00000060: 65a2 1b36 9d2f 0936 c1ae 8436 c2c7 0636
00000070: 539e 2f36 f084 2036

exp_avg f4 [30, 30]
3.0507335e-06 -5.0864277e-05 -0.00013528865 -0.00022532867 -5.2327214e-05 -0.00018623722 -3.514742e-05 -1.8345005e-05
-5.5186094e-05 -0.00044288085 2.7694514e-06 6e-45 -0.00033200055 -0.00015825196 2.4977457e-05 -0.00034061496
-0.000114754796 -0.00011677668 -0.0001194728 -0.00014840001 4.117621e-06 -4.0774918e-05 -0.00027170207 -0.00039437343
-0.00017344796 -6.7363166e-05 -0.00017261917 -1.4081344e-05 -1.9419207e-05 -3.3664204e-05 1.4826376e-05 4.1155407e-05
2.7664431e-05 6.186867e-05 2.3312423e-05 1.3181549e-05 8.801181e-06 7.686194e-05 -1.4732493e-05 4.0444833e-05
1.0484432e-05 -4.551416e-07 8.019423e-05 6.907821e-05 1.981027e-05 -2.257659e-05 1.4415926e-05 5.430217e-05
1.69268e-05 1.23059945e-05 2.2074575e-05 8.955389e-06 6.2262705e-05 1.8979015e-05 -3.055347e-05 -4.7377616e-06
6.117593e-05 -5.592392e-08 1.4584546e-05 -6.783634e-06 6e-45 6e-45 6e-45 0.0
0.0 6e-45 6e-45 6e-45 6e-45 6e-45 6e-45 0.0
6e-45 0.0 6e-45 6e-45 6e-45 0.0 6e-45 0.0
0.0 0.0 0.0 0.0 6e-45 6e-45 0.0 6e-45
6e-45 0.0 9.54189e-05 1.6787337e-05 -0.00012297425 -0.00015901639 -2.4043973e-05 -1.6959879e-05
-3.761094e-05 5.1322713e-05 1.8954728e-05 -0.00010551186 -3.362423e-05 4.7471185e-06 -1.0053074e-05 -0.00019878848
0.0001460535 -0.00011817777 6.9055204e-06 -6.7046836e-05 2.2156953e-05 -7.518905e-05 -9.313779e-06 -3.0346055e-05
-0.00016132463 -1.0327003e-05 -8.37258e-05 4.8345297e-05 -7.122343e-05 -9.895688e-06 5.2310123e-05 5.9026257e-05
-4.0483387e-06 -3.6867335e-05 -7.767568e-06 -0.0001376435 -3.1266678e-05 -7.952038e-05 1.885902e-05 -0.00014460449
8.053316e-05 -0.00024774676 -3.757648e-05 -3.5560635e-18 -0.00021221762 -9.7030235e-05 -5.7004345e-06 2.6242524e-05
0.00018446623 -6.781526e-05 -9.429302e-05 -1.504829e-05 -1.9262456e-05 -3.5629226e-05 -0.00010281914 -8.57185e-05
3.154023e-05 4.2744847e-05 -6.12546e-05 1.4504276e-05 -0.00010865616 -2.2690045e-05 -3.614498e-05 2.2999979e-05
0.00014624064 0.00013903948 3.9205428e-05 6.2962994e-05 -6.71744e-06 -1.312027e-05 2.3452143e-05 8.3421626e-05
6.341875e-05 -2.8052438e-07 1.5137681e-05 0.00015530219 -8.2629456e-05 6.1125254e-05 -2.5916412e-05 5.7028286e-05
9.910476e-06 3.495538e-05 -6.7913693e-06 6.4739834e-07 8.419784e-05 7.733397e-06 4.2476913e-05 -3.6589645e-06
2.684812e-05 6.206467e-07 3.7327918e-06 -3.8455582e-05 -5.125052e-05 2.102858e-05 -3.6864552e-05 3.864785e-05
-1.185779e-05 -6.517407e-05 -5.3597323e-05 -6.392535e-05 -2.4762943e-05 -7.114975e-05 -5.0083563e-06 1.967218e-06
8.348353e-05 -5.01472e-05 -5.1298826e-05 -0.000111767156 -0.00010781918 -1.7240503e-05 4.099457e-05 0.00011942035
-3.247638e-05 -2.2756853e-05 -6.0394115e-05 1.5980288e-05 -6.449063e-07 -8.0436184e-05 5.203615e-07 -3.7168313e-05
-3.113971e-05 -1.6025304e-05 1.3871445e-05 -2.610414e-05 -4.8378406e-05 -0.00012734195 1.7174441e-06 -3.177397e-05
-4.9518898e-05 3.578383e-05 3.88583e-05 -0.00010509173 -9.307e-05 -3.4775132e-07 -6.927936e-05 -0.00016716993
-3.7102013e-06 -6.3055544e-05 4.2519663e-05 -3.0296364e-06 4.785042e-05 -4.8097565e-05 -5.4059394e-05 -1.8440534e-05
-7.8523706e-05 -8.981926e-06 -3.8619626e-05 3.309745e-06 -2.7431446e-05 -6.052705e-05 4.278733e-05 3.2058175e-05
2.0721734e-05 -1.1689641e-05 -4.220942e-05 -0.000118303855 -3.5416786e-05 -1.0605832e-05 -3.8850652e-05 -2.9849449e-05
-1.7955239e-05 -0.00013212877 1.6174312e-05 3.2846435e-07 -5.8726902e-05 -0.00019300482 4.0613537e-05 3.84692e-05
00000000: 34bb 4c36 1a57 55b8 45dc 0db9 3446 6cb9
00000010: eb79 5bb8 ac48 43b9 416b 13b8 99e3 99b7
00000020: 9e77 67b8 7632 e8b9 d0da 3936 0400 0000
00000030: 5c10 aeb9 70f0 25b9 ae86 d137 9194 b2b9
00000040: 83a8 f0b8 01e6 f4b8 798d fab8 d39b 1bb9
00000050: 182a 8a36 bc05 2bb8 3c73 8eb9 e8c3 ceb9
00000060: 95df 35b9 5345 8db8 1b01 35b9 e93e 6cb7
00000070: 6ee6 a2b7 aa32 0db8 cdbe 7837 489e 2c38
00000080: ea10 e837 7dbf 8138 0c8f c337 5226 5d37
00000090: c9a8 1337 f130 a138 932b 77b7 4fa3 2938
000000a0: 4be6 2f37 2f5a f4b4 f32d a838 15de 9038
000000b0: 3b2e a637 dc62 bdb7 eedb 7137 83c2 6338
000000c0: 07fe 8d37 d875 4e37 ca2c b937 1a3f 1637
000000d0: 0993 8238 2035 9f37 8a26 00b8 10f9 9eb6
000000e0: 944b 8038 0031 70b3 26b0 7437 f99e e3b6
000000f0: 0400 0000 0400 0000 0400 0000 0000 0000
00000100: 0000 0000 0400 0000 0400 0000 0400 0000
00000110: 0400 0000 0400 0000 0400 0000 0000 0000
00000120: 0400 0000 0000 0000 0400 0000 0400 0000
00000130: 0400 0000 0000 0000 0400 0000 0000 0000
00000140: 0000 0000 0000 0000 0000 0000 0000 0000
00000150: 0400 0000 0400 0000 0000 0000 0400 0000
00000160: 0400 0000 0000 0000 a21b c838 88d2 8c37
00000170: a6f2 00b9 a3bd 26b9 0ab2 c9b7 1045 8eb7
00000180: 70c0 1db8 5843 5738 f800 9f37 4046 ddb8
00000190: be07 0db8 7049 9f36 a0a9 28b7 e071 50b9
000001a0: f025 1939 35d6 f7b8 f8b5 e736 7f9b 8cb8
000001b0: b2dd b937 d0ae 9db8 6042 1cb7 a88f feb7
000001c0: 4029 29b9 2442 2db7 f295 afb8 5ec6 4a38
000001d0: ca5d 95b8 a805 26b7 9167 5b38 f692 7738
000001e0: f7d6 87b6 00a2 1ab8 7351 02b7 6554 10b9
000001f0: 5724 03b8 2ec4 a6b8 7033 9e37 f9a0 17b9
00000200: e9e3 a838 02e4 81b9 709b 1db8 1232 83a2
00000210: bc86 5eb9 b67c cbb8 5c46 bfb6 6423 dc37
00000220: 476d 4139 0a38 8eb8 2ebf c5b8 ea77 7cb7
00000230: cf95 a1b7 9770 15b8 9ba0 d7b8 c5c3 b3b8
00000240: 104a 0438 ee48 3338 d075 80b8 6457 7337
00000250: 55de e3b8 8056 beb7 609a 17b8 14f0 c037
00000260: 2c58 1939 20cb 1139 8270 2438 000b 8438
00000270: 5f66 e1b6 211f 5cb7 18bb c437 a5f2 ae38
00000280: afff 8438 fa9a 96b4 d8f7 7d37 9dd8 2239
00000290: 5a49 adb8 5f30 8038 1267 d9b7 a831 6f38
000002a0: 2c45 2637 0e9d 1238 6be1 e3b6 e0c8 2d35
000002b0: 5f93 b038 b0be 0137 3d29 3238 888c 75b6
000002c0: e637 e137 849a 2635 e080 7a36 5e4b 21b8
000002d0: d4f5 56b8 8866 b037 039f 1ab8 d019 2238
000002e0: d2f0 46b7 10ae 88b8 b0cd 60b8 a90f 86b8
000002f0: 04ba cfb7 3b36 95b8 740d a8b6 8c04 0436
00000300: e113 af38 2555 52b8 b229 57b8 8964 eab8
00000310: fb1c e2b8 b39f 90b7 96f1 2b38 5071 fa38
00000320: 3f37 08b8 f8e5 beb7 b04f 7db8 680d 8637
00000330: a01d 2db5 d9af a8b8 f8ae 0b35 2ce5 1bb8
00000340: 029c 02b8 146e 86b7 67b9 6837 37fa dab7
00000350: ebe9 4ab8 1887 05b9 ee82 e635 0a45 05b8
00000360: 83b2 4fb8 9816 1638 c8fb 2238 b164 dcb8
00000370: 932e c3b8 94b2 bab4 134a 91b8 564a 2fb9
00000380: c6fc 78b6 b03c 84b8 2457 3238 c250 4bb6
00000390: ffb2 4838 5ebc 49b8 d5bd 62b8 bfb0 9ab7
000003a0: 18ad a4b8 14b1 16b7 82fb 21b8 fc1c 5e36
000003b0: 951c e6b7 6dde 7db8 8c76 3338 3476 0638
000003c0: 96d3 ad37 a01e 44b7 050a 31b8 e619 f8b8
000003d0: 7c8c 14b8 b4ef 31b7 92f3 22b8 3465 fab7
000003e0: 959e 96b7 0c8c 0ab9 12ae 8737 cc57 b034
000003f0: 8851 76b8 5661 4ab9 7458 2a38 fd59 2138
