logs_lstm/epoch=99-step=109400.ckpt (torch, 7474 bytes, 12 tensors)

lstm.weight_ih_l0 f4 [4, 11]
000000 82 c8 e6 3d 1b c1 25 c0 e0 d5 e6 be a8 6c 96 bc
       0.112687126 -2.5899112 -0.4508505 -0.018362358
000010 b4 1e 36 bf 2f 5f ed be 91 69 ab 3e 33 b4 b2 be
       -0.711406 -0.46361682 0.33478978 -0.34903106
000020 8d 31 c0 3e 36 d6 6f bf 7d a1 3f be 67 30 e4 3f
       0.37537804 -0.93686235 -0.18713947 1.7827271
000030 de 2f 3a c0 45 61 91 3f 8d 44 58 3d e4 99 46 40
       -2.9091716 1.1357809 0.05279975 3.1031427
000040 a8 59 53 c0 89 56 de 3e 2a ed 7f 40 3c 44 2d 40
       -3.3023472 0.43425396 3.9988503 2.7072897
000050 f0 4c 4e bf 14 bb f8 bd df 96 e7 3d 02 5f eb 40
       -0.8058615 -0.12145057 0.11308073 7.3553476
000060 44 cc 69 3f 3e aa b6 3d 94 6f ba 3f 10 ab 68 3f
       0.9132731 0.0891919 1.4565301 0.9088602
000070 47 41 89 bf 1a 33 aa 3f 1d ff 5a c0 8a 08 ef 3d
       -1.0723046 1.3296845 -3.4218209 0.116715506
000080 fe 90 d7 3e 33 c6 4e 3f 2f 12 96 bf 1a 4f 37 bf
       0.42102808 0.8077118 -1.1724299 -0.71605074
000090 43 96 3c be 18 1c 06 be 51 1f 93 3e be 7a 00 be
       -0.18416695 -0.13096654 0.2873483 -0.12546822
0000a0 eb bc d8 be e2 47 bb 3d fa f0 7f 40 9b 8d b0 bd
       -0.42331633 0.0914457 3.999083 -0.08620759

lstm.weight_hh_l0 f4 [4, 1]
000000 9c 95 59 3f 08 de b5 40 a0 05 1e c0 a8 1f aa 3e
       0.8499391 5.6833534 -2.4690933 0.33227277

lstm.bias_ih_l0 f4 [4]
000000 25 bc a7 bc 4b 8b a4 bf 76 18 5c bf e6 c2 e6 3f
       -0.020475456 -1.2855009 -0.85974824 1.8028228

lstm.bias_hh_l0 f4 [4]
000000 f5 8b 41 bf 35 87 cc bf ea c8 46 3f bb a5 25 40
       -0.7560418 -1.5978762 0.7765032 2.5882404

exp_avg f4 [4, 11]
000000 2c 6f 27 bb b6 81 0d ba ee 98 e2 3a c6 74 de ba
       -0.0025548441 -0.00053980516 0.0017288008 -0.0016972057
000010 bc 17 1f b9 5e ee 7c bb 17 7e f4 b9 3e 50 a7 b9
       -0.00015172263 -0.0038594226 -0.0004663325 -0.00031912507
000020 dd 9a a8 38 b6 22 24 3b bc 2d 19 bb c4 19 0f ba
       8.03971e-05 0.0025045103 -0.0023373207 -0.00054588565
000030 37 ec 3f b9 44 2a cf 39 13 46 a7 b9 c0 26 95 b4
       -0.00018303176 0.00039513607 -0.00031904932 -2.7781607e-07
000040 82 46 15 ba c1 f6 0a b9 74 db c6 38 24 ae 22 38
       -0.00056944054 -0.00013252629 9.482252e-05 3.878599e-05
000050 01 e8 0a 3a 37 24 39 b9 9e 4b 2a 3b 79 32 68 b9
       0.00052988535 -0.00017656466 0.0025985013 -0.00022144047
000060 94 92 94 b9 c1 e2 bf 3a f0 3d f5 39 d9 3c 03 3b
       -0.0002833797 0.0014639721 0.00046776189 0.0020025282
000070 82 36 4f b9 66 90 af b8 65 0d fe b8 2a 2a 2b bb
       -0.00019761364 -8.3715466e-05 -0.00012114159 -0.002611766
000080 20 48 21 ba a8 18 5b b6 50 6d 5c b5 8c 10 16 36
       -0.000615241 -3.2647895e-06 -8.211546e-07 2.2361373e-06
000090 2c 16 05 b6 dc b4 48 b4 9c 47 89 b6 a8 fb 10 b5
       -1.983145e-06 -1.8692248e-07 -4.0912546e-06 -5.401039e-07
0000a0 98 e6 3b b3 f4 5c 27 34 be c0 54 36 24 ab 22 b6
       -4.3749054e-08 1.5586903e-07 3.1702652e-06 -2.4239498e-06

exp_avg_sq f4 [4, 11]
000000 18 db 8d 38 30 a4 3a 37 1e 86 ca 37 25 30 99 37
       6.764213e-05 1.1124692e-05 2.414273e-05 1.826144e-05
000010 94 ef 4c 37 b5 45 4b 38 5c 87 f4 36 48 f8 71 36
       1.2215129e-05 4.846389e-05 7.2875246e-06 3.6056317e-06
000020 f1 de 81 35 83 64 c6 37 70 fb b9 36 90 8c 9e 36
       9.676133e-07 2.3650244e-05 5.542701e-06 4.7251306e-06
000030 72 c5 b0 35 d6 e3 4d 36 e7 9a ae 35 b3 37 ee 34
       1.3170486e-06 3.0679998e-06 1.3009093e-06 4.437148e-07
000040 0b ec 96 36 d5 7e 3d 35 fc dc 01 34 25 d5 78 33
       4.4978274e-06 7.059255e-07 1.2094455e-07 5.7935853e-08
000050 01 0f 80 35 7d dd 19 35 90 41 a9 37 d4 a7 f3 34
       9.54111e-07 5.731925e-07 2.01769e-05 4.5384388e-07
000060 82 1b 13 36 f7 8d b6 36 a6 b0 fb 35 fc 21 93 36
       2.1920719e-06 5.4405496e-06 1.8752369e-06 4.3848977e-06
000070 44 9b 9f 35 80 c5 ef 35 e1 b7 89 33 70 c7 51 37
       1.1891611e-06 1.7864368e-06 6.413007e-08 1.2503806e-05
000080 47 c2 2b 36 79 65 ce 36 2a a1 7a 35 10 dc 5d 36
       2.559407e-06 6.1510914e-06 9.336678e-07 3.305966e-06
000090 ed 8e e5 35 41 cf 6a 35 e1 68 d7 36 a5 15 26 35
       1.7103426e-06 8.7473387e-07 6.419709e-06 6.1871316e-07
0000a0 a8 73 99 34 33 14 b7 33 1e ab 67 36 ce b5 02 36
       2.8582622e-07 8.525276e-08 3.4521286e-06 1.9477334e-06

exp_avg f4 [4, 1]
000000 8a f0 4e ba 08 78 2a b9 61 78 20 39 b2 41 84 b5
       -0.00078941195 -0.00016257179 0.00015303634 -9.853886e-07

exp_avg_sq f4 [4, 1]
000000 fd 99 24 37 d0 43 95 35 b4 1f 79 34 68 ca 2b 35
       9.811015e-06 1.1121101e-06 2.3201466e-07 6.3997004e-07

exp_avg f4 [4]
000000 5a ea 25 3b 93 13 0f 3a 80 47 2a bb d4 64 5a 36
       0.0025316686 0.0005457934 -0.0025982559 3.254322e-06

exp_avg_sq f4 [4]
000000 3b 1e 91 38 55 d2 a2 36 18 18 aa 37 b5 41 d5 36
       6.91977e-05 4.852462e-06 2.0276799e-05 6.355544e-06

exp_avg f4 [4]
000000 5a ea 25 3b 93 13 0f 3a 80 47 2a bb d4 64 5a 36
       0.0025316686 0.0005457934 -0.0025982559 3.254322e-06

exp_avg_sq f4 [4]
000000 3b 1e 91 38 55 d2 a2 36 18 18 aa 37 b5 41 d5 36
       6.91977e-05 4.852462e-06 2.0276799e-05 6.355544e-06
