logs_lstm/epoch=99-step=27400.ckpt (torch, 7410 bytes, 12 tensors)

lstm.weight_ih_l0 f4 [4, 11]
0.5932368 -2.1884215 -0.6765681 0.021107273 0.9579407 0.38332897 0.7633302 -0.4596345
-0.061547708 0.7437546 -0.24146177 0.76089686 -3.682327 -0.17034043 0.07100891 -0.86723
-3.125578 -0.67800725 0.39666378 0.61970043 1.3821933 0.30345353 0.3752438 8.21383
1.118388 0.02836635 1.3428674 1.1047066 -1.0885485 1.6711726 -4.094045 -0.09770394
0.70947754 0.23508263 -2.7224631 -0.27054137 -0.00028426843 -0.7580666 -0.43731382 0.17545441
0.5791039 0.72201264 -2.0694108 -0.23092604
00000000: 5ede 173f 190f 0cc0 9133 2dbf 29e9 ac3c
00000010: 9a3b 753f b243 c43e 9c69 433f 3755 ebbe
00000020: 7319 7cbd b466 3e3f c141 77be 23ca 423f
00000030: 3fab 6bc0 b96d 2ebe 1f6d 913d c902 5ebf
00000040: 7809 48c0 e291 2dbf 8417 cb3e b0a4 1e3f
00000050: b6eb b03f 435e 9b3e f51f c03e d96b 0341
00000060: 5727 8f3f 8c60 e83c 14e3 ab3f 0767 8d3f
00000070: 8f55 8bbf fce8 d53f 6b02 83c0 0119 c8bd
00000080: 52a0 353f 80b9 703e d63c 2ec0 6684 8abe
00000090: dd09 95b9 a710 42bf 99e7 dfbe 52aa 333e
000000a0: 2740 143f d2d5 383f 3a71 04c0 e077 6cbe

lstm.weight_hh_l0 f4 [4, 1]
4.0249166 1.7845819 -3.444684 2.3615952
00000000: 1ecc 8040 2e6d e43f b475 5cc0 6024 1740

lstm.bias_ih_l0 f4 [4]
0.33573884 -0.57249546 0.32993686 -0.45764107
00000000: f6e5 ab3e 108f 12bf 7ced a83e ee4f eabe

lstm.bias_hh_l0 f4 [4]
-0.47867477 0.5113256 -0.05228349 1.0324523
00000000: dc14 f5be 3ce6 023f 3627 56bd 6627 843f

exp_avg f4 [4, 11]
-5.9463797e-05 -0.00020227765 0.00024067862 -4.898815e-06 0.00022984055 -0.00045470038 -0.0002285945 2.8591474e-05
1.8226325e-05 1.4104386e-05 -3.339986e-05 0.00017007094 -5.812913e-05 6.42037e-05 9.464896e-05 8.8075394e-05
-9.349288e-05 -3.097941e-05 -7.837204e-05 -2.8052082e-06 -0.00018200395 -0.00012499641 0.0011528073 6.20958e-05
-0.00010131896 0.0005938913 -0.00010612152 0.00022601648 0.00026819267 -0.00036994688 -5.7788522e-05 -0.0011319265
-0.0005997655 -0.00022174336 -0.00035614084 0.00091087614 -6.9417874e-05 0.0003719922 -0.0008206143 -0.00063211506
-0.00011813718 -3.2973745e-05 0.000101657235 -0.0006678692
00000000: c468 79b8 7e1a 54b9 ad5e 7c39 8060 a4b6
00000010: 5a01 7139 da64 eeb9 deb2 6fb9 b9d7 ef37
00000020: bce4 9837 e0a1 6c37 d416 0cb8 1255 3239
00000030: aecf 73b8 19a5 8638 467e c638 1eb5 b838
00000040: 9c11 c4b8 e3ef 01b8 ab5b a4b8 1c41 3cb6
00000050: 50d8 3eb9 7811 03b9 cb19 973a 6e39 8238
00000060: 347b d4b8 5faf 1b3a 8f8d deb8 d6fe 6c39
00000070: 369c 8c39 6ef5 c1b9 f461 72b8 275d 94ba
00000080: 9539 1dba c883 68b9 6ab8 bab9 ddc7 6e3a
00000090: 7094 91b8 f307 c339 7e1e 57ba 86b4 25ba
000000a0: 6ac0 f7b8 4a4d 0ab8 d030 d538 f113 2fba

exp_avg_sq f4 [4, 11]
1.3460366e-05 2.88535e-06 6.249891e-06 3.4822128e-06 1.8842379e-06 8.862041e-06 1.4615675e-06 5.168665e-07
1.5444331e-07 5.0108197e-06 1.2376647e-06 2.5619229e-06 4.007608e-07 1.1406415e-06 7.198598e-07 2.824552e-07
1.9456124e-06 1.9749646e-07 9.5099004e-08 3.4635324e-08 6.806234e-07 3.0362878e-07 5.080955e-06 1.8615522e-07
4.5004037e-07 1.386536e-06 3.982185e-07 6.9115356e-07 3.4090039e-07 4.3321543e-07 1.4578784e-08 3.0884748e-06
8.637425e-07 9.532717e-06 1.8749657e-06 4.3442e-06 2.890218e-06 1.2276707e-06 7.5604507e-06 1.164083e-06
3.280861e-07 1.5642983e-07 4.231262e-06 9.299473e-07
00000000: d5d3 6137 f0a1 4136 28b6 d136 f6af 6936
00000010: ece5 fc35 2dae 1437 142b c435 ccbe 0a35
00000020: 0ed5 2534 9d22 a836 d61d a635 80ed 2b36
00000030: 2528 d734 2518 9935 643c 4135 59a4 9734
00000040: 5e91 0236 6a0f 5434 3b39 cc33 f1c1 1433
00000050: 15b4 3635 6c02 a334 127d aa36 f5e1 4734
00000060: 149d f134 0419 ba35 bcca d534 b687 3935
00000070: fe04 b734 ad94 e834 2c76 7a32 9843 4f36
00000080: efdb 6735 b5ee 1f37 55a7 fb35 65c4 9136
00000090: 91f5 4136 72c6 a435 c7af fd36 963d 9c35
000000a0: cf23 b034 1bf7 2734 44fa 8d36 7ea1 7935

exp_avg f4 [4, 1]
-0.00010223673 -5.593313e-05 -6.968111e-05 -0.00019241188
00000000: ed67 d6b8 be99 6ab8 c321 92b8 2cc2 49b9

exp_avg_sq f4 [4, 1]
1.4889522e-06 3.1948983e-07 8.111352e-08 1.6503627e-06
00000000: 02d8 c735 5986 ab34 a130 ae33 0882 dd35

exp_avg f4 [4]
6.427163e-05 -0.0001695319 -0.0011528827 0.00021056284
00000000: 92c9 8638 5fc4 31b9 531c 97ba 88ca 5c39

exp_avg_sq f4 [4]
1.3764501e-05 2.6055868e-06 5.092272e-06 9.829474e-06
00000000: 15ee 6637 a4db 2e36 49de aa36 45e9 2437

exp_avg f4 [4]
6.427163e-05 -0.0001695319 -0.0011528827 0.00021056284
00000000: 92c9 8638 5fc4 31b9 531c 97ba 88ca 5c39

exp_avg_sq f4 [4]
1.3764501e-05 2.6055868e-06 5.092272e-06 9.829474e-06
00000000: 15ee 6637 a4db 2e36 49de aa36 45e9 2437
