logs_lstm/epoch=60-step=66734.ckpt (torch, 7474 bytes, 12 tensors)

lstm.weight_ih_l0 f4 [4, 11]
000000 3d 90 d3 3f 9a 32 4a c0 72 43 aa be 27 ee 80 3e
       1.6528393 -3.1593385 -0.33254582 0.25181696
000010 50 a5 23 3f 58 f2 53 bd 01 1d 82 3f 7a 9b 9a bf
       0.6392412 -0.05174479 1.0165101 -1.2078698
000020 c7 e3 97 3f 32 6d f0 3e 8f 56 ae be 0f f2 06 bf
       1.1866387 0.4695831 -0.34050414 -0.527131
000030 b7 91 ea bf 09 84 b0 bf 18 83 e1 be 6f 0f 96 3e
       -1.8325719 -1.3790294 -0.4404533 0.2930865
000040 7c be f9 bf 81 44 84 bf 77 06 84 40 fc 79 3c c0
       -1.9511256 -1.0333406 4.125789 -2.9449453
000050 41 90 81 40 d2 e8 48 3b 94 08 47 bf a6 a3 02 41
       4.048859 0.003065635 -0.77747464 8.164953
000060 d0 2b 23 3f 0e d3 5b 3d 86 6a 8e 3f e6 32 fa 3f
       0.6373873 0.053668074 1.1126258 1.9546783
000070 26 a9 64 bf e4 ca ae 3f 8e d8 56 c0 50 93 af 3c
       -0.893206 1.3655667 -3.3569674 0.021432549
000080 7a 4c 83 3e b9 d3 92 be ec de 35 c0 f9 76 fb be
       0.25644284 -0.28677157 -2.841731 -0.49114206
000090 60 bf 84 3a 69 77 14 bf ef 96 3b bf 6c 36 4e 3e
       0.0010127835 -0.57994705 -0.7327718 0.20137948
0000a0 20 ab 04 3f 0b a6 71 3e eb 3b 10 c0 bd f7 3b be
       0.51823616 0.23598497 -2.253657 -0.18356223

lstm.weight_hh_l0 f4 [4, 1]
000000 d3 2a 76 40 4e e8 0b 41 a9 21 2b c1 74 4b 24 40
       3.8463638 8.744215 -10.695718 2.5671053

lstm.bias_ih_l0 f4 [4]
000000 69 8d 27 3f f1 fb 0c 40 95 a8 85 bf 81 20 7d 3f
       0.6545015 2.2028773 -1.0442072 0.9887772

lstm.bias_hh_l0 f4 [4]
000000 71 50 2d bf f5 6c 49 40 47 0d 81 3d 69 86 dc be
       -0.6770087 3.1472752 0.063013606 -0.43071297

exp_avg f4 [4, 11]
000000 cb 8c 94 ba a5 95 32 b9 60 1d f8 39 02 18 19 ba
       -0.0011333463 -0.0001703115 0.00047324132 -0.0005840064
000010 42 d9 3c b9 9a a9 e6 ba 58 f5 0a b9 10 c9 69 39
       -0.00018010012 -0.0017598153 -0.00013252103 0.00022295513
000020 50 a6 a5 38 2c bb 92 3a 69 fe 40 b9 7e 52 a5 b5
       7.898791e-05 0.0011194698 -0.00018405322 -1.2317466e-06
000030 55 8f 3a b4 9b c3 27 35 66 cf ac b4 20 40 71 32
       -1.7374744e-07 6.249699e-07 -3.21884e-07 1.4042627e-08
000040 48 74 73 b5 83 30 13 b4 40 01 f8 b1 c6 75 dc 32
       -9.0693766e-07 -1.370809e-07 -7.217892e-09 2.5664928e-08
000050 5a f3 a6 35 30 b9 53 b5 7d e3 f7 3a 28 89 6e b8
       1.2438788e-06 -7.887311e-07 0.0018912401 -5.687136e-05
000060 91 52 08 ba 35 9c 64 3a 58 64 7e 39 28 ab 75 3a
       -0.00052002916 0.00087207864 0.00024260709 0.00093715126
000070 12 f1 db b8 94 e6 ff b8 65 4d a8 b8 c4 94 f9 ba
       -0.000104876366 -0.00012202296 -8.02528e-05 -0.0019041528
000080 9a 54 4a 39 e8 45 1d bb cd 64 e4 b9 02 96 b9 3a
       0.00019295738 -0.0023997966 -0.0004356265 0.0014159086
000090 14 08 d7 ba 70 65 2e b9 5b 16 0d bb 0e a1 cb b9
       -0.0016405606 -0.00016631722 -0.0021528217 -0.00038839172
0000a0 a2 9a 8e 38 ca 3d 69 38 18 0f 1a 3b 18 45 f5 ba
       6.79989e-05 5.5609074e-05 0.0023507532 -0.0018712608

exp_avg_sq f4 [4, 11]
000000 38 56 97 37 03 72 63 36 fe 25 c7 36 ba 5c 54 36
       1.8040751e-05 3.3892e-06 5.935085e-06 3.1644436e-06
000010 3d db 55 36 db 5c 5b 37 12 63 18 36 ee 23 dd 35
       3.1867087e-06 1.3075037e-05 2.2707432e-06 1.647624e-06
000020 9e 10 44 34 5e 53 21 37 6b b0 5c 35 4e 02 48 36
       1.8259968e-07 9.615758e-06 8.221311e-07 2.9803664e-06
000030 ff e1 1a 35 03 b7 95 35 a3 d6 0f 35 d8 0a 19 35
       5.769834e-07 1.1154629e-06 5.358399e-07 5.701272e-07
000040 1c 3c 05 36 15 a8 cf 34 49 68 9d 34 d2 10 21 33
       1.9853533e-06 3.867905e-07 2.9319406e-07 3.750103e-08
000050 3d d9 c6 35 86 1f 9b 34 9e 54 8d 37 4c 6c b2 35
       1.4815374e-06 2.8893936e-07 1.6847913e-05 1.3293552e-06
000060 79 f7 4a 36 f4 6b 5f 36 cf 0b 02 36 42 1b a0 36
       3.0244394e-06 3.3292426e-06 1.9378383e-06 4.771545e-06
000070 13 a2 b8 35 b9 c5 bc 35 17 84 a9 33 94 e5 10 37
       1.3756238e-06 1.4064636e-06 7.893703e-08 8.636522e-06
000080 9b 99 78 35 39 7a 8d 37 5b ef 6a 36 d0 2e 02 37
       9.2610725e-07 1.6865424e-05 3.500804e-06 7.759503e-06
000090 a8 96 95 36 89 9c 59 36 db 78 6a 37 e7 9e 2a 36
       4.4580847e-06 3.2426635e-06 1.3975626e-05 2.5424467e-06
0000a0 59 6c 60 35 3d 5a b9 34 20 9a fe 36 f2 6f 23 36
       8.360417e-07 3.4524592e-07 7.5877324e-06 2.4354053e-06

exp_avg f4 [4, 1]
000000 ed fc 40 b9 51 04 94 b4 26 08 10 39 2a 07 2a ba
       -0.00018404769 -2.757029e-07 0.00013735946 -0.0006486053

exp_avg_sq f4 [4, 1]
000000 16 3a 99 35 77 a6 99 34 de e9 65 35 ed fb 4a 36
       1.1416294e-06 2.861959e-07 8.564947e-07 3.0246986e-06

exp_avg f4 [4]
000000 a3 59 94 3a b5 e1 a4 35 09 fc f7 ba a2 af 1b 3b
       0.0011318218 1.2284642e-06 -0.0018919717 0.0023755808

exp_avg_sq f4 [4]
000000 56 3e 99 37 bb d3 4c 36 75 5e 8e 37 d3 7c 91 37
       1.8268049e-05 3.0521612e-06 1.6971704e-05 1.7343473e-05

exp_avg f4 [4]
000000 a3 59 94 3a b5 e1 a4 35 09 fc f7 ba a2 af 1b 3b
       0.0011318218 1.2284642e-06 -0.0018919717 0.0023755808

exp_avg_sq f4 [4]
000000 56 3e 99 37 bb d3 4c 36 75 5e 8e 37 d3 7c 91 37
       1.8268049e-05 3.0521612e-06 1.6971704e-05 1.7343473e-05
