pred_logs_lstm/86282_pred24/epoch=99-step=27400.ckpt (torch, 7474 bytes, 12 tensors)

lstm.weight_ih_l0 f4 [4, 11]
0	0xbe53c970	-0.20682311
1	0xc00ca4f6	-2.1975684
2	0xbd9d51eb	-0.0768164
3	0xbb3b915b	-0.0028620574
4	0xbdd24dbc	-0.10268733
5	0xbf308369	-0.68950516
6	0x3b90ff6a	0.004424979
7	0xbee485d9	-0.44633368
8	0x3d343a8a	0.04400114
9	0x3dc79d07	0.097467475
10	0xbe5cfb10	-0.21580148
11	0x3edffeb2	0.43749005
12	0x4058ef82	3.3896184
13	0x3fd706f6	1.6798999
14	0xbdcb2998	-0.09920043
15	0x408d613c	4.4181194
16	0x3f46dfd0	0.7768526
17	0xbfa1b950	-1.2634678
18	0x3f7b6545	0.982014
19	0xbfc2208c	-1.5166183
20	0xbfef18d1	-1.8679448
21	0x3dc3443a	0.095344976
22	0xbf3a9894	-0.72889066
23	0x40994140	4.789215
24	0x3f54dd0e	0.831498
25	0x3c2e270c	0.010629427
26	0x3fb4d1c6	1.4126518
27	0x3f284f20	0.65745735
28	0xbf25b8ec	-0.64735293
29	0x3dc22a9f	0.094807856
30	0xbfedbcd6	-1.8573253
31	0xbff106b7	-1.8830174
32	0x3df763ea	0.12079604
33	0x3e0c3ba7	0.1369463
34	0xc0bc58bd	-5.8858323
35	0xbf77d5a2	-0.9681035
36	0x3d646790	0.055762827
37	0xc030264b	-2.7523372
38	0xbf68a42b	-0.908755
39	0x3fcf933f	1.6216811
40	0x3f7bfcbc	0.9843252
41	0x40a0fca0	5.030838
42	0xc04e5651	-3.2240183
43	0xbe9635b4	-0.29337847

lstm.weight_hh_l0 f4 [4, 1]
0	0xbdc81c8c	-0.0977107
1	0x4036e143	2.857499
2	0xc040a15c	-3.0098486
3	0x3fa199f9	1.2625114

lstm.bias_ih_l0 f4 [4]
0	0xbefc77d5	-0.49310175
1	0x3e63dc75	0.22252066
2	0xbf3a307a	-0.7273022
3	0x3f1be947	0.6090283

lstm.bias_hh_l0 f4 [4]
0	0xbfb1c4d9	-1.3888198
1	0x3f5b5e1d	0.8569048
2	0xbf673d2c	-0.90327716
3	0x3e8bf4cd	0.27335206

exp_avg f4 [4, 11]
0	0x3990c9b8	0.00027616112
1	0x383149e0	4.226889e-05
2	0x39844188	0.00025225827
3	0x39462748	0.00018897385
4	0x39ecaf6c	0.00045144127
5	0x39b525de	0.00034551224
6	0xb98a8b2d	-0.00026425105
7	0x376d69f8	1.4150974e-05
8	0x3805da14	3.1912772e-05
9	0xb9d5f990	-0.00040812464
10	0xb7d5e630	-2.5498768e-05
11	0xb9112e76	-0.00013845586
12	0xb5fcefc0	-1.884524e-06
13	0xb7929520	-1.7473998e-05
14	0xb881c584	-6.1879895e-05
15	0xb7158c97	-8.913826e-06
16	0x37f67e08	2.9384173e-05
17	0xb8a6e0e2	-7.9573845e-05
18	0x352f6480	6.5338827e-07
19	0x3726e1c0	9.946933e-06
20	0x39031a3a	0.00012502904
21	0x3894eef3	7.101698e-05
22	0xb6fa3f3a	-7.457941e-06
23	0xb77cae10	-1.5060898e-05
24	0x37ee7e74	2.8430695e-05
25	0xb7959ac3	-1.783425e-05
26	0x366e0d4c	3.5472503e-06
27	0xb81d03aa	-3.743513e-05
28	0xb6da755c	-6.5105687e-06
29	0xb6e041d3	-6.683383e-06
30	0x355b62dd	8.172772e-07
31	0xb7ad1f72	-2.063785e-05
32	0xb7550e14	-1.2699067e-05
33	0xb92d0410	-0.00016500079
34	0x386db708	5.6675664e-05
35	0x393a7060	0.00017780205
36	0xb7c7d640	-2.3822417e-05
37	0x395336dd	0.00020142966
38	0xb83be4a0	-4.4797198e-05
39	0xb9a55d4d	-0.00031540767
40	0xb88e30ab	-6.780153e-05
41	0x372638f0	9.907628e-06
42	0x390ffac8	0.00013730966
43	0xb8a3c678	-7.8094134e-05

exp_avg_sq f4 [4, 11]
0	0x37cd30db	2.4460654e-05
1	0x3689d195	4.1073167e-06
2	0x36e49a3f	6.812886e-06
3	0x36e6869c	6.8702047e-06
4	0x36ada22b	5.1746806e-06
5	0x3784c6ee	1.582826e-05
6	0x35c40c10	1.4606649e-06
7	0x35e31b5f	1.6920784e-06
8	0x3513f9a1	5.5125025e-07
9	0x371d743e	9.384994e-06
10	0x35552871	7.9407533e-07
11	0x35eec2a2	1.7789027e-06
12	0x34d51d1d	3.9695524e-07
13	0x35574a26	8.020164e-07
14	0x3517026d	5.6255413e-07
15	0x34162afe	1.3985479e-07
16	0x359b040a	1.1549575e-06
17	0x34644aa9	2.1261316e-07
18	0x33e74d25	1.0770808e-07
19	0x3221ae27	9.411031e-09
20	0x3526ecac	6.218422e-07
21	0x341332f5	1.370898e-07
22	0x3803fdc3	3.1469168e-05
23	0x35e380a2	1.6950255e-06
24	0x36b57e92	5.408955e-06
25	0x37296f80	1.0099146e-05
26	0x36230969	2.429437e-06
27	0x3732e9fe	1.0664107e-05
28	0x3606adef	2.0068799e-06
29	0x3623ec09	2.4426283e-06
30	0x33d5cc18	9.95571e-08
31	0x37a05da3	1.911709e-05
32	0x35a4907b	1.2261002e-06
33	0x3657dd4b	3.2166306e-06
34	0x34b89b6f	3.4385764e-07
35	0x354281d7	7.2459574e-07
36	0x35670949	8.606772e-07
37	0x34dc4e31	4.1035085e-07
38	0x3601ab71	1.932229e-06
39	0x34936ec3	2.7461473e-07
40	0x34400cc4	1.7886038e-07
41	0x32a7c75c	1.9532017e-08
42	0x361bfb4a	2.324307e-06
43	0x340b2f48	1.2962585e-07

exp_avg f4 [4, 1]
0	0x38b09a54	8.42108e-05
1	0x36d49d14	6.3363786e-06
2	0xb749d78e	-1.2030721e-05
3	0x38a9ba7e	8.093285e-05

exp_avg_sq f4 [4, 1]
0	0x36792f0e	3.713128e-06
1	0x3486cf90	2.5110467e-07
2	0x35ae9c7d	1.3009554e-06
3	0x348be378	2.6056273e-07

exp_avg f4 [4]
0	0xb98dcdd0	-0.00027046958
1	0x3910bb96	0.00013802791
2	0x37054adc	7.944847e-06
3	0x392abf90	0.00016283826

exp_avg_sq f4 [4]
0	0x37d4e414	2.5378577e-05
1	0x35f29546	1.8073849e-06
2	0x3804a6e0	3.1626667e-05
3	0x365a6e5f	3.2548776e-06

exp_avg f4 [4]
0	0xb98dcdd0	-0.00027046958
1	0x3910bb96	0.00013802791
2	0x37054adc	7.944847e-06
3	0x392abf90	0.00016283826

exp_avg_sq f4 [4]
0	0x37d4e414	2.5378577e-05
1	0x35f29546	1.8073849e-06
2	0x3804a6e0	3.1626667e-05
3	0x365a6e5f	3.2548776e-06
