pred_ff/86282_pred/epoch=99-step=54700.ckpt (torch, 24858 bytes, 18 tensors)

linear1.weight f4 [30, 11]
0.067649834 0.62950796 -0.16725253 -0.20279482 0.23829076 0.43541086 -0.25235128 0.46868148
-0.08003688 -0.0503392 0.52110326 -0.28563163 0.63136524 -0.14611906 0.34560955 0.29570475
0.25699577 -0.22569719 0.39096093 0.14798406 -0.025321875 0.46915397 0.20487039 -0.5272497
0.34352744 -0.015446449 0.77318656 -0.03593749 -0.1321911 -0.19614108 0.4764491 -0.059137963
0.005183241 0.17877835 -0.25892872 0.15355995 0.011965866 0.51716006 -0.18696155 0.46539906
-0.062266696 0.78449214 0.16061412 0.09487026 0.10199848 0.0011673821 -0.2617967 0.029019509
0.0835794 0.10528213 0.6656954 -0.07296392 -0.81790125 -0.23966537 0.24358259 -0.060501467
0.055802304 0.102218695 -0.017087417 -0.09484906 0.07766767 0.077240825 0.11135413 -0.06352381
0.10353321 -0.91531736 -0.06131898 -0.23049223 -0.24773198 -0.005130382 0.43434313 -0.48896337
0.14706 -0.4244291 0.10810437 0.2938298 -0.07221007 0.23509455 -0.43737972 0.09936124
0.027372293 0.9359784 0.29644525 -0.17018798 0.10050557 0.026095072 -0.38897172 0.072292745
0.28795487 -0.806785 -0.09542522 0.000617295 0.23524246 -0.1764158 0.027266648 0.43403554
0.26585913 -0.31051764 -0.018012855 0.1199642 -0.5190169 -0.9629799 0.014571685 -0.0528872
0.050958645 -0.27949905 0.47808316 -0.6459512 0.0017232746 -0.19528003 0.6378632 0.21546417
0.49776018 0.036179062 -0.40775168 0.04885763 0.077414095 -0.2777919 0.8685078 -0.056257952
0.09628015 0.07051365 0.7209492 0.36988127 -0.012527865 0.90212804 0.44140103 0.5039445
-0.02754949 0.16331612 0.0048997104 -0.04566757 0.15247406 -0.6279268 -0.14621642 -0.004233476
-0.17291006 -0.54148155 0.3316484 0.34980842 -0.24179183 -0.020965997 0.021879053 0.103184134
-0.11762378 -0.086206675 0.0029512867 -0.008194803 -0.2641337 -0.11231752 -0.010606813 -0.07980289
0.016860016 0.72232723 0.24160962 0.44203365 0.094647564 -0.022624793 -0.7440143 0.07038634
0.2366869 0.28669375 0.3331455 -0.26615703 -0.62610036 -0.105045386 0.22575101 0.13690436
0.008185072 0.19810677 0.009423396 -0.041638773 0.047702298 -0.14686233 0.8460593 0.01638332
0.09990976 0.10456232 0.16251996 -0.004465667 -0.057781197 0.038230874 -0.103372134 0.10230992
-0.31847 -0.88267726 0.0039816583 0.035192057 -0.5522908 -0.054782018 0.0040368717 -0.9358644
0.06375252 0.1951078 0.1027763 0.44219747 0.05380322 -0.03628531 -0.12569126 0.16540131
-0.023281967 -0.0075458507 0.17624168 0.25435877 0.14691249 -0.15044732 -0.3434926 -0.73446614
-0.1784346 0.15312277 0.32650638 0.6253167 0.003825526 0.47658214 -0.09515972 -0.38917065
0.5464948 -1.059071 -0.075476736 0.026345594 0.11308921 -0.67324454 0.086111136 -0.012253213
-0.33305 -0.39418834 -0.19733495 -0.06407408 0.5184444 -0.1492529 -0.5948725 0.16313474
0.4549068 -0.2666864 0.007986035 0.77127916 -0.25696254 -0.33354387 -0.18020076 -0.39383018
-0.68529445 -0.02650751 0.10796135 0.20562986 0.21646415 0.015464916 0.15327832 0.10392027
0.0451152 0.12997843 -0.10823451 -0.8116218 0.08740919 0.12638998 -0.3544048 -0.0653823
00000000: ff8b 8a3d 6f27 213f 3f44 2bbe 72a9 4fbe
00000010: 7e02 743e 2cee de3e 3034 81be 05f7 ef3e
00000020: 60ea a3bd 7a30 4ebd 0667 053f 4f3e 92be
00000030: 27a1 213f 3ca0 15be bcf3 b03e 9d66 973e
00000040: f394 833e 2a1d 67be 082c c83e 2289 173e
00000050: d26f cfbc f334 f03e 8bc9 513e d6f9 06bf
00000060: d4e2 af3e 1a13 7dbc 8eef 453f 3133 13bd
00000070: 1b5d 07be 35d9 48be 23f1 f33e a63a 72bd
00000080: 2dd8 a93b ac11 373e 4e92 84be d23e 1d3e
00000090: 7b0c 443c 9a64 043f d972 3fbe c948 ee3e
000000a0: 5d0b 7fbd 7ad4 483f 0778 243e 574b c23d
000000b0: 94e4 d03d d802 993a 380a 86be 52ba ed3c
000000c0: ad2b ab3d 289e d73d 046b 2a3f 1c6e 95bd
000000d0: fa61 51bf d76a 75be b76d 793e 63d0 77bd
000000e0: f590 643d 0958 d13d e9fa 8bbc 3940 c2bd
000000f0: 3a10 9f3d 7030 9e3d a20d e43d c518 82bd
00000100: 3809 d43d 3d52 6abf 9c29 7bbd 2806 6cbe
00000110: 74ad 7dbe c31c a8bb 3962 de3e 6859 fabe
00000120: e696 163e c54e d9be d365 dd3d dc70 963e
00000130: e0e2 93bd a0bc 703e 3cf0 dfbe e87d cb3d
00000140: dc3b e03c 489c 6f3f acc7 973e c245 2ebe
00000150: ddd5 cd3d 55c5 d53c 4d27 c7be 380e 943d
00000160: d26e 933e 7689 4ebf 4c6e c3bd f7d1 213a
00000170: 66e3 703e 58a6 34be 4e5e df3c e839 de3e
00000180: b01e 883e 2bfc 9ebe b28f 93bc caaf f53d
00000190: 4bde 04bf da85 76bf 14be 6e3c 40a0 58bd
000001a0: 03ba 503d 801a 8fbe 51c7 f43e 0f5d 25bf
000001b0: 80df e13a 7df7 47be 014b 233f a4a2 5c3e
000001c0: 6cda fe3e 7f30 143d d4c4 d0be f01e 483d
000001d0: 488b 9e3d bd3a 8ebe 8756 5e3f bd6e 66bd
000001e0: 872e c53d 7669 903d 2090 383f 1461 bd3e
000001f0: ad41 4dbc ddf1 663f 51ff e13e 8202 013f
00000200: 78af e1bc 573c 273e c08d a03b eb0d 3bbd
00000210: 2922 1c3e d0bf 20bf c2b9 15be f8b8 8abb
00000220: 560f 31be 899e 0abf d2cd a93e 171a b33e
00000230: 4798 77be e2c0 abbc b33b b33c 3452 d33d
00000240: bde4 f0bd 208d b0bd 606a 413b 7f43 06bc
00000250: 883c 87be ba06 e6bd 33c8 2dbc b36f a3bd
00000260: 041e 8a3c 70ea 383f 8368 773e 3c52 e23e
00000270: 95d6 c13d a157 b9bc b977 3ebf b726 903d
00000280: 0d5e 723e 86c9 923e 0c92 aa3e bc45 88be
00000290: 1d48 20bf 0922 d7bd 462b 673e a830 0c3e
000002a0: ae1a 063c 80dc 4a3e 9664 1a3c 6b8d 2abd
000002b0: 7c63 433d 1463 16be 5897 583f 5036 863c
000002c0: 7d9d cc3d c524 d63d a26b 263e bb54 92bb
000002d0: faab 6cbd fa97 1c3d c5b4 d3bd dd87 d13d
000002e0: 800e a3be 23f7 61bf 9278 823b 8c25 103d
000002f0: ee62 0dbf 1c63 60bd bc47 843b cf94 6fbf
00000300: ae90 823d 57ca 473e 617c d23d b567 e23e
00000310: c460 5c3d e89f 14bd 36b5 00be f65e 293e
00000320: d3b9 bebc 2f43 f7bb b378 343e 503b 823e
00000330: 3a70 163e dd0e 1abe 43de afbe f905 3cbf
00000340: 8fb7 36be 37cc 1c3e d82b a73e c114 203f
00000350: adb5 7a3b 9302 f43e 19e3 c2bd 6041 c7be
00000360: 15e7 0b3f a38f 87bf 8c93 9abd b7d2 d73c
00000370: 519b e73d c159 2cbf 095b b03d b3c1 48bc
00000380: 8885 aabe 0ed3 c9be 2c12 4abe 4539 83bd
00000390: c6b8 043f c1d5 18be 9049 18bf cb0c 273e
000003a0: 8be9 e83e 1f8b 88be dcd7 023c 8d72 453f
000003b0: 9890 83be 43c6 aabe 8c86 38be 1ca4 c9be
000003c0: 756f 2fbf 4726 d9bc d71a dd3d a290 523e
000003d0: c7a8 5d3e 8f60 7d3c fef4 1c3e 27d4 d43d
000003e0: b7ca 383d 1119 053e 0eaa ddbd 72c6 4fbf
000003f0: 9703 b33d 606c 013e 8c74 b5be 28e7 85bd

linear1.bias f4 [30]
0.046891995 -0.1278902 -0.21480565 0.10312181 -0.029291024 -0.16885681 -0.14610176 0.08723082
-0.25616607 -0.12953213 0.108738944 0.118562855 -0.40339568 -0.32511103 -0.20700338 -0.18078819
-0.24709459 -0.035078894 0.042458348 -0.36803305 -0.17989473 -0.05511512 -0.020424804 -0.07210721
0.16691814 -0.078899324 -0.18235865 -0.5255908 0.09046427 0.37484506
00000000: d211 403d a6f5 02be 03f6 5bbe 8731 d33d
00000010: bbf3 efbc cde8 2cbe b39b 15be 12a6 b23d
00000020: 3328 83be 12a4 04be 86b2 de3d 15d1 f23d
00000030: e189 cebe f474 a6be b2f8 53be 8a20 39be
00000040: 5d06 7dbe e3ae 0fbd cee8 2d3d d46e bcbe
00000050: 5336 38be 64c0 61bd eb51 a7bc f2ac 93bd
00000060: 97ec 2a3e f895 a1bd 3abc 3abe 1e8d 06bf
00000070: 5545 b93d b1eb bf3e

linear2.weight f4 [30, 30]
0.18358248 0.13865052 -0.11621361 0.101728804 0.8253688 0.0136650745 0.31012097 -0.25285298
-0.33310986 0.76740193 -1.911378 -0.30289546 -0.20991316 -0.046144925 0.4803512 0.056831677
-1.0422469 -0.04122739 -0.6044162 -1.7049996 -0.11617201 0.341702 -1.210971 0.63191944
-0.1758675 -0.33191094 -0.34019393 0.19417948 -0.27999598 0.24398316 0.039122116 -0.17091002
-0.020847252 -0.08456052 -0.019255009 -0.19089209 0.08675576 -0.15330318 -0.11691775 -0.097685106
-0.02724342 -0.036485247 0.030971868 0.018094463 -0.101664945 0.008908797 0.021653578 -0.11999383
-0.10282325 -0.16013014 -0.08458659 -0.10506529 -0.17921783 0.08814836 -0.16157605 0.08143605
0.10282878 -0.047282953 -0.09486567 -0.023937283 0.0065623857 -0.124303885 -0.13344838 -0.103964485
-0.17977382 -0.17207706 -0.1738495 -0.010918483 -0.09615618 -0.21433358 0.11265424 0.09575813
-0.017807487 -0.12958649 -0.14196615 -0.025553111 0.037065312 0.03944501 -0.010132226 -0.051201437
-0.10883015 -0.015388987 0.056242242 -0.017164618 0.0071212808 -0.17751615 -0.18253486 0.10254106
-0.14466044 0.03664223 -0.108095504 0.06400896 0.0423996 -0.11359988 0.06511465 -0.1592562
0.07045505 -0.10270908 0.10933879 0.07667282 0.03214127 -0.051957056 0.065669335 -0.018409392
-0.050764695 -0.06387413 0.023072526 -0.053914413 -0.07393519 -0.14527753 0.013285056 0.01692248
0.10623672 -0.12575011 -0.056814805 -0.10880892 0.024841929 -0.16180037 -0.08916568 0.073683515
0.08655712 0.104351476 -0.089892894 -0.031018913 0.16803043 0.048964016 0.11971624 0.20892738
0.39867482 0.5642527 0.11010466 -1.2242442 0.24399693 0.10241206 0.070558935 -0.1535983
0.1655319 0.19480187 -0.3072661 0.09664991 -0.124981456 -0.026033543 -0.29767275 0.17424975
-0.161937 0.19315861 -0.22925416 -0.5005807 -0.26199847 0.05897306 0.4973651 0.28294954
-0.33812308 0.18220598 -0.92874557 -0.060153406 0.03301097 -0.3314471 -0.34005883 -0.666722
0.4917319 -0.7735218 -0.039746698 -0.033055678 0.06411866 -0.67340904 -0.6872333 -0.38921425
-1.6158557 0.6262783 0.050251916 -1.1463013 -0.63972986 -0.038817357 -0.014917516 -0.1486075
-0.018049795 0.005061687 0.08163921 0.25619796 -0.1706042 -0.13356781 -0.05088994 -0.17720114
-0.046765994 -0.22416617 -0.06724929 -0.12028567 -0.086411476 0.060527872 0.16627146 -0.18273437
-0.07496311 -0.017975174 0.123316795 -0.0786658 -0.041196972 -0.20925167 -0.15553434 0.047438778
-0.17278272 0.035465114 0.074371144 -0.015278721 -0.038270153 0.12654531 0.007256556 -0.11977037
0.13349925 -0.2116094 0.1398283 0.15691076 -0.42859137 0.094907284 -0.5627397 0.019345472
0.048072804 0.25277674 -0.16809179 0.11369792 -0.77575547 0.08031575 0.32819694 0.1912134
-0.90103793 0.3219684 0.36790738 -0.8072162 0.19372436 0.45911807 0.21578279 0.16545705
-0.11076783 0.113388024 0.019694157 -0.37163937 -2.4720647 0.18231666 0.028298855 0.22798817
0.4575628 0.23860548 -0.2500895 0.088169575 -0.012986494 -0.8079319 0.114689425 0.019504799
0.124404274 -0.3336264 -0.034921955 0.16895658 0.33064488 -0.26949418 -0.17405793 0.26363888
00000000: 0cfd 3b3e 67fa 0d3e 6701 eebd 3157 d03d
00000010: 5f4b 533f 7ae3 5f3c 2dc8 9e3e f275 81be
00000020: 608d aabe 7474 443f 09a8 f4bf 1d15 9bbe
00000030: 7af3 56be 7602 3dbd 98f0 f53e 55c8 683d
00000040: 5968 85bf 0dde 28bd 05bb 1abf 6d3d dabf
00000050: 97eb edbd 91f3 ae3e 1901 9bbf 79c5 213f
00000060: 9c16 34be 3bf0 a9be e62d aebe fcd6 463e
00000070: a25b 8fbe b9d6 793e 833e 203d 0903 2fbe
00000080: dbc7 aabc 112e adbd aebc 9dbc 3779 43be
00000090: 01ad b13d 82fb 1cbe 9372 efbd 210f c8bd
000000a0: 982d dfbc 8e71 15bd b7b8 fd3c d73a 943c
000000b0: b635 d0bd 34f6 113c d862 b13c 53bf f5bd
000000c0: ff94 d2bd 28f9 23be bc3b adbd 792c d7bd
000000d0: e184 37be 2187 b43d 3174 25be f2c7 a63d
000000e0: e597 d23d c5ab 41bd ef48 c2bd 1f18 c4bc
000000f0: 4809 d73b 0993 febd b1a6 08be 55eb d4bd
00000100: a116 38be f834 30be 9a05 32be 70e3 32bc
00000110: 88ed c4bd 437a 5bbe 44b7 e63d d71c c43d
00000120: 02e1 91bc 52b2 04be 935f 11be c254 d1bc
00000130: ccd1 173d 1791 213d a301 26bc 99b8 51bd
00000140: 57e2 debd 1722 7cbc 445e 663d d09c 8cbc
00000150: a259 e93b cbc6 35be 6bea 3abe 0c01 d23d
00000160: de21 14be 2a16 163d 2d61 ddbd 2117 833d
00000170: 34ab 2d3d 0ea7 e8bd d45a 853d 0f14 23be
00000180: bd4a 903d 2359 d2bd 04ed df3d a406 9d3d
00000190: 90a6 033d ecd0 54bd a57d 863d 4bcf 96bc
000001a0: a4ee 4fbd 71d0 82bd 9802 bd3c 5cd5 5cbd
000001b0: 556b 97bd a2c3 14be 90a9 593c 03a1 8a3c
000001c0: a392 d93d a3c4 00be a4b6 68bd 36d7 debd
000001d0: 4d81 cb3c ffae 25be 7f9c b6bd 62e7 963d
000001e0: dc44 b13d 3ab6 d53d c419 b8bd 601b febc
000001f0: 2b10 2c3e 7e8e 483d ca2d f53d 0ff1 553e
00000200: 1b1f cc3e dd72 103f 8d7e e13d 09b4 9cbf
00000210: 55da 793e 6abd d13d 3481 903d df48 1dbe
00000220: 3281 293e 247a 473e fb51 9dbe 63f0 c53d
00000230: 47f6 ffbd 4c44 d5bc 9068 98be 876e 323e
00000240: d0d2 25be 5fcb 453e 9ac1 6abe 0f26 00bf
00000250: aa24 86be bc8d 713d a3a6 fe3e c3de 903e
00000260: 781e adbe 3494 3a3e 45c2 6dbf 6b63 76bd
00000270: 8336 073d 6fb3 a9be 311c aebe 4bae 2abf
00000280: 49c4 fb3e 8605 46bf 6fcd 22bd 6465 07bd
00000290: a550 833d 8964 2cbf 86ee 2fbf 1747 c7be
000002a0: 5cd4 cebf c653 203f f4d4 4d3d 00ba 92bf
000002b0: 56c5 23bf f3fe 1ebd 9968 74bc 912c 18be
000002c0: 2add 93bc 82dc a53b 7532 a73d 612c 833e
000002d0: deb2 2ebe 00c6 08be f871 50bd 3774 35be
000002e0: b38d 3fbd d18b 65be ffb9 89bd 5558 f6bd
000002f0: 80f8 b0bd 13ec 773d 1143 2a3e b81e 3bbe
00000300: 4286 99bd ac40 93bc 848d fc3d 891b a1bd
00000310: 28be 28bd 1246 56be 6544 1fbe 2a4f 423d
00000320: f4ed 30be de43 113d e64f 983d 9a53 7abc
00000330: 2ac1 1cbd 1895 013e 67c8 ed3b 2b4a f5bd
00000340: 07b4 083e 22b0 58be 262f 0f3e 37ad 203e
00000350: 5470 dbbe c05e c23d b50f 10bf 657a 9e3c
00000360: fde7 443d f46b 813e 4120 2cbe 75da e83d
00000370: e997 46bf 957c a43d 6e09 a83e 72cd 433e
00000380: 6caa 66bf 0bd9 a43e 5b5e bc3e b9a5 4ebf
00000390: ae5f 463e 8611 eb3e 2af6 5c3e 936d 293e
000003a0: 3eda e2bd fb37 e83d a455 a13c 8447 bebe
000003b0: 4f36 1ec0 38b1 3a3e 00d3 e73c bb75 693e
000003c0: ac45 ea3e ff54 743e bb0b 80be 4092 b43d
000003d0: 4ec5 54bc a0d4 4ebf 4ae2 ea3d 87c8 9f3c
000003e0: abc7 fe3d 14d1 aabe 530a 0fbd f402 2d3e
000003f0: 494a a93e 24fb 89be 3e3c 32be adfb 863e

linear2.bias f4 [30]
-0.111214966 -0.14649522 -0.0781298 -0.108722515 0.028899742 0.16696577 -0.114930324 -0.32830364
-0.0583753 -0.5165339 -0.36758617 -0.08523348 -0.040801246 0.12590672 -0.14169668 0.21109408
-0.12741673 -0.21120667 0.030697659 -0.05369521 -0.14024848 0.051105473 0.27527282 0.13651064
0.031378895 -0.078167975 -0.07487642 -0.042932916 0.030058555 0.28481898
00000000: acc4 e3bd d802 16be 8402 a0bd e9a9 debd
00000010: 27bf ec3c 13f9 2a3e 9760 ebbd 6a17 a8be
00000020: f01a 6fbd 913b 04bf 4134 bcbe e48e aebd
00000030: 351f 27bd b1ed 003e ef18 11be 0c29 583e
00000040: 8879 02be 9046 58be a879 fb3c 82ef 5bbd
00000050: 4c9d 0fbe f953 513d 8ff0 8c3e 72c9 0b3e
00000060: 2887 003d 8816 a0bd cf58 99bd 6dda 2fbd
00000070: 5c3d f63c cbd3 913e

linear3.weight f4 [2, 30]
0.24321303 0.008527815 -0.034402844 0.1297596 0.12781939 -0.104862496 0.026107248 -0.34825626
0.1562405 0.19203785 -0.3166473 0.13892013 0.24832667 0.017879637 0.4308084 -0.03202416
-0.21011852 0.006318923 0.19518873 0.23422663 0.08502107 0.24167696 0.14596775 -0.13671046
0.053786214 -0.22281638 0.32007584 0.0974833 0.061663836 -0.23708026 -0.018048033 0.014108168
0.05632279 -0.08745582 0.015089261 -0.24511355 0.08621739 0.12882164 0.16656066 0.23299119
-0.16417283 0.14047498 0.2647351 -0.08494329 0.21327344 -0.12557152 0.2616751 -0.12722374
0.0501852 0.15885319 -0.10281691 -0.111896455 -0.14170098 -0.07289736 0.19881652 0.1048604
0.28661758 -0.07521314 0.27254575 -0.23133416
00000000: d60c 793e 40b8 0b3c ffe9 0cbd b3df 043e
00000010: 16e3 023e 26c2 d6bd dede d53c a54e b2be
00000020: 82fd 1f3e 92a5 443e 981f a2be 1441 0e3e
00000030: 5949 7e3e 5178 923c eb92 dc3e c42b 03bd
00000040: 4f29 57be f80e cf3b 8edf 473e 1bd9 6f3e
00000050: 871f ae3d 2a7a 773e 9278 153e d4fd 0bbe
00000060: ef4e 5c3d fa29 64be fbe0 a33e 53a5 c73d
00000070: 3893 7c3d 2bc5 72be 78d9 93bc f225 673c
00000080: bab2 663d 091c b3bd f338 773c 0cff 7abe
00000090: be92 b03d d2e9 033e e18e 2a3e 3e95 6e3e
000000a0: ec1c 28be acd8 0f3e 5c8b 873e bff6 adbd
000000b0: 5a64 5a3e d295 00be 47fa 853e f146 02be
000000c0: ff8e 4d3d 69aa 223e ac91 d2bd f829 e5bd
000000d0: 101a 11be 364b 95bd 8f96 4b3e 0dc1 d63d
000000e0: 8abf 923e 5909 9abd 1e8b 8b3e dde2 6cbe

linear3.bias f4 [2]
-0.23748118 -0.15104935
00000000: 442e 73be aeac 1abe

exp_avg f4 [30, 11]
3.168825e-06 0.00014405778 -0.00067110325 0.00014718692 -0.0005177865 0.00040619008 0.0003357188 1.731515e-05
-2.6371417e-06 -0.00013886672 -0.00034528505 5.9002545e-05 0.00018630765 -0.00067591283 0.00014587247 -0.000531493
0.0003304172 0.00039002282 -3.171456e-05 -1.01109035e-05 -0.00018141605 -0.00035404944 6.1119514e-05 3.95145e-05
-5.2331452e-05 3.234278e-05 6.0291222e-06 8.116357e-05 4.740235e-05 -7.92243e-06 -2.6600699e-06 -5.0704923e-05
0.00015818543 -0.0006298401 -0.00026840979 0.00017580067 -0.00027577626 0.00026088132 0.00014458575 -0.00011032214
0.00023905777 2.7614842e-05 0.0006848088 -0.00040388442 0.00031905097 -0.00021647115 0.00018358906 0.0001824385
6.0150924e-05 -7.2210474e-05 -0.00027136714 -2.069987e-05 -8.05753e-06 -0.00038770505 -0.0001243382 0.0011963418
0.00035887357 -0.00053616124 0.0005640071 3.3858167e-05 0.0010837631 -6.124789e-05 -0.00026090455 -0.00010796626
-0.0012732327 0.0005837412 -1.13052665e-05 5.8495898e-05 -0.00020872444 4.3503707e-05 0.00014556048 0.00052861683
0.00018178951 8.404254e-05 2.3687757e-05 2.7331465e-05 -0.00026454206 2.2520195e-05 4.359184e-06 4.3558434e-06
1.35402715e-05 -3.691323e-06 -1.4150761e-05 1.3722887e-05 -8.082049e-06 -1.8839178e-07 -1.9451523e-05 -2.4255012e-06
1.2160547e-05 8.037163e-06 -7.3975075e-06 4.803111e-06 -5.077289e-06 1.2700248e-05 7.5370604e-06 -9.220228e-07
-9.263336e-07 -5.2255823e-06 3.5310354e-06 0.00054159673 -0.00012952229 0.00034799258 0.00027720875 0.0001829816
7.7882934e-05 -0.0001595995 -0.000114717055 -4.6463574e-05 -0.00054107915 -0.00011926982 -8.573011e-05 -1.7367482e-05
1.0117588e-05 -5.0322593e-05 -8.7847126e-05 -6.760059e-05 2.0275062e-05 -4.520884e-05 3.0803454e-05 9.65801e-05
1.1321999e-05 -4.059475e-05 2.4141758e-05 -9.895812e-06 -1.7632414e-05 -2.393908e-05 -0.00012947852 0.00011841809
-9.653557e-05 -7.753471e-06 2.4826215e-05 -1.2416895e-06 -0.0019120743 -0.00015520622 0.00047854843 -0.0010930202
0.00018624027 -0.002068711 -0.00040439772 0.0003573323 0.00012097831 0.0019143514 0.0012705242 -6.508158e-05
-5.6684952e-05 0.00032079496 -8.33877e-05 1.9583465e-05 -0.0001496117 5.3583317e-05 5.32926e-05 2.956367e-07
-1.5918253e-05 3.8929298e-05 -0.00012787114 -6.496391e-06 2.7775539e-05 -6.2404055e-05 -5.0580788e-05 -0.00015818077
1.0678996e-06 -2.7132362e-05 3.164025e-06 0.00013062122 -0.00014019039 0.0026636636 0.0010192356 -0.0029007175
0.001546684 -0.001163818 0.0028549642 0.00075910136 -0.00043506635 -0.00024823274 -0.002894796 0.0010867243
-7.001529e-08 -7.6653286e-08 8.4804505e-08 -3.7289976e-08 1.0383925e-07 -1.12136306e-07 -7.892835e-08 -2.0693063e-10
8.82096e-09 -1.2493894e-08 -1.0697775e-08 -0.0022302368 -5.533613e-05 0.00083423674 -0.0011272891 0.0001946119
-5.269862e-05 -0.00018216405 -3.178988e-05 0.00014281372 0.002475231 -0.00047358513 -2.688081e-06 -7.0947414e-07
2.0067175e-07 -1.5277703e-06 -3.5333633e-07 -1.6293615e-06 -6.611337e-07 -1.8817391e-06 8.318511e-08 2.3114146e-07
-1.2852598e-06 -0.000110059686 -5.4687986e-05 7.8043275e-05 -3.392832e-05 -3.7619902e-06 -0.00010566468 -5.8922422e-05
6.1624814e-06 3.967601e-06 0.000104367995 -5.7984456e-05 -0.0010015201 -0.00022359302 0.0005821923 -0.0004283685
-3.73659e-05 -0.0009611392 3.129682e-05 0.00018543373 7.178376e-05 0.0009347533 -0.0006855951 -3.4958867e-07
-2.3665741e-07 6.9184284e-07 -3.3159935e-07 -2.3917875e-07 -7.81176e-07 1.2213923e-07 -5.505309e-09 6.4345414e-08
-5.8239266e-07 -7.777346e-08 -6.5666933e-07 -4.20297e-07 5.104532e-07 -3.6622117e-07 1.7269302e-07 -7.05185e-07
-1.69924e-07 3.1883232e-08 4.1452896e-08 -1.8964137e-07 1.7057488e-07 -2.0002433e-05 -1.38307405e-05 1.7031245e-05
00000000: 00a8 5436 370e 1739 faec 2fba 3056 1a39
00000010: 10bc 07ba e9f5 d439 6a03 b039 0040 9137
00000020: c0f9 30b6 c09c 11b9 6007 b5b9 8079 7738
00000030: 945b 4339 be2f 31ba 58f5 1839 e453 0bba
00000040: d93b ad39 fa7b cc39 4005 05b8 00a2 29b7
00000050: 803a 3eb9 b69f b9b9 4a2d 8038 5fbc 2538
00000060: 787e 5bb8 cca7 0738 c44d ca36 5c36 aa38
00000070: e3d1 4638 94ea 04b7 a783 32b6 ffab 54b8
00000080: 94de 2539 db1b 25ba 5ab9 8cb9 2257 3839
00000090: 1096 90b9 e6c6 8839 f19b 1739 bf5c e7b8
000000a0: 95ab 7a39 6ca6 e737 be84 333a 73c0 d3b9
000000b0: 4c46 a739 88fc 62b9 d081 4039 f64c 3f39
000000c0: 904a 7c38 b46f 97b8 4846 8eb9 a2a4 adb7
000000d0: d42e 07b7 e444 cbb9 c860 02b9 92ce 9c3a
000000e0: 3227 bc39 2c8d 0cba e0d9 133a ee02 0e38
000000f0: 0e0d 8e3a 3672 80b8 04ca 88b9 f26b e2b8
00000100: 9ae2 a6ba 3506 193a c0ab 3db7 7e59 7538
00000110: 0add 5ab9 c077 3638 98a1 1839 e092 0a3a
00000120: c09e 3e39 ff3f b038 12b5 c637 e045 e537
00000130: 3cb2 8ab9 c0e9 bc37 1b45 9236 6928 9236
00000140: 062b 6337 72b8 77b6 0e69 6db7 5a3b 6637
00000150: 2398 07b7 bd48 4ab4 d42b a3b7 cbc5 22b6
00000160: 2705 4c37 5ad7 0637 1b38 f8b6 692a a136
00000170: 955d aab6 2613 5537 dbe6 fc36 ed80 77b5
00000180: 29a9 78b5 6957 afb6 baf6 6c36 f1f9 0d3a
00000190: 60d0 07b9 c672 b639 5456 9139 c0de 3f39
000001a0: 1555 a338 2a5a 27b9 4094 f0b8 e2e1 42b8
000001b0: 35d7 0dba 7f20 fab8 01ca b3b8 62b0 91b7
000001c0: b6be 2937 7911 53b8 913a b8b8 cac4 8db8
000001d0: 5d14 aa37 9f9e 3db8 f532 0138 0c8b ca38
000001e0: 9ef3 3d37 4844 2ab8 0884 ca37 3006 26b7
000001f0: 52e9 93b7 c8d0 c8b7 a0c4 07b9 3a57 f838
00000200: 2473 cab8 e814 02b7 e441 d037 20a8 a6b5
00000210: 919e faba dabe 22b9 afe5 fa39 ac43 8fba
00000220: 7e49 4339 3693 07bb 5805 d4b9 5458 bb39
00000230: bcb5 fd38 f9ea fa3a b887 a63a 687c 88b8
00000240: 01c1 6db8 5f30 a839 6ee0 aeb8 2c47 a437
00000250: 16e1 1cb9 a6be 6038 7e86 5f38 00b8 9e34
00000260: 3088 85b7 0448 2338 2615 06b9 93fb d9b6
00000270: 84ff e837 ecde 82b8 b526 54b8 54dd 25b9
00000280: c054 8f35 4e9a e3b7 8955 5436 5ef7 0839
00000290: 1200 13b9 dc90 2e3b df97 853a f719 3ebb
000002a0: 1aba ca3a 408b 98ba 5a1a 3b3b 6efe 463a
000002b0: 9e19 e4b9 3c25 82b9 9eb6 3dbb 6b70 8e3a
000002c0: 505b 96b3 979c a4b3 c51d b633 c328 20b3
000002d0: 3bfe de33 96cf f0b3 527f a9b3 cb85 63af
000002e0: fe8a 1732 baa4 56b2 50c9 37b2 2a29 12bb
000002f0: b818 68b8 aeb0 5a3a 8cc1 93ba bc10 4c39
00000300: b608 5db8 4a03 3fb9 2056 05b8 44c0 1539
00000310: 7c37 223b 854b f8b9 e164 34b6 b172 3eb5
00000320: 3b78 5734 ca0d cdb5 2db2 bdb4 6fb0 dab5
00000330: c378 31b5 1090 fcb5 7fa3 b233 ae2f 7834
00000340: 3181 acb5 d8cf e6b8 c760 65b8 2aab a338
00000350: 424e 0eb8 8076 7cb6 4b98 ddb8 7823 77b8
00000360: 50c7 ce36 6f21 8536 24e0 da38 5634 73b8
00000370: 7045 83ba 4b74 6ab9 449e 183a a696 e0b9
00000380: 54b9 1cb8 f6f4 7bba b444 0338 fd70 4239
00000390: 9d8a 9638 3b0a 753a 82b9 33ba 1aaf bbb4
000003a0: e51b 7eb4 14b7 3935 ab06 b2b4 7a68 80b4
000003b0: 02b2 51b5 6025 0334 3629 bdb1 442e 8a33
000003c0: b855 1cb5 6904 a7b3 f945 30b5 2ea5 e1b4
000003d0: 1406 0935 0e9d c4b4 7f6d 3934 f24b 3db5
000003e0: 5a74 36b4 fcef 0833 f109 3233 39a0 4bb4
000003f0: 4427 3734 e6ca a7b7 940a 68b7 52de 8e37

exp_avg_sq f4 [30, 11]
1.8781675e-05 8.152033e-07 1.3250041e-06 6.4446785e-06 1.4426824e-06 1.0554941e-06 8.1686494e-07 1.690286e-06
8.2662964e-08 1.3803872e-05 2.9745702e-06 1.7310776e-05 8.3406456e-07 1.4285367e-06 2.4547444e-06 1.2546467e-06
1.0746804e-06 8.144894e-07 1.5060508e-06 7.891597e-08 1.2816836e-05 3.0413632e-06 2.1832436e-06 4.2124375e-07
6.008983e-07 5.7775316e-07 1.3275258e-07 1.6494641e-06 2.4868007e-07 1.7286513e-07 1.3537437e-08 3.5027546e-07
2.1534566e-07 4.647416e-06 6.161132e-07 1.161487e-06 1.1630694e-06 3.0827084e-07 3.0166073e-06 4.4650804e-07
4.5207375e-07 4.357244e-08 2.1015642e-06 6.8826006e-07 6.5194927e-06 4.9245915e-07 1.1992391e-06 1.5931506e-06
1.2210828e-06 7.4869945e-07 1.2329166e-06 5.2011285e-07 3.013708e-08 5.1397437e-06 6.723244e-07 3.3101649e-06
4.1381057e-07 9.2170615e-07 8.713085e-07 4.22371e-07 2.083542e-06 4.2804567e-07 3.6255184e-07 6.284179e-08
2.117875e-06 9.05727e-07 6.254439e-06 1.1323026e-06 2.224287e-06 1.6002922e-06 9.066805e-07 5.2510063e-06
7.179383e-07 3.5929605e-07 5.3611853e-08 2.2440936e-06 7.0167346e-07 4.0162035e-06 5.523144e-07 8.5460323e-07
9.804963e-07 2.6110823e-07 1.9589977e-06 3.1023774e-07 2.640446e-07 2.0861627e-08 1.516951e-06 2.6843603e-07
5.435927e-06 7.569929e-07 1.699875e-06 1.3542199e-06 4.599405e-07 3.1496745e-06 4.5297512e-07 5.451713e-07
2.8191865e-08 3.086702e-06 5.1819615e-07 2.638397e-06 1.328449e-07 3.674852e-07 5.824783e-07 2.1879882e-07
4.3952548e-07 1.2429857e-07 3.6600204e-07 1.1400372e-08 1.8975923e-06 2.653876e-07 2.0177295e-06 1.2900726e-07
9.576484e-07 5.0299303e-07 9.813391e-07 1.1169057e-06 5.0412916e-07 2.1474881e-07 4.5001705e-08 1.4016935e-06
2.1734427e-07 1.794598e-06 1.7940222e-07 4.4655079e-07 5.110115e-07 2.67894e-07 5.986421e-07 1.1064598e-07
9.5797e-08 9.202143e-09 6.4109616e-07 1.00451174e-07 1.5772479e-05 1.6453903e-06 3.729654e-06 3.9111665e-06
7.93621e-07 1.472175e-05 1.6029006e-06 8.0216665e-07 6.8548836e-08 1.0875091e-05 3.3385154e-06 5.6488375e-06
5.9959575e-07 1.3683431e-06 1.4700157e-06 1.060963e-06 4.144043e-06 4.4872075e-07 5.3670533e-07 8.259663e-08
2.585804e-06 2.3978243e-06 2.3343942e-05 2.404576e-06 3.3218155e-06 5.79924e-06 3.6252038e-06 2.7188648e-06
3.135499e-06 1.4820428e-06 6.586469e-08 2.0128853e-05 8.34181e-07 0.00016788172 1.5442418e-05 2.6564183e-05
4.3397835e-05 1.6976019e-05 5.6885186e-05 1.131533e-05 9.139656e-06 1.244518e-06 0.00010253032 5.176606e-06
4.4452874e-05 3.4397597e-06 9.203535e-06 1.1546236e-05 2.8753755e-06 2.111618e-05 2.4514866e-06 1.816091e-06
1.966818e-07 2.025925e-05 1.9968022e-06 9.02045e-05 3.5965309e-06 7.990979e-06 2.1655782e-05 8.580023e-06
8.675659e-06 4.969077e-06 4.7586327e-06 3.0323096e-07 7.5425705e-05 4.911245e-06 2.2549324e-05 2.0881012e-06
4.4622075e-06 5.882513e-06 1.7474185e-06 1.143591e-05 1.4672064e-06 1.2113662e-06 1.1264057e-07 8.86205e-06
2.0088473e-06 1.6098921e-06 4.390047e-07 9.56457e-07 4.0223264e-07 1.05724396e-07 1.5294926e-06 3.120692e-07
5.0823687e-08 5.333575e-09 4.5897386e-07 2.2359698e-07 2.0444144e-05 3.0498372e-06 5.13415e-06 5.227756e-06
3.921505e-06 1.28226575e-05 1.4277834e-06 1.4016057e-06 3.762665e-07 7.6091574e-06 1.7903434e-06 1.6971286e-05
1.7523182e-06 2.8031664e-06 4.319825e-06 8.5508606e-07 1.161806e-05 1.5408027e-06 1.0881001e-06 4.946392e-08
5.591461e-06 1.180213e-06 8.5904176e-05 4.5773104e-06 1.1205495e-05 2.1648635e-05 8.12477e-06 2.1090895e-05
5.593613e-06 4.8025368e-06 3.6247738e-07 4.8532973e-05 5.2162004e-06 1.6326372e-06 3.0388136e-07 5.829664e-07
00000000: 578d 9d37 58d4 5a35 cbd6 b135 5e3f d836
00000010: 31a2 c135 80aa 8d35 8846 5b35 c9dd e235
00000020: 7284 b133 2e97 6737 ba9e 4736 9c36 9137
00000030: 7be4 5f35 26bc bf35 30bc 2436 5565 a835
00000040: bd3d 9035 49a3 5a35 8323 ca35 8378 a933
00000050: e407 5737 391a 4c36 d783 1236 4d27 e234
00000060: 6b4d 2135 e516 1b35 c08a 0e34 2863 dd35
00000070: 5482 8534 ce9c 3934 4792 6832 7e0d bc34
00000080: c439 6734 00f1 9b36 fa62 2535 64e4 9b35
00000090: c31a 9c35 6c80 a534 eb70 4a36 99b7 ef34
000000a0: 8bb4 f234 6824 3b33 9908 0d36 dfc0 3835
000000b0: 04c2 da36 8931 0435 8bf5 a035 3dd4 d535
000000c0: 16e4 a335 3cfa 4835 b17a a535 e29d 0b35
000000d0: 1270 0133 1076 ac36 c879 3435 3324 5e36
000000e0: b129 de34 2a6b 7735 dde3 6935 3ac2 e234
000000f0: fbd2 0b36 26ce e534 bfa4 c234 a4f3 8633
00000100: d120 0e36 1621 7335 39dd d136 9ff9 9735
00000110: f644 1536 9fc9 d635 9c62 7335 cd31 b036
00000120: 58b8 4035 46e5 c034 db42 6633 3c99 1636
00000130: a25a 3c35 edc2 8636 c242 1435 e367 6535
00000140: 9999 8335 712e 8c34 5377 0336 c08e a634
00000150: 03c2 8d34 3433 b332 0a9a cb35 911d 9034
00000160: 4266 b636 2834 4b35 4327 e435 a4c2 b535
00000170: beed f634 ff5e 5336 6d30 f334 e357 1235
00000180: 912a f232 2325 4f36 2b1a 0b35 510f 3136
00000190: 21a4 0e34 c84a c534 9b5b 1c35 f6ee 6a34
000001a0: ecf7 eb34 ee76 0534 f07e c434 5edb 4332
000001b0: c6b0 fe35 987a 8e34 5468 0736 3f85 0a34
000001c0: 8c88 8035 6b05 0735 8eb6 8335 96e8 9535
000001d0: 7e53 0735 b495 6634 e647 4133 d221 bc35
000001e0: 235f 6934 ebdd f035 b5a1 4034 79bd ef34
000001f0: 712c 0935 12d3 8f34 5fb2 2035 459c ed33
00000200: f5b8 cd33 7417 1e32 cb17 2c35 9eb7 d733
00000210: 244f 8437 2ed7 dc35 f84a 7a36 aa3c 8336
00000220: 3809 5535 6ffd 7637 3f23 d735 7954 5735
00000230: 1f35 9333 2974 3637 420b 6036 258b bd36
00000240: e8f3 2035 e9a7 b735 5b4d c535 6966 8e35
00000250: 0f0d 8b36 b6e7 f034 1c12 1035 fa5f b133
00000260: c687 2d36 4fea 2036 bcd2 c337 4d5e 2136
00000270: 5bec 5e36 1897 c236 8748 7336 be75 3636
00000280: 766b 5236 9aea c635 7f71 8d33 62da a837
00000290: 7bec 5f35 6809 3039 578a 8137 26d6 de37
000002a0: 1206 3638 b967 8e37 0198 6e38 f9d6 3d37
000002b0: 8656 1937 5009 a735 8c05 d738 b5b2 ad36
000002c0: e972 3a38 9fd6 6636 e268 1a37 b5b6 4137
000002d0: 93f6 4036 a722 b137 3884 2436 69c0 f335
000002e0: 7b2f 5334 68f2 a937 cd00 0636 2c2c bd38
000002f0: ee5b 7136 fe10 0637 70a9 b537 ebf2 0f37
00000300: ac8d 1137 0cbc a636 58ac 9f36 bfcb a234
00000310: de2d 9e38 46cb a436 4e28 bd37 4e21 0c36
00000320: 12ba 9536 6762 c536 d888 ea35 dcdc 3f37
00000330: d4ec c435 3a96 a235 cfe4 f133 37ae 1437
00000340: bccf 0636 7913 d835 59b0 eb34 9d5f 8035
00000350: 6ff2 d734 9a0a e333 f748 cd35 778a a734
00000360: 3c49 5a33 9f42 b731 e368 f634 df15 7034
00000370: 777f ab37 ceab 4c36 0346 ac36 156a af36
00000380: 7995 8336 e520 5737 44a2 bf35 ce1e bc35
00000390: ad01 ca34 2a52 ff36 bb4b f035 8f5d 8e37
000003a0: 3231 eb35 081e 3c36 04f3 9036 1189 6535
000003b0: 30eb 4237 94cd ce35 d60a 9235 2872 5433
000003c0: 499e bb36 cf67 9e35 7427 b438 cc96 9936
000003d0: 3cff 3b37 179a b537 9f4f 0837 5aec b037
000003e0: c5b0 bb36 7a25 a136 839a c234 e28f 4b38
000003f0: d206 af36 fd20 db35 2325 a334 257d 1c35

exp_avg f4 [30]
-3.1925738e-06 -5.9378566e-05 -6.059149e-05 0.00062802446 -0.00031905074 -0.001198692 1.4239398e-05 -2.2547314e-05
-1.2104483e-05 -0.0005414969 8.964022e-05 4.0607993e-05 0.0019090624 6.6808076e-05 0.00012757975 -0.0026660562
7.441007e-08 0.0022309003 2.6897417e-06 0.00010999607 0.0010033061 3.4799058e-07 6.6292347e-07 2.0595104e-05
3.742636e-05 0.0019364698 -0.000112365466 0.0012886631 0.002630741 -0.0010432072
00000000: 0040 56b6 400d 79b8 9e23 7eb8 02a2 243a
00000010: 4446 a7b9 6e1d 9dba c0e5 6e37 fd23 bdb7
00000020: 5c14 4bb7 3ef3 0dba 3afd bb38 8052 2a38
00000030: 8139 fa3a 501b 8c38 eec6 0539 00b9 2ebb
00000040: 5ecb 9f33 4c34 123b 6981 3436 b1ad e638
00000050: 5e81 833a 76d3 ba34 c1f3 3135 a6c3 ac37
00000060: 40fa 1c38 25d1 fd3a c0a5 ebb8 5ce8 a83a
00000070: 8368 2c3b 3abc 88ba

exp_avg_sq f4 [30]
1.8814313e-05 1.7326727e-05 2.2200993e-06 4.7153026e-06 6.565729e-06 3.3378858e-06 6.360459e-06 4.0376444e-06
5.4642674e-06 2.6403275e-06 2.2246097e-06 1.7999525e-06 1.5849831e-05 5.7977945e-06 2.3450415e-05 0.00016979862
4.4838e-05 9.053633e-05 2.2732345e-05 1.6343798e-06 2.094746e-05 1.7027653e-05 8.643144e-05 1.6569315e-06
1.9614983e-05 4.018466e-05 2.307179e-05 8.138588e-06 2.448379e-05 2.9507819e-05
00000000: 6ed3 9d37 dd58 9137 04fd 1436 2438 9e36
00000010: 2f4f dc36 7100 6036 ed6b d536 1a7b 8736
00000020: b359 b736 7b30 3136 814a 1536 e695 f135
00000030: 41f5 8437 ad8a c236 62b7 c437 f80b 3239
00000040: 7010 3c38 52de bd38 57b1 be37 dd5c db35
00000050: 54b8 af37 9bd6 8e37 8742 b538 bc63 de35
00000060: db8a a437 f38b 2838 4b8a c137 f88a 0837
00000070: 8a62 cd37 8f87 f737

exp_avg f4 [30, 30]
0.0003267484 0.00019552585 -2.5868233e-06 -0.00017877616 -2.8431099e-05 -8.139893e-05 -0.00031164297 -1.619862e-06
-1.866765e-10 0.0001833438 3.497353e-20 -6.6677603e-06 -1.6340688e-05 -0.00019966275 -6.8632808e-06 -0.00017859845
-9.884186e-12 0.00027494636 -6.379633e-10 7.981667e-08 -4.4854838e-05 -1.1675037e-07 4.7223305e-11 -1.978793e-07
-7.380775e-05 -0.00011943883 -3.060108e-05 -3.6288588e-05 -0.0001431319 1.8506253e-05 6e-45 6e-45
6e-45 6e-45 6e-45 6e-45 6e-45 6e-45 6e-45 0.0
6e-45 6e-45 6e-45 6e-45 0.0 6e-45 6e-45 6e-45
6e-45 6e-45 6e-45 6e-45 0.0 6e-45 6e-45 6e-45
6e-45 6e-45 6e-45 6e-45 6e-45 6e-45 0.0 6e-45
6e-45 6e-45 6e-45 -6e-45 6e-45 -6e-45 6e-45 6e-45
6e-45 -6e-45 -6e-45 6e-45 6e-45 6e-45 -6e-45 6e-45
6e-45 6e-45 6e-45 6e-45 6e-45 -6e-45 6e-45 6e-45
6e-45 6e-45 6e-45 6e-45 0.0 0.0 6e-45 0.0
6e-45 0.0 0.0 0.0 6e-45 6e-45 6e-45 6e-45
0.0 0.0 0.0 6e-45 6e-45 0.0 0.0 6e-45
6e-45 6e-45 0.0 0.0 6e-45 0.0 6e-45 6e-45
0.00021098928 0.00012535385 -3.1915247e-06 -0.00017064193 -6.361959e-06 -0.0001961844 -0.00013737971 -3.994191e-07
2.5903154e-07 8.990943e-05 1.6965947e-06 1.40497405e-05 -0.000105689855 -3.245221e-05 -1.0003187e-05 8.370512e-05
1.1919649e-09 0.00016882132 5.462461e-10 -4.3439263e-06 -0.00022162638 -2.690018e-08 9.003232e-09 2.4112284e-08
-2.6377322e-05 -0.00013001786 3.5330126e-05 -6.4314536e-06 -2.0381161e-05 0.0001508404 -0.00012859909 -7.262472e-05
6.709396e-07 1.668809e-05 5.3099543e-06 -3.1911594e-07 -1.0746603e-05 9.797606e-07 6.086998e-09 -6.928155e-05
4.439208e-07 -3.6974146e-05 1.4007378e-06 -9.168632e-07 -1.07674325e-07 1.9276165e-05 1.9075803e-10 -7.713513e-05
-2.5850513e-08 -3.1153962e-07 6.093963e-06 1.5367657e-08 -5.533644e-09 1.1157837e-06 2.7117789e-05 0.00014345747
-5.751335e-07 1.3975657e-06 6.1862324e-06 -0.00013874221 6e-45 6e-45 6e-45 6e-45
6e-45 6e-45 6e-45 6e-45 6e-45 6e-45 6e-45 6e-45
6e-45 6e-45 6e-45 6e-45 6e-45 6e-45 6e-45 6e-45
6e-45 6e-45 6e-45 6e-45 6e-45 6e-45 6e-45 6e-45
6e-45 6e-45 -0.000106902095 -2.1989923e-05 6.2128485e-05 0.00026167373 1.1070231e-05 0.0002548874
0.00043869863 9.314738e-07 -5.1813764e-10 -7.9308644e-05 2.0642111e-25 4.3770036e-05 2.1413547e-05 0.00017722952
-3.8708396e-08 0.0006012055 4.5622894e-10 -2.6130358e-05 1.5373959e-09 2.0583298e-05 0.00039357648 -8.359085e-09
1.084246e-09 1.4355082e-08 0.0002570327 0.0002803341 2.4061876e-07 1.4500229e-05 0.00021963028 0.00014709609
0.00016251061 9.7427284e-05 -8.455975e-06 -9.862178e-05 -2.7852784e-05 3.784927e-05 -6.205111e-05 -2.879201e-06
8.519445e-08 0.00018675889 -8.4511873e-07 -0.00012565874 -2.0340249e-05 -0.00017320554 3.2728724e-06 1.8811552e-05
00000000: 6e4f ab39 1206 4d39 4999 2db6 dc75 3bb9
00000010: 527f eeb7 b8b4 aab8 0364 a3b9 096a d9b5
00000020: c340 4daf fa3f 4039 6728 251f a0bb dfb6
00000030: 5c13 89b7 905c 51b9 224b e6b6 2846 3bb9
00000040: 6be2 2dad ad26 9039 ad5c 2fb0 ae67 ab33
00000050: 8422 3cb8 32b8 fab3 b7b0 4f2e a678 54b4
00000060: 3cc9 9ab8 3c7b fab8 a959 00b8 9334 18b8
00000070: ad15 16b9 e03d 9b37 0400 0000 0400 0000
00000080: 0400 0000 0400 0000 0400 0000 0400 0000
00000090: 0400 0000 0400 0000 0400 0000 0000 0000
000000a0: 0400 0000 0400 0000 0400 0000 0400 0000
000000b0: 0000 0000 0400 0000 0400 0000 0400 0000
000000c0: 0400 0000 0400 0000 0400 0000 0400 0000
000000d0: 0000 0000 0400 0000 0400 0000 0400 0000
000000e0: 0400 0000 0400 0000 0400 0000 0400 0000
000000f0: 0400 0000 0400 0000 0000 0000 0400 0000
00000100: 0400 0000 0400 0000 0400 0000 0400 0080
00000110: 0400 0000 0400 0080 0400 0000 0400 0000
00000120: 0400 0000 0400 0080 0400 0080 0400 0000
00000130: 0400 0000 0400 0000 0400 0080 0400 0000
00000140: 0400 0000 0400 0000 0400 0000 0400 0000
00000150: 0400 0000 0400 0080 0400 0000 0400 0000
00000160: 0400 0000 0400 0000 0400 0000 0400 0000
00000170: 0000 0000 0000 0000 0400 0000 0000 0000
00000180: 0400 0000 0000 0000 0000 0000 0000 0000
00000190: 0400 0000 0400 0000 0400 0000 0400 0000
000001a0: 0000 0000 0000 0000 0000 0000 0400 0000
000001b0: 0400 0000 0000 0000 0000 0000 0400 0000
000001c0: 0400 0000 0400 0000 0000 0000 0000 0000
000001d0: 0400 0000 0000 0000 0400 0000 0400 0000
000001e0: 013d 5d39 6b71 0339 fa2d 56b6 58ee 32b9
000001f0: d078 d5b6 d9b6 4db9 960d 10b9 be6f d6b4
00000200: 0611 8b34 c28d bc38 8db6 e335 2db7 6b37
00000210: cfa5 ddb8 4c1d 08b8 5cd3 27b7 d88a af38
00000220: 89d2 a330 a105 3139 a726 1630 0bc2 91b6
00000230: 6164 68b9 1f12 e7b2 a2ac 1a32 791f cf32
00000240: de44 ddb7 6755 08b9 6f2f 1438 c4cd d7b6
00000250: 36f8 aab7 e92a 1e39 8ed8 06b9 1a4e 98b8
00000260: 9e1a 3435 67fd 8b37 292c b236 f652 abb4
00000270: 4f4c 34b7 5180 8335 cd25 d131 404b 91b8
00000280: 0354 ee34 b014 1bb8 fc00 bc35 5c1e 76b5
00000290: 963a e7b3 40b3 a137 9dbd 512f 9cc3 a1b8
000002a0: e10d deb2 ae41 a7b4 be7a cc36 d601 8432
000002b0: 7322 beb1 09c2 9535 027b e337 126d 1639
000002c0: e062 1ab5 fe93 bb35 5593 cf36 547b 11b9
000002d0: 0400 0000 0400 0000 0400 0000 0400 0000
000002e0: 0400 0000 0400 0000 0400 0000 0400 0000
000002f0: 0400 0000 0400 0000 0400 0000 0400 0000
00000300: 0400 0000 0400 0000 0400 0000 0400 0000
00000310: 0400 0000 0400 0000 0400 0000 0400 0000
00000320: 0400 0000 0400 0000 0400 0000 0400 0000
00000330: 0400 0000 0400 0000 0400 0000 0400 0000
00000340: 0400 0000 0400 0000 a030 e0b8 0077 b8b7
00000350: fa4a 8238 4131 8939 48ba 3937 68a2 8539
00000360: 2201 e639 640a 7a35 b26c 0eb0 8152 a6b8
00000370: 7689 7f16 b895 3738 3ea1 b337 b0d6 3939
00000380: 5540 26b3 389a 1d3a 84d0 fa2f 8432 dbb7
00000390: 4f4c d330 4caa ac37 f158 ce39 a59b 0fb2
000003a0: 8404 9530 519e 7632 58c2 8639 cef9 9239
000003b0: 642e 8134 0246 7337 8e4c 6639 ce3d 1a39
000003c0: 9c67 2a39 e051 cc38 23de 0db7 2ad3 ceb8
000003d0: 66a5 e9b7 58c0 1e38 7021 82b8 4c38 41b6
000003e0: 25f4 b633 b5d4 4339 1edc 62b5 43c3 03b9
000003f0: 5aa0 aab7 829e 35b9 85a3 5b36 80cd 9d37

exp_avg_sq f4 [30, 30]
4.5401924e-07 2.3379647e-07 1.7019219e-09 7.3972465e-08 1.5406599e-09 9.9876004e-08 5.354479e-07 9.971448e-10
1.0560279e-12 3.3127453e-08 6.2180998e-15 2.9204452e-08 4.3867847e-09 6.348379e-08 1.7349286e-08 1.7870764e-06
1.1529569e-12 2.3200451e-07 1.194835e-10 1.9497855e-13 1.03474534e-07 1.6689035e-09 2.4716281e-11 2.4314961e-09
4.4491934e-08 6.384453e-08 1.6119875e-08 1.553285e-09 5.2099054e-08 6.0210954e-07 1.0043614e-18 1.4853432e-35
5.7239515e-35 1.3530962e-33 3.06065e-35 5.4768523e-36 2.0243566e-17 2.4358776e-37 3.267518e-35 0.0
1.4213384e-35 8.213405e-38 4.152086e-34 1.2494772e-17 0.0 9.673225e-18 1.28306e-40 4.716716e-19
7.4404115e-35 6.3807314e-35 3.039088e-36 7.344548e-36 0.0 4.446508e-34 1.032409e-18 5.1971085e-34
5.872973e-18 1.408276e-21 3.1563199e-19 2.220946e-18 4.0074277e-33 6.9893732e-34 0.0 8.4916914e-35
5.946398e-34 9.832077e-34 2.8983645e-34 3.1281703e-36 6.843912e-37 9.700484e-36 8.535499e-33 7.441323e-33
1.3758444e-37 1.3722e-41 7.7428665e-34 1.6638208e-33 1.05939606e-35 1.8277435e-33 6.238331e-33 4.061114e-34
1.169715e-36 2.0622298e-33 3.8401397e-35 3.5425293e-35 5.7137958e-36 1.7177812e-36 2.7090644e-37 8.2902165e-33
1.2918648e-32 2.5427078e-33 1.1007957e-35 2.273525e-36 0.0 0.0 2.1975772e-35 0.0
5.531637e-36 0.0 0.0 0.0 4.419255e-37 2.1021392e-37 2.2388683e-36 5.3007427e-36
0.0 0.0 0.0 9.939127e-36 1.925943e-35 0.0 0.0 9.581797e-37
9.6423935e-36 1.1368791e-36 0.0 0.0 7.0012e-36 0.0 1.9864576e-35 6.071021e-36
1.1924706e-07 6.3781e-08 5.3483056e-08 1.7368488e-07 3.7250036e-09 1.022319e-07 1.8628478e-07 2.9335466e-08
1.6934678e-08 1.14243015e-08 1.3948125e-09 3.6403527e-10 2.7084084e-08 3.257157e-08 1.02066275e-08 4.889968e-07
1.7697243e-08 2.3911159e-07 2.7846339e-08 6.263228e-09 2.7026925e-07 1.5326275e-08 4.41751e-08 2.6367278e-08
9.749942e-08 2.1165049e-07 2.6841791e-08 1.2720173e-09 9.850926e-08 1.09830864e-07 3.6703707e-07 1.6682667e-07
2.612006e-07 7.54779e-07 3.2997138e-10 4.8948e-07 2.006784e-06 2.6405086e-08 9.42741e-09 2.0219703e-08
1.0856308e-08 5.935523e-09 8.9037485e-08 3.3549517e-07 7.5469195e-09 6.458924e-07 1.5824739e-10 7.862533e-07
7.524859e-10 1.523741e-08 3.3867566e-06 7.1507195e-10 4.61739e-09 2.5622074e-07 2.2543186e-06 3.0667923e-07
1.2101927e-06 3.1496302e-08 2.819139e-06 3.7866872e-07 1.0973899e-13 8.3625374e-14 3.416558e-32 4.88702e-31
6.0575347e-33 8.5643535e-15 1.9823283e-31 1.0289438e-31 1.8628884e-14 1.0789205e-13 2.5043848e-31 1.8873739e-32
5.9208014e-15 3.9640425e-33 8.968955e-15 2.2801304e-14 9.3685715e-31 2.0240996e-14 1.756061e-30 3.610536e-14
7.618956e-32 3.4756823e-32 1.7820429e-30 8.98616e-31 3.0769352e-31 4.9266033e-13 5.314377e-32 2.0860287e-31
6.671698e-30 9.870025e-15 3.201978e-07 1.6640918e-07 1.9832502e-08 8.064645e-08 2.9397754e-08 1.91193e-07
2.725289e-07 5.628109e-08 6.5844947e-09 1.034335e-08 1.697597e-15 3.515405e-08 2.5109608e-09 6.614941e-08
1.5574366e-09 8.3221676e-07 2.7623852e-07 1.1534814e-08 5.779495e-07 1.0169645e-08 4.9395504e-07 1.5066863e-07
4.5832073e-07 3.070754e-08 1.6624776e-07 1.4347627e-07 7.5031245e-11 3.0602798e-09 3.0975005e-07 3.040126e-07
2.9020985e-06 1.3553791e-06 1.7991493e-08 5.8062074e-07 1.2781289e-06 8.423181e-09 2.9661575e-07 2.9147338e-07
5.284554e-08 5.285208e-08 8.98867e-09 2.5721278e-07 8.683178e-08 2.8233106e-07 2.0649595e-07 4.3837085e-06
00000000: eebf f334 7c09 7b34 0ee9 e930 cbda 9e33
00000010: 27bf d330 6a7b d633 b3bb 0f35 ea0b 8930
00000020: 6a9f 942b 0548 0e33 d907 e027 45dd fa32
00000030: 91ba 9631 9554 8833 7c07 9532 7adb ef35
00000040: a643 a22b ea1c 7934 9e5f 032f be86 5b2a
00000050: ba35 de33 525f e530 1e68 d92d 5517 2731
00000060: 6617 3f33 e71a 8933 fb77 8a32 5b7b d530
00000070: 84c3 5f33 a7a0 2135 b337 9421 e3f2 9d05
00000080: 322b 9806 59d2 e008 69bb 2206 a4f5 e804
00000090: c5b6 ba23 f9c6 a502 26bb 2d06 0000 0000
000000a0: 8324 9705 1497 df01 0bfa 0908 e47c 6623
000000b0: 0000 0000 8370 3223 aa65 0100 8036 0b21
000000c0: d1cc c506 02a1 a906 bd44 8104 8633 1c05
000000d0: 0000 0000 b5c2 1308 4f5b 9821 1cb4 2c08
000000e0: a9ac d822 0ad0 d41c f550 ba20 7ce0 2322
000000f0: 4876 a609 0343 6808 0000 0000 75bf e106
00000100: 5c9a 4508 085d a308 1ea1 c007 c20e 8504
00000110: e2e2 6803 754e 4e05 7f46 310a dc8c 1a0a
00000120: 2e45 3b02 4026 0000 83a6 8008 8e39 0a09
00000130: 024f 6105 ced7 1709 a890 010a 23f4 0608
00000140: 4604 c703 c752 2b09 462d 4c06 695a 3c06
00000150: ba09 f304 f621 1204 8f5e b802 5a2e 2c0a
00000160: a827 860a 6a3d 5309 051d 6a05 fd68 4104
00000170: 0000 0000 0000 0000 beaf e905 0000 0000
00000180: 314a eb04 0000 0000 0000 0000 0000 0000
00000190: 2461 1603 6e10 8f02 3c76 3e04 fa77 e104
000001a0: 0000 0000 0000 0000 0000 0000 c161 5305
000001b0: 28cd cc05 0000 0000 0000 0000 9d06 a303
000001c0: 2f12 4d05 126e c103 0000 0000 0000 0000
000001d0: 29e6 1405 0000 0000 853c d305 c81d 0105
000001e0: 620a 0034 faf7 8833 3eb5 6533 237e 3a34
000001f0: f5fa 7f31 958a db33 9205 4834 5ffd fb32
00000200: c077 9132 9c44 4432 9ab3 bf30 6921 c82f
00000210: 88a6 e832 d2e4 0b33 3959 2f32 9b43 0335
00000220: a604 9832 3f5f 8034 bf32 ef32 f033 d731
00000230: 8619 9134 d6a6 8332 09bb 3d33 427e e232
00000240: df60 d133 0b42 6334 b991 e632 21d3 ae30
00000250: 0a8c d333 28dc eb33 310d c534 f720 3334
00000260: 233b 8c34 059c 4a35 5867 b52f cf64 0335
00000270: 49ac 0636 66d1 e232 30f6 2132 99af ad32
00000280: 8c82 3a32 6af1 cb31 e034 bf33 1b1e b434
00000290: b4a7 0132 6361 2d35 aefe 2d2f ea0e 5335
000002a0: 7dd7 4e30 6be3 8232 0948 6336 b78e 4430
000002b0: fea6 9e31 b68e 8934 e648 1736 aca5 a434
000002c0: e86d a235 8d46 0733 7030 3d36 d54b cb34
000002d0: 391c f729 bf4e bc29 d865 310b c697 1e0d
000002e0: c29e fb09 1c48 1a28 14a9 800c 8690 050c
000002f0: 48cb a728 88f3 f229 3b8b a20c 01ff c30a
00000300: c151 d527 eea8 a409 0192 2128 3a60 cd28
00000310: 8603 980d 8f50 b628 f677 0e0e a59a 2229
00000320: a6cc c50b be77 340b 9593 100e 0ccf 910d
00000330: 5bb4 c70c ebab 0a2b 18f8 890b 1964 870c
00000340: 7051 070f 75cd 3128 a7e7 ab34 35ae 3234
00000350: 225c aa32 db2f ad33 5886 fc32 bb4a 4d34
00000360: 1650 9234 b6b9 7133 d43d e231 89b2 3132
00000370: 46a6 f426 49fc 1633 4a8d 2c31 060e 8e33
00000380: 6e0d d630 8065 5f35 ef4d 9434 a62a 4632
00000390: 6324 1b35 92b6 2e32 5598 0435 7ac7 2134
000003a0: 1f0f f634 4ce3 0333 d681 3234 750e 1a34
000003b0: d6fe a42e 034d 5231 b94b a634 2c37 a334
000003c0: acc1 4236 79ea b535 b68b 9a32 f4db 1b35
000003d0: 2d8c ab35 8bb5 1032 8f3e 9f34 cc7b 9c34
000003e0: 49f8 6233 7aff 6233 976c 1a32 0e17 8a34
000003f0: 4778 ba33 4993 9734 2db9 5d34 c517 9336

exp_avg f4 [30]
-2.6112655e-05 6e-45 6e-45 6e-45 0.0001976419 -6.5855216e-05 6e-45 0.00079087785
0.00025019748 -0.0016500307 -0.0010014175 -0.00061197544 0.00041673848 2.2167857e-05 0.00058821344 0.0002005042
0.00015393663 1.2071143e-36 -0.0006313219 -0.0019433636 6e-45 0.0007998453 0.0010913241 0.0007212714
-0.0011982087 6e-45 -0.0009592603 -3.1309057e-05 -0.0005635271 0.001862579
00000000: 800c dbb7 0400 0000 0400 0000 0400 0000
00000010: 183e 4f39 c01b 8ab8 0400 0000 ea52 4f3a
00000020: f02c 8339 d845 d8ba ff41 83ba fa6c 20ba
00000030: b17d da39 1cf5 b937 5632 1a3a 703e 5239
00000040: 0d6a 2139 3e61 cd03 4c7f 25ba 76b8 feba
00000050: 0400 0000 b6ac 513a c30a 8f3a b413 3d3a
00000060: 360d 9dba 0400 0000 de76 7bba d851 03b8
00000070: aab9 13ba c821 f43a

exp_avg_sq f4 [30]
4.260894e-06 3.8744025e-17 3.988543e-32 5.728316e-35 2.130646e-06 1.47999735e-05 3.080636e-14 3.0802066e-06
2.9190483e-05 2.2878725e-05 3.0515539e-05 2.7773069e-05 2.4154311e-05 5.4133366e-06 5.172765e-06 2.9660172e-05
1.7169365e-06 2.35221e-11 2.5788317e-05 4.1342773e-05 9.24424e-34 1.8703584e-05 9.461402e-06 1.6936563e-05
2.5639285e-05 9.119838e-28 2.6950887e-05 4.2879736e-07 4.7032263e-06 0.00013952017
00000000: cdf8 8e36 dfac 3224 d518 4f0b e648 9806
00000010: 38fc 0e36 674d 7837 51bd 0a29 8cb5 4e36
00000020: 16de f437 b0eb bf37 9ffb ff37 36fa e837
00000030: fd9e ca37 35a4 b536 b791 ad36 bcce f837
00000040: 7d71 e635 0fe7 ce2d fd53 d837 7767 2d38
00000050: a698 9908 a4e5 9c37 6abc 1e37 fe12 8e37
00000060: f213 d737 7582 9012 9714 e237 7635 e634
00000070: 68d0 9d36 294c 1239

exp_avg f4 [2, 30]
0.00088704017 6e-45 -6e-45 6e-45 0.0004432417 0.00019240422 6e-45 -0.00026557533
0.00010630721 -0.00081412785 0.00011843089 -0.0003499728 6.522747e-05 7.553485e-05 6.3577805e-05 -0.0007206139
-9.4509334e-05 -3.798512e-39 -0.0005140479 -0.0015766518 6e-45 -0.00020313775 0.0002729065 -0.0012617575
-0.0015007975 -6e-45 -5.1337935e-05 -4.561758e-05 -0.00026320113 -0.0034668318 -2.5588379e-05 6e-45
6e-45 6e-45 0.0006054514 0.00013100743 -6e-45 -0.00035392202 0.00028092996 -0.00093369855
0.00033475686 -0.00044879806 0.000135489 -8.045591e-05 0.00017606281 -0.0010282893 -9.287997e-05 -4.161767e-39
-0.0007624595 -0.0030802237 -6e-45 -0.0018519158 -0.0001625659 -0.0006694773 -0.0018770886 6e-45
-8.624479e-05 -6.287411e-05 -0.00020643673 -0.0028584993
00000000: 4288 683a 0400 0000 0400 0080 0400 0000
00000010: e562 e839 1dc0 4939 0400 0000 eb3c 8bb9
00000020: 40f1 de38 326b 55ba 1a5e f838 8e7c b7b9
00000030: bbca 8838 7768 9e38 1355 8538 95e7 3cba
00000040: 5033 c6b8 b55c 2980 2cc1 06ba a8a7 ceba
00000050: 0400 0000 6001 55b9 e414 8f39 8e61 a5ba
00000060: 68b6 c4ba 0400 0080 b053 57b8 8155 3fb8
00000070: 42fe 89b9 c933 63bb a0a6 d6b7 0400 0000
00000080: 0400 0000 0400 0000 28b7 1e3a 0a5f 0939
00000090: 0400 0080 9c8e b9b9 c849 9339 73c3 74ba
000000a0: 4e82 af39 a84c ebb9 0d12 0e39 70ba a8b8
000000b0: 809d 3839 aac7 86ba 8ec8 c2b8 5051 2d80
000000c0: cadf 47ba 94dd 49bb 0400 0080 fcbb f2ba
000000d0: 7476 2ab9 dc7f 2fba a408 f6ba 0400 0000
000000e0: 52de b4b8 48db 83b8 f076 58b9 a955 3bbb

exp_avg_sq f4 [2, 30]
2.0728742e-06 9.0659865e-23 1.211524e-32 3.5278072e-37 1.2790939e-06 1.1130056e-06 6.0036914e-17 3.6102162e-07
3.477891e-05 4.3682176e-06 1.5481729e-06 3.4296354e-05 3.6697663e-06 2.2341592e-05 2.3333975e-07 8.322631e-05
1.9080184e-07 2.3291956e-16 1.9451412e-05 1.8976481e-05 2.761352e-36 3.6860114e-05 5.2936566e-06 4.1707284e-05
1.8304148e-05 3.240186e-29 2.1462915e-06 7.4515833e-07 7.177471e-07 0.00026066543 2.3357309e-06 6.501603e-21
2.3514404e-32 2.5007406e-37 3.221492e-06 1.7659893e-06 3.7708515e-20 7.3376015e-07 7.3687355e-05 7.746492e-06
4.690722e-06 8.129861e-05 6.3723032e-06 3.805185e-05 1.8776277e-07 0.00014894023 4.6090923e-07 2.795992e-16
4.1299274e-05 3.200599e-05 1.7567307e-36 6.103567e-05 9.037399e-06 7.922504e-05 3.0854702e-05 9.169699e-29
6.2617933e-06 1.2584561e-06 1.1719281e-06 0.00049361377
00000000: b51b 0b36 bd33 db1a aa9f 7b0a 1217 f002
00000010: 55ad ab35 9562 9535 8a6f 8a24 6fd2 c134
00000020: 92df 1138 b492 9236 d1ca cf35 6ed9 0f38
00000030: 1b46 7636 346a bb37 f18b 7a34 c989 ae38
00000040: 36df 4c34 dc44 8625 972b a337 af2f 9f37
00000050: ece8 6a04 3f9a 1a38 2aa0 b136 dbee 2e38
00000060: dc8b 9937 054c 2410 0209 1036 e406 4835
00000070: 35ab 4035 eca9 8839 8dbf 1c36 a59f f51d
00000080: 0230 f40a 0c31 aa02 d030 5836 ee06 ed35
00000090: cc12 321f 9df7 4435 9988 9a38 eef6 0137
000000a0: ff64 9d36 dc7e aa38 abd1 d536 dd99 1f38
000000b0: d69b 4934 d72c 1c39 e272 f734 8f2d a125
000000c0: c238 2d38 2c3e 0638 3572 1504 4700 8038
000000d0: 559f 1737 9f25 a638 fc69 0138 c07a e810
000000e0: 651c d236 39e8 a835 254b 9d35 dc65 013a

exp_avg f4 [2]
-0.002448148 -0.0042116437
00000000: 1c71 20bb d401 8abb

exp_avg_sq f4 [2]
0.00085429876 0.0017081309
00000000: 05f3 5f3a 5de3 df3a
