pred_ff/86077_pred/epoch=89-step=49230.ckpt (torch, 24858 bytes, 18 tensors)

linear1.weight f4 [30, 11]
00000000: 2919 943d 08aa 1ebf bf2d 16be 2c58 a8bb
00000010: 7da0 b83d a811 653e 73b8 ac3e 4902 5a3f
00000020: 4b46 563f 2c9a 3dbc 20f1 a6bd e311 8e3e
00000030: c288 bc3e 4603 f9bd 35e7 e73a df8c 34bf
00000040: 51d5 433e 0936 283e 7b6a 0bbf f875 87bf
00000050: 30ee 7f3e 9317 bd3d aa60 27be e152 833f
00000060: 5e99 9dbe 2e2f 063d 75da 3a3f a99a 8fbd
00000070: 90d6 39be d150 d33e fad9 1d3f 9555 893e
00000080: e7f1 5c3e 08ac 933e e118 1abf 72bd 66be
00000090: a22a 10bc 60c5 133e 8a40 46be 1aa6 86bc
000000a0: 5f21 5d3f a2b9 133f 621d 93bd 5509 13be
000000b0: 1a0a 953a 71ac 9d3e 9d4e 9a3e 1d73 cdbc
000000c0: bde2 80bd bf57 c33e e69d 73be bc56 4abe
000000d0: 87d1 e7be abb5 01bc 8df6 66bf a599 663e
000000e0: adf0 82bd 41c0 783e 1ba2 c43c 1c85 303f
000000f0: 9aeb a83e b521 cf3d 53e6 363e caca 15bf
00000100: 5167 cbbe e73d fa3e 063a 253c d061 313e
00000110: 7766 fb3d a0dc 103c 529c c03e 5676 783c
00000120: 61d7 99bd f6d5 84bd 43d2 92bf 27bd 39bf
00000130: 4ff8 bf3c d3c1 8bbd fea1 b53e b91c a13e
00000140: 34d0 b1bd e102 0a3f 075c 033f 4487 fabd
00000150: 634c 06be e8b4 173d 316b 293e e581 6a3d
00000160: 4536 6c3e ae29 363e f9a1 373e c532 403c
00000170: 616d 6a3d 4880 c93d 9719 913e 991b d2bd
00000180: 09cd 87be bc8b 3dbf 23db 553d 501f ba3e
00000190: f377 35bf b0ec 133d 5275 6ebb 96d0 4ebe
000001a0: b486 abbe 6057 1c3f 3a1e 373f 9533 d4be
000001b0: 673a 053d 35ac 983d ee34 c43d 8738 133f
000001c0: efd9 7a3e fa0b 813a 7b85 403e b7ca 133d
000001d0: 3b20 a23c 8dc3 a73d 9386 f9be 0038 3a3f
000001e0: 828f 083d a11c cebd 6558 5a3f 9ce9 5b3e
000001f0: 42aa 1d3d 5bcd 47bd 423a 4f3e 1615 36bf
00000200: f0bd ff3e 9128 8fbe c571 08be 1c48 a73e
00000210: d9e3 613e 4540 293f 914b 983e 9716 a83b
00000220: 0b9d 0dbe c651 173d 82a6 a8bd 6b2d 463c
00000230: b363 8f3f 901d 7dbd 7099 cbbd 4aa0 8abd
00000240: 1d0a 28bf 282a e9be 9fa2 273c 6387 99be
00000250: 2efb b73d ba8f 22bd bc50 be3d f5b3 7a3e
00000260: cbbd 91bd 5927 85be a7b4 cabe 52f8 1f3f
00000270: 0de9 0ebd cba6 2c3c 13d8 0a3e 9bfb 6d3e
00000280: 8ebb 76bc 720d ed3d ac24 0abf dc6d 0dbf
00000290: 0a23 f2bb 7e8a c5bd a2ed 54be 13a7 2bbe
000002a0: b5c9 8b3c b545 4fbe 02d0 583e 4aef 0e3f
000002b0: 0194 f8bd 7552 d83e ec85 cc3d 33c4 cf3e
000002c0: b012 17be 8e59 d63e 2d58 8e3d 7825 303d
000002d0: 6653 183f d4a0 3c3e de46 203f 9769 353d
000002e0: 7224 353e 9b42 de3e 3056 a13d 0354 1b3f
000002f0: 2ba0 003f 4050 a4bd 9aa1 d9b9 1b35 e8bb
00000300: 567c 51be 8ba9 ad3e 8705 cabc e8dc 7a3e
00000310: 477f 043f c6d9 b3bd 727b f63b f3d5 fd3e
00000320: 7cf0 723d 4bdf ae3b 360f b13e d272 9abe
00000330: cfae a13e 4de1 233c 896f fb3d 4701 57bd
00000340: 4abb de3d 7023 0b3d d055 8fbe fe1e 813d
00000350: 5100 34bc d9f9 29bf 6cdb 87be d96d 923d
00000360: 9f39 65bf a0f7 f33d 0e9f 04bc e621 fb3d
00000370: 5ba8 653d c7d2 543f 349a b7be bf29 b3bc
00000380: 1f8a 8bbe 1091 bf3e d746 643e bacc a43e
00000390: 8fb7 2dbf 848c 59be 46fc dabe d66e b53e
000003a0: 61eb 78be c1fc 4d3e f4f2 41ba db81 75bf
000003b0: 3604 1e3e 09b6 623e 5ded 0b3d 406d 78be
000003c0: 1752 16be 84b9 83be e17d 35be 54ad dd3e
000003d0: 30b6 b7be 2fdd 033d c060 753f 0669 1f3e
000003e0: 8315 1a3e 60ba a2be 9929 c9bf 1556 9fbd
000003f0: f6f8 f03e 2a06 e8bd 9cd5 633d f2a4 f8bd
0.072313614 -0.619782 -0.14665888 -0.005137464 0.09014986 0.22370017 0.33734474 0.85159737
0.8370101 -0.011572402 -0.0815146 0.2774802 0.36823088 -0.121588275 0.0017692806 -0.7052745
0.19124343 0.16426863 -0.5445935 -1.0582876 0.24993205 0.09233012 -0.16345468 1.0259668
-0.30781072 0.032759838 0.7298959 -0.07011921 -0.18148255 0.41272596 0.6166073 0.26823106
0.21576653 0.28842187 -0.6019421 -0.22533205 -0.008799227 0.14430761 -0.19360557 -0.016436625
0.86379045 0.5770513 -0.07183339 -0.14359029 0.0011370808 0.30795625 0.30138102 -0.025079304
-0.06293247 0.38152882 -0.23790702 -0.19759649 -0.45277044 -0.007916848 -0.90219957 0.22519548
-0.063935615 0.24292089 0.02400308 0.6895311 0.3299225 0.10113851 0.17861299 -0.58512557
-0.39727262 0.48875353 0.010084635 0.17322469 0.12275403 0.008841664 0.37619263 0.015164932
-0.075117834 -0.06486122 -1.1470417 -0.7255425 0.023433832 -0.068240784 0.35475153 0.31467226
-0.0868229 0.5391064 0.513123 -0.12232831 -0.13115077 0.03703776 0.16544797 0.057252783
0.23067577 0.17789337 0.17932881 0.011730854 0.057233218 0.09838921 0.28339836 -0.1025917
-0.26523617 -0.7404134 0.05221094 0.36352015 -0.70886153 0.036114395 -0.0036385846 -0.20196757
-0.33501208 0.61070824 0.715305 -0.41445604 0.0325264 0.07454721 0.09580408 0.5750813
0.24497198 0.0009845488 0.18800919 0.036081996 0.01979076 0.08191595 -0.48735484 0.727417
0.033339985 -0.10064054 0.8529113 0.21475834 0.03849245 -0.048779827 0.20237067 -0.71125925
0.49949598 -0.27960637 -0.1332465 0.32672203 0.22059573 0.6611369 0.29745153 0.005129646
-0.13829438 0.03694322 -0.08234884 0.012095789 1.1202301 -0.06179577 -0.09941375 -0.06768854
-0.6564043 -0.45539975 0.010231643 -0.29986104 0.089834556 -0.03968785 0.092927426 0.2448271
-0.07116278 -0.26006582 -0.39590952 0.6248828 -0.034890223 0.010537813 0.13558988 0.23240511
-0.015059365 0.1157483 -0.53962207 -0.5524576 -0.007389431 -0.09645556 -0.20793775 -0.16762953
0.017063955 -0.20241435 0.21173099 0.55833876 -0.121376045 0.4225041 0.09986481 0.40579376
-0.14753222 0.418652 0.06950412 0.043004483 0.59502256 0.18420726 0.62608135 0.04429015
0.17689684 0.4341019 0.07877767 0.60675067 0.50244397 -0.08023119 -0.00041509868 -0.007086409
-0.20457587 0.33918414 -0.024660839 0.24498332 0.5175671 -0.08781771 0.00752204 0.49577293
0.059311375 0.005336677 0.34581918 -0.30165726 0.3157868 0.010002446 0.12277133 -0.052491453
0.10875566 0.033969343 -0.27995157 0.063047394 -0.010986404 -0.6639686 -0.26534593 0.07149858
-0.8954105 0.11912465 -0.008094562 0.12262325 0.05606876 0.8313412 -0.35859835 -0.021870492
-0.27253816 0.3741536 0.22292648 0.32187444 -0.67858213 -0.21245009 -0.42770594 0.35436124
-0.2430854 0.20115949 -0.00073985686 -0.9590127 0.15431294 0.22139753 0.034161914 -0.24260426
-0.14679752 -0.25727475 -0.177238 0.432963 -0.35881186 0.03219336 0.95850754 0.15567407
0.15047269 -0.31782818 -1.571582 -0.07780091 0.47064942 -0.11329301 0.055623636 -0.12140836

linear1.bias f4 [30]
00000000: 99c9 10be d411 17be 46cf 72bc ba1f d33d
00000010: 648b 3bbe 94da ed3d 67a0 7ebe a707 96bc
00000020: 38b5 2c3e 5b23 20bd 4653 193e 1411 57be
00000030: 2496 1ebc f2ee debd 0c94 df3d 79ab 03bc
00000040: b8f7 a1bd d244 4ebe 70d4 a637 1a62 89be
00000050: b301 82be 34ca ed3d c49e 05be a1f8 80be
00000060: 9414 e1bd 68c6 f8bd b456 3dbe 0cc2 023d
00000070: 4466 d6be ed7b c8be
-0.14139403 -0.14752895 -0.014819926 0.10308786 -0.18314892 0.11613956 -0.24865876 -0.018314196
0.16866004 -0.039096218 0.14973173 -0.21002609 -0.009679351 -0.10885419 0.109169096 -0.008036488
-0.07908577 -0.2014344 1.9887666e-05 -0.26832658 -0.2539192 0.11610833 -0.13048846 -0.2518969
-0.10990253 -0.12147218 -0.18490106 0.03192334 -0.41874897 -0.39157048

linear2.weight f4 [30, 30]
00000000: 1aa9 173e e90a a03e a54c d5be efb0 793e
00000010: 040d d6be 5672 a33e ca9e 983e 941e 10be
00000020: 3e44 873e d6ae fc3b 6f20 d4bf 7cb1 c8bd
00000030: 9725 693e 977f 42be 4b91 3f3d 2e4b 79be
00000040: e6b7 e8bd afb9 953d b380 323d bc29 cabe
00000050: a267 5ebf ba5b ed3d 63f2 ec3d cec9 dc3c
00000060: 468a 69bd dbe7 e2bd 4752 0fbf a53c 8f3b
00000070: 2f3a 01bf 98c4 b1be 8098 b23e a774 07bf
00000080: ee05 fa3e 7934 54be b239 213e a607 c7be
00000090: 45cf ad3e 22dd febc c7db 46be 8124 02bc
000000a0: ecc8 7d3d 1f9a c73d e96a 8dbe b63c 44be
000000b0: ab4b 0fbf a1f9 83bd e5ac 563e a00f 54be
000000c0: a650 1a3d e237 6cbf d9f7 6c3f c4f0 2cbf
000000d0: f5a3 ba3c 1dec c03e 6562 4e3e d826 d6be
000000e0: 9ebc 0c3d 9b17 b1bd 03cf c33d 1d1f cabe
000000f0: 60be d9be 43ef 9cbe 2b3e 963e 80a1 f53e
00000100: c728 1d3d 477f 50bf 94a1 e6bd 0502 4d3d
00000110: b56a 60be 9b1f 7fbe 513d d8bc 31c8 a33e
00000120: aa40 d5be c82a 57bf ee0e a0be 1790 2e3d
00000130: aa4c f43d 6e12 353f 86e3 c83e cb0b 88be
00000140: aca2 31ba b7cc 63bf d413 2b3f 3adb 073f
00000150: 7b39 9fbe 2060 01bf 5961 3d3e c287 05be
00000160: 7376 493c 40b2 15be 442d 873e 3258 b7bc
00000170: b9db b33e fba9 1d3e 4c61 bb3e 5d8c 253e
00000180: fc9f d63e bea3 043d bc38 5d3e 3200 543e
00000190: 16bc c23c 0b70 58bd 95ad e3be 9a1d 28be
000001a0: 81a2 883e e056 903e a899 b0bd 4fab 813f
000001b0: 58cc 043d 8db7 10bd 9603 153d 1bfb 6d3c
000001c0: d0a7 883d b541 4bbe 4073 31bc a0d6 423d
000001d0: 1cc3 5d3e 84b6 8bbe 89f8 aebe e2db 12bf
000001e0: be50 04be 3260 93bf 05db 843e 7dd3 b4bd
000001f0: 7062 353b dc18 3b3e 6839 4f3e 4acd 4d3e
00000200: ba5c 203c 94af 75bf ab68 753e 821f 9f3d
00000210: a449 25be 96b5 e7bd 0703 8b3e 7e05 c8be
00000220: 1600 303d f3c6 8f3f abf5 673d a906 ffbe
00000230: ddba a23d b296 29bf 11e7 133e 7a1a 86bd
00000240: 22db 2ebe 6d17 a63d f2b5 aa3e ec7c a83e
00000250: dd40 1d3f b982 3b3e 8fdc 96be 73ac 28be
00000260: f9b1 f43d 20ce 01be 428a ce3d 1335 9e3b
00000270: d32d dbbe 8fe6 143e 7b6a 8ebe 5f66 be3e
00000280: c154 62be e734 043f bc39 84bd c1bd cbbe
00000290: cc3e a0be 1052 573e 44ba 97be ba21 75be
000002a0: 14a4 883e a03f 893e b171 42bf 8f7b 59be
000002b0: 488b 00bf aece 833d 5773 b03b f825 893e
000002c0: 1cf5 febd 9792 ed3e f9e8 aa3e 9f61 f33e
000002d0: 0d1e 873d 7721 98be 1746 6bbe 7021 603e
000002e0: 8c4a a6be 2165 d83d 2c9a 9dbe 7703 16bb
000002f0: 366f 85be f799 593e 1b78 8fbe 4369 05be
00000300: 2332 80be 7350 4c3e 1ca6 e53c 1b25 893d
00000310: 4454 933d e3bd 42bf f6d1 10be e78b 743d
00000320: e43e 14bf d28e 533c 7f0b e93e 36cf c63c
00000330: 44ee a13e a259 c6be e937 98be a97e 5f3c
00000340: 4516 0bbd b035 dcbd 527a 0b3f fdda 77bd
00000350: 6431 77be ae1b 20bf 517b 663e ed21 8abe
00000360: 3e32 e33d bd6d e23c a754 50bc efea 84be
00000370: 7b7b 12bc fa4f 0d3e 342a 373e 1909 2d3c
00000380: b43a 57be 9cb2 f3be f4cb 08be 8a81 c93e
00000390: bfcd 26bf 657d 9f3d 3239 033f 491a ae3e
000003a0: 92b8 0ebf 71e7 513f b21d afbd 0904 113f
000003b0: 6d6c 81be 4df9 ffbb ee7a 463e fc92 d3be
000003c0: cc9b b53e d13d febe 3b53 5bbe 2782 0abe
000003d0: 9c3e 573e 656c c33d 4f3f 213f 8c08 93bd
000003e0: 8cd5 c5bd 67ab 0abd 8f67 70bf 0c8c 303e
000003f0: bb60 e83a 75e7 61be 4a05 273d 473c 2ebf
0.14810601 0.31258324 -0.41660038 0.24383901 -0.41806805 0.3192317 0.29808646 -0.14074165
0.26419252 0.0077112718 -1.6572398 -0.097994775 0.22768246 -0.18993984 0.04676942 -0.24345085
-0.11363201 0.07310807 0.04357977 -0.39484966 -0.8687688 0.11589761 0.11569669 0.026951697
-0.057016633 -0.11079379 -0.5598492 0.004371243 -0.50479406 -0.34720302 0.34881973 -0.5291237
0.4883265 -0.20723142 0.15744665 -0.38873023 0.33947197 -0.031111304 -0.19419776 -0.0079432735
0.061959192 0.09746193 -0.27620628 -0.19163784 -0.55974835 -0.06444097 0.20964392 -0.20709085
0.03767457 -0.9227277 0.92565686 -0.6755488 0.022783259 0.3768014 0.20154722 -0.4182651
0.034359567 -0.086470805 0.09560969 -0.39476863 -0.42528057 -0.30651292 0.29344305 0.47974777
0.038368966 -0.8144421 -0.11261287 0.050050754 -0.21915706 -0.249144 -0.026396425 0.3198867
-0.41650897 -0.84049654 -0.3126139 0.042617884 0.11928685 0.70731246 0.39236087 -0.26571497
-0.0006776254 -0.88984245 0.6682713 0.5306889 -0.31098542 -0.505373 0.18494166 -0.13040069
0.012296307 -0.14618778 0.26401722 -0.022380922 0.35128573 0.15396874 0.3659767 0.16166826
0.41918933 0.03238272 0.21603674 0.207032 0.023771327 -0.052841228 -0.4446837 -0.16417542
0.2668648 0.2819128 -0.086230576 1.0130404 0.03242144 -0.035331298 0.036380373 0.0145252
0.06672633 -0.19849284 -0.0108307 0.047567964 0.2165646 -0.27287686 -0.34173992 -0.57366765
-0.12921426 -1.1513731 0.2594835 -0.08829401 0.0027677082 0.18271202 0.20236742 0.20097843
0.009787733 -0.95971036 0.23965709 0.077696815 -0.16141373 -0.11313932 0.27150747 -0.3906669
0.042968832 1.123259 0.05663077 -0.4980977 0.079457976 -0.6624557 0.14443614 -0.06548019
-0.1707578 0.08109937 0.33341938 0.32907808 0.614271 0.18311585 -0.29465148 -0.16472034
0.11948008 -0.12676287 0.10084964 0.0048281043 -0.428084 0.14541076 -0.27815613 0.37187478
-0.22102644 0.5164322 -0.064563245 -0.39793208 -0.3129791 0.21027398 -0.29634297 -0.23938647
0.26687682 0.26806355 -0.7595473 -0.2123854 -0.50212526 0.064359054 0.0053848433 0.2678678
-0.12449095 0.46400902 0.3338087 0.47535416 0.065975286 -0.29713032 -0.22975956 0.21887755
-0.3247875 0.10566164 -0.30781686 -0.0022890249 -0.2606141 0.21250139 -0.2802132 -0.13028435
-0.2503825 0.19952564 0.028033309 0.066965304 0.07193807 -0.76070994 -0.14142594 0.059703734
-0.57908463 0.012912469 0.45516583 0.024268728 0.31627095 -0.3874026 -0.29730156 0.013641038
-0.033956785 -0.107524276 0.5448352 -0.060511578 -0.24139935 -0.62542236 0.22507979 -0.26979008
0.11093567 0.027640218 -0.012715495 -0.2596049 -0.008940573 0.1380004 0.17887193 0.010561251
-0.21018487 -0.47597206 -0.13359052 0.39356643 -0.65157694 0.07787589 0.5125915 0.3400443
-0.5575038 0.81993777 -0.08550586 0.5664678 -0.25278035 -0.0078117014 0.19382831 -0.41323078
0.35470426 -0.49656537 -0.21418469 -0.13526212 0.21019977 0.09542159 0.62987226 -0.071793646
-0.096598715 -0.03385487 -0.9390802 0.17240924 0.0017729023 -0.2206095 0.04077653 -0.68060726

linear2.bias f4 [30]
00000000: 58d4 40be d7e5 95bd 30d8 30be 57cb 13bd
00000010: ec64 02be 6355 75bd 68da 973e a3ee d53d
00000020: 563a 50be 4dd8 7cbe bd0c 263d 18ce dfbd
00000030: 513f b2bc 61ce 34be 6593 043e 4c62 cc3c
00000040: e010 df3d 7a9a 10be 4434 173c 3c04 c93d
00000050: 894d 9fbc fc06 513d dc62 af3e 43a9 45be
00000060: b3b1 f73d 3ba2 03be f457 3a3e 713c 43be
00000070: 73a6 0ebe b66f 11be
-0.18831003 -0.07319229 -0.17269969 -0.03608259 -0.12733811 -0.059895884 0.29658818 0.10445907
-0.20334753 -0.24691887 0.040539492 -0.10927981 -0.021758707 -0.17656852 0.12946852 0.024949215
0.108918905 -0.14121428 0.00922877 0.09815261 -0.019446151 0.05103205 0.3425511 -0.1930285
0.1209444 -0.12854855 0.18197614 -0.19066025 -0.13930683 -0.1420277

linear3.weight f4 [2, 30]
00000000: 3dd4 93be cac8 dabd b2d2 c53e 8680 5e3d
00000010: 87e3 d13d 3f9f 28be 9b4d 92be 6770 16be
00000020: c80c f9be 7942 55be 971c ab3e 21c9 67be
00000030: dc93 cfbd 1485 97be d2d2 d8bd 01dd f5bd
00000040: 37ca 9fbd aff7 c13d dfb4 24be 7748 6f3e
00000050: 247b b83e 4f0c bd3d d057 0fbe 1661 cd3c
00000060: 5ec6 7abd 28f4 543e c790 cfbd 7d77 3cbe
00000070: e375 2f3d 1d21 463e 633c d03d 9d7c 423e
00000080: 7296 4d3d 4506 013e 7f15 5f3e ba41 d9bd
00000090: 5587 01bd 8c82 37be 30c1 1b3e 118d 363e
000000a0: a95e aa3b 35e8 c43d 2f68 d1bd afc0 23bd
000000b0: 8b19 4abe 6b9e 673d abbc 2abe adab b83d
000000c0: 77b1 ca3d 29f7 9cbe b557 96bd bafc 44bd
000000d0: 6bc3 63be b073 a43d 33b2 29be 0b18 3d3e
000000e0: 52bd b3bd 0406 2cbe ff37 53be 30d2 9b3d
-0.28872862 -0.10682829 0.3863731 0.05432179 0.102484755 -0.16466998 -0.28574833 -0.14691316
-0.48642564 -0.20826139 0.3342025 -0.22635318 -0.10135624 -0.29593718 -0.10587086 -0.12005044
-0.07802241 0.0947107 -0.16084622 0.23367487 0.3603145 0.09230863 -0.13998342 0.025070708
-0.061224334 0.20796263 -0.10135036 -0.18404956 0.042837035 0.19348569 0.10167768 0.18992849
0.050192304 0.12600048 0.21785544 -0.106082395 -0.031623203 -0.17920893 0.15210414 0.1782725
0.0051992727 0.096146025 -0.102249496 -0.03997868 -0.19736306 0.056547564 -0.16673534 0.090171196
0.0989713 -0.30657318 -0.073409475 -0.04809258 -0.22242515 0.08029878 -0.16571884 0.18466203
-0.08776344 -0.1679917 -0.2062683 0.076084495

linear3.bias f4 [2]
00000000: 8fab ebbd a9fc 4abe
-0.115073316 -0.19822945

exp_avg f4 [30, 11]
00000000: 72e7 b53a 1dbe 5539 f942 00ba 498c 563a
00000010: 3156 2239 2118 e639 0dbd c0b8 b66a 08ba
00000020: 5080 09b9 109d adba a250 b039 8bef 43ba
00000030: 80d8 bf36 362e 6f39 608b adb9 b5f7 6cb9
00000040: 86c8 7bb9 2864 ae39 db04 a8b9 ec19 3b37
00000050: 82f8 5c3a ac93 cbb8 9299 0e3b de9d 2e39
00000060: 807b 99ba e5cf 973a 0aa9 6db9 4eeb 5a3a
00000070: 0e72 9a39 7341 0dba b2d2 f2b8 ba35 1abb
00000080: 51d2 88ba 5da6 81ba 771a e5b9 aab7 663a
00000090: 2ea6 1cba f90e 0db9 7991 9cba 6603 dbb8
000000a0: 6064 2a38 993d ee38 c47c 7b3a 7e2e 98ba
000000b0: d037 e63a f189 053a 2a37 8bba 6852 863a
000000c0: 907a 34b7 c9b6 b43a 6e80 9e39 e785 aab9
000000d0: 3854 1ab9 d675 e7ba 489d 993a 4360 e1b8
000000e0: def1 bdb7 856b fd36 fb95 94b8 6df8 c237
000000f0: 8335 2038 5526 14b8 1a94 4838 e9ff d036
00000100: 3774 b638 b996 2238 36e9 f1b4 71ef 6db4
00000110: 47d9 c634 c01e 80b4 d2c8 0634 83f6 d5b4
00000120: 0a51 fab3 58cf 8533 3faa 9c32 a2b4 39b4
00000130: 45b2 59b2 c8d5 ad39 34ec ae38 4a59 8fb9
00000140: 0a89 6d39 60af 90b8 d76d 2339 325a d338
00000150: 28f3 4cb8 0069 f1b6 6a2b c3b9 a6c1 03b9
00000160: f6b0 95b5 9785 17b5 5aee 7d35 8e98 1bb5
00000170: 8773 6633 18aa 8bb5 705f 21b4 672d e433
00000180: 97b1 9433 76f1 afb4 d14b 6934 22aa 12bb
00000190: 7c97 c8b9 1aae 733a 426a a1ba 0e25 ceb8
000001a0: 37d0 07bb 74b4 8fb8 3b83 0e3a 5045 4639
000001b0: d234 113b a0d2 243a 7726 013b c1d6 e539
000001c0: 7190 d7ba 29f5 993a 087c 09ba a81d 043b
000001d0: bc4a 2939 fc64 03ba cef2 e1b8 76aa 08bb
000001e0: 6395 5c3a 5e45 09ba 1d3e 8539 6637 97b9
000001f0: 1592 8ab9 80e4 97b9 9c98 be39 aa14 8439
00000200: 646b 8638 e8ba 5638 f02e f639 e84a c238
00000210: 1f7f 1638 6e56 7fb8 2126 9f38 8d1b 5335
00000220: ed02 c9b7 803b b1b8 ea1d 58b7 ec27 9337
00000230: 0fac 5337 05c7 03b8 0f04 a437 0088 213a
00000240: 6196 a3b7 880b 3539 bd95 ad39 1771 fe38
00000250: e8bd 86b8 5630 5837 7055 81b8 6fbd 86b8
00000260: 7c1b 1aba 30ed 0938 5072 6338 24a0 2039
00000270: 3e83 a5b9 5878 4938 88b0 34b9 6035 65b9
00000280: 0328 9138 a92b 38b9 fca3 3237 8c2d 25b9
00000290: 20df eeb6 e860 d6b9 cc74 84b8 9a89 bf38
000002a0: 6164 3cb9 0210 5fb8 960f 1ab9 2b12 2cb7
000002b0: 1a07 aa38 422d ab37 f566 f839 83ee 5f39
000002c0: deaf de3a a526 1c39 f4c5 69ba 66fa 783a
000002d0: 48e6 0f39 6cb9 b13a 9a60 2db9 d908 79b9
000002e0: a280 c9b8 b0a4 e4ba 769e 3739 0d71 c63a
000002f0: 7cf0 a2b9 605d e437 2ae7 703a 4ace c439
00000300: 8a62 a23a 8836 16ba 32d2 c139 0c00 42b8
00000310: ce47 d2ba 3a93 9bb9 2e1c de39 6c54 1f39
00000320: 9b53 aeb9 1e10 0b39 3b25 b3b8 c19a dc39
00000330: 9a70 7a39 769a 79b9 a210 45b8 7d37 e8b9
00000340: 707f 33ba 74d7 01ba 04c8 2a39 42ae 9139
00000350: ea49 9bb9 444f 3339 6876 2bba c066 9239
00000360: 2059 ea37 d0b8 84b6 103b 363a beef dcb8
00000370: 138b 8438 3396 edb7 d9c8 b137 c0a7 a636
00000380: 042b 3537 db0a 8eb8 66e9 0ab8 c95f f337
00000390: 5bfe 2fb7 84bf a1b8 e85b f536 5a42 4ab9
000003a0: 44ab 9037 f0b9 b037 a78d ffb8 37c5 98b8
000003b0: bdfc 8bb9 d16d a538 b46f 1fb7 c6a8 b437
000003c0: 5b92 4939 c9b7 0bb9 40c0 a039 e487 1cb8
000003d0: 06d4 0cb9 8467 fa38 a004 fb36 8cfa 24b9
000003e0: 9075 6cb9 5f11 8538 46b7 b237 946d b9b9
000003f0: 785b f0b8 85dd 98b8 d879 63b6 4273 bc37
0.001387818 0.00020384086 -0.0004892792 0.0008184356 0.00015481633 0.00043886996 -9.190487e-05 -0.00052038895
-0.00013113138 -0.0013245661 0.00033629412 -0.00074743544 5.7174475e-06 0.00022810031 -0.00033100974 -0.00022598992
-0.00024011926 0.00033262488 -0.00032047075 1.1152104e-05 0.00084293645 -9.7073e-05 0.0021759016 0.00016652743
-0.001170978 0.0011582343 -0.00022665053 0.0008351103 0.00029458146 -0.0005388476 -0.00011578704 -0.0023530559
-0.0010438656 -0.0009891499 -0.00043698002 0.0008801172 -0.00059756904 -0.00013452386 -0.001194521 -0.00010443367
4.062464e-05 0.00011360198 0.00095934817 -0.0011610535 0.0017564241 0.0005094102 -0.0010621299 0.0010247948
-1.0757372e-05 0.0013787384 0.00030231796 -0.00032524692 -0.00014717958 -0.0017659019 0.0011719847 -0.00010746766
-2.2643184e-05 7.5525045e-06 -7.085126e-05 2.3242284e-05 3.819681e-05 -3.532165e-05 4.7821646e-05 6.228675e-06
8.700083e-05 3.876418e-05 -4.505943e-07 -2.2159453e-07 3.7038464e-07 -2.3864231e-07 1.255278e-07 -3.9853703e-07
-1.1656273e-07 6.231011e-08 1.823821e-08 -1.7295181e-07 -1.2671596e-08 0.0003315641 8.340963e-05 -0.0002734161
0.00022653132 -6.899121e-05 0.0001558581 0.00010078064 -4.8863847e-05 -7.1945833e-06 -0.00037225644 -0.00012565273
-1.1152868e-06 -5.644628e-07 9.459669e-07 -5.7963996e-07 5.365612e-08 -1.0405811e-06 -1.5029013e-07 1.0625336e-07
6.9240905e-08 -3.2771976e-07 2.1727398e-07 -0.002237924 -0.00038259837 0.00092956575 -0.0012314992 -9.8297474e-05
-0.002072347 -6.8523834e-05 0.0005436425 0.00018908572 0.0022156728 0.0006287489 0.0019706765 0.00043838288
-0.0016446245 0.0011746037 -0.00052446174 0.0020159278 0.00016144937 -0.0005012301 -0.00010774062 -0.0020853556
0.00084145943 -0.0005236472 0.00025414015 -0.0002884224 -0.0002643025 -0.0002897121 0.00036353327 0.00025192398
6.409621e-05 5.1195646e-05 0.00046955748 9.264593e-05 3.5881178e-05 -6.087723e-05 7.588813e-05 7.8643717e-07
-2.396243e-05 -8.4511004e-05 -1.2881568e-05 1.7542356e-05 1.2616641e-05 -3.1418185e-05 1.9552213e-05 0.0006161928
-1.950114e-05 0.00017265801 0.00033108695 0.000121327284 -6.424991e-05 1.2885857e-05 -6.167113e-05 -6.424903e-05
-0.0005878729 3.2884243e-05 5.422748e-05 0.00015318446 -0.00031569035 4.8034213e-05 -0.000172319 -0.00021859026
6.9215916e-05 -0.00017563872 1.0647807e-05 -0.00015752594 -7.118928e-06 -0.00040889462 -6.3160056e-05 9.13322e-05
-0.00017966471 -5.318225e-05 -0.0001469239 -1.0256229e-05 8.1075545e-05 2.0405863e-05 0.00047378955 0.0002135579
0.0016989668 0.00014891716 -0.0008917742 0.00094977615 0.00013723329 0.0013559288 -0.00016534553 -0.00023749786
-9.6083866e-05 -0.00174441 0.00017511271 0.0015139893 -0.00031078223 2.72232e-05 0.00091897196 0.0003753773
0.0012388986 -0.00057301717 0.00036968436 -4.6253248e-05 -0.0016043128 -0.00029673596 0.00042364135 0.00015194871
-0.00033250157 0.00013262077 -8.54232e-05 0.0004207697 0.00023883805 -0.00023804032 -4.698395e-05 -0.0004429183
-0.0006847298 -0.00049530645 0.00016286975 0.00027786387 -0.00029618974 0.00017100299 -0.0006540776 0.00027923845
2.7936476e-05 -3.9554216e-06 0.000695155 -0.00010535073 6.320155e-05 -2.8322544e-05 2.1193571e-05 4.966714e-06
1.0798456e-05 -6.7731096e-05 -3.3119133e-05 2.901246e-05 -1.0490035e-05 -7.712751e-05 7.3122683e-06 -0.00019288939
1.724589e-05 2.1067419e-05 -0.00012185732 -7.284659e-05 -0.0002670045 7.888268e-05 -9.503146e-06 2.1536263e-05
0.00019223375 -0.00013324538 0.00030660816 -3.7319856e-05 -0.00013430425 0.0001194021 7.4809213e-06 -0.00015733595
-0.0002255051 6.34517e-05 2.1304597e-05 -0.00035367592 -0.00011461129 -7.289186e-05 -3.3896558e-06 2.2465018e-05

exp_avg_sq f4 [30, 11]
00000000: e9bc 8636 9e12 1535 8ea9 af35 3e53 9335
00000010: a65c 8234 c22a 3d36 7457 9034 8c13 0b35
00000020: c089 b433 c6f3 1236 4db7 3335 b446 a136
00000030: 9368 2235 02f0 9935 59cc a735 d4bc 8d35
00000040: d6b3 8935 78b9 d034 c6e4 cc34 670c 9c32
00000050: 0d58 6f36 fa88 0135 5d0b 1938 977d ec35
00000060: 0698 4a36 0284 1937 1336 0436 934e 2a36
00000070: 94b1 0a36 f2f2 4d36 a3fc 5734 1ea6 d537
00000080: 1ce7 8836 2ffd 6d37 7d69 b335 d9e1 9836
00000090: a91d 7236 97e6 6b35 8358 f936 f508 c835
000000a0: 2182 8c35 db79 ae33 f2e9 1337 0cd3 0436
000000b0: 987c 7f37 8650 6f36 743a 1937 dbc8 8836
000000c0: 4072 be35 1014 7237 3f2a 1a36 55a7 a834
000000d0: 6247 e633 16b6 e236 636f f936 d3c0 9536
000000e0: 62f2 6334 63e8 2b35 25e1 9335 5e09 b334
000000f0: 3d63 5635 d841 b034 d394 f434 2095 8332
00000100: b69d 5436 d14a 5e35 ce6c 5938 5e7a 7c36
00000110: afac 5037 dadd 5d37 e83a 8936 d530 b337
00000120: cce1 5636 8657 df35 e39a 1334 06a2 d737
00000130: 26fc 5936 e16a 1236 6aef 3034 2d74 a634
00000140: 58cd 4635 2cbf 2134 e2e9 ea34 2645 3734
00000150: 93dc 2b34 d837 2432 bbd7 b935 1d07 ca33
00000160: 27b5 0b38 4e9b 5536 45fe 2c37 26ae 0e37
00000170: 5d06 4536 4688 9037 e4fa 0836 7360 a935
00000180: 52f0 5334 73a9 5637 f99b 2536 7b32 ff36
00000190: 25f2 7035 bcaf 3d36 60aa 0136 7af2 1a35
000001a0: 3cbe ea36 3b2a 2335 ce43 bf34 f0ee 4c33
000001b0: 5ccb 9d36 6392 af35 9b34 e538 b18c 9537
000001c0: 3ddd 1738 1333 f037 84f1 4637 3bf3 8538
000001d0: adf6 4e37 5b76 5b36 919d 8635 46d2 3c38
000001e0: 57c3 f736 743e 8e36 3158 3d34 643e c834
000001f0: 68bb 8935 6c1d 9234 a279 2035 9538 8234
00000200: ef4b fc34 f0c6 6d32 2c87 5936 181c 5c35
00000210: 2785 0e36 99db 8634 28aa 1d35 c353 0635
00000220: a50a e534 9d61 5c35 d390 9d34 21d8 1f34
00000230: 7c43 bc33 53e4 d435 36a7 8734 07fd 2236
00000240: d460 5f34 73ae ce34 9941 2735 c22b c034
00000250: 2af6 4c35 b4e8 4834 b45b 6234 9e26 1a33
00000260: 25a2 ca35 c21c b734 60ad a938 926d f936
00000270: 4034 a437 ef37 ac37 5429 de36 5c99 1538
00000280: c487 ca36 a52f 5836 4563 9f34 9ca9 1a38
00000290: e77f a436 f24d 7836 b300 9f34 70ee 2935
000002a0: a8b4 7a35 5ef2 7f35 8f83 a135 d289 b634
000002b0: 339a af34 80f8 9933 ada5 0536 1aff 1d35
000002c0: a3a6 2237 b404 1435 1f1c dc35 e279 1936
000002d0: 891d 5235 f686 1236 30f4 b434 e192 1835
000002e0: 2668 c533 796d ea36 3c5b 3a35 a001 6136
000002f0: 9488 5f34 816b 0435 469e 5a35 4aff 0035
00000300: 92ef 9735 1df9 ad34 25b2 3a34 01cb 7c32
00000310: ce42 5336 5259 7d34 1f54 3936 dba9 b034
00000320: 9ae0 9335 2457 4935 3921 b534 510b 0b36
00000330: 945e 6e34 9672 ed33 9736 da32 91a7 a435
00000340: f4a1 4135 e7b8 1138 3d33 2e36 23df b236
00000350: 61b2 1637 62cb ab36 652b a937 a410 1a36
00000360: 7b29 f035 c914 6734 c526 9537 1441 fa35
00000370: 3e57 6235 f45f 9333 092a eb33 5579 7d34
00000380: 4d1b 0a34 e9e1 7934 1770 9f33 baec 8f33
00000390: a5c4 5b31 8e8c 3535 dfe0 4e33 a96f 5437
000003a0: eea8 be34 a002 ba35 21f0 5836 95bb d135
000003b0: 93d5 f735 3645 4d35 603b 4c35 c3c6 5633
000003c0: a86d 2c37 9dd4 7435 f8d5 b936 b8aa 1535
000003d0: 037d 9135 1bbf b635 8885 2935 4595 8a35
000003e0: d18a d034 3f8a ad34 faa0 5332 c937 5a36
000003f0: d103 7535 3ca4 8136 f982 6035 c5d8 dc35
4.0155032e-06 5.5533917e-07 1.3087863e-06 1.097658e-06 2.4281798e-07 2.8188083e-06 2.688572e-07 5.180998e-07
8.40696e-08 2.189759e-06 6.6949434e-07 4.806405e-06 6.050188e-07 1.146924e-06 1.2501943e-06 1.0560275e-06
1.0259635e-06 3.8877965e-07 3.8164416e-07 1.816643e-08 3.5665028e-06 4.825557e-07 3.6488625e-05 1.7619922e-06
3.0188835e-06 9.150246e-06 1.9701008e-06 2.537771e-06 2.0666967e-06 3.0688793e-06 2.0115344e-07 2.5468933e-05
4.0800205e-06 1.418525e-05 1.336724e-06 4.556245e-06 3.6078075e-06 8.7879874e-07 7.4310824e-06 1.4903768e-06
1.0468685e-06 8.124672e-08 8.816352e-06 1.9792378e-06 1.5228194e-05 3.5660646e-06 9.13312e-06 4.0764985e-06
1.4189354e-06 1.4428995e-05 2.2972379e-06 3.141419e-07 1.0723194e-07 6.7565225e-06 7.4337454e-06 4.4629937e-06
2.1229201e-07 6.404063e-07 1.1017879e-06 3.3348164e-07 7.9865623e-07 3.2830462e-07 4.5556826e-07 1.5318221e-08
3.1682262e-06 8.2810317e-07 5.1838164e-05 3.7622153e-06 1.2437972e-05 1.322428e-05 4.0897758e-06 2.1361202e-05
3.2019916e-06 1.6640267e-06 1.374679e-07 2.5705445e-05 3.248229e-06 2.1817907e-06 1.6478376e-07 3.1004438e-07
7.405956e-07 1.5063841e-07 4.375607e-07 1.7068359e-07 1.600586e-07 9.558754e-09 1.384636e-06 9.407652e-08
3.3308894e-05 3.1829873e-06 1.0311201e-05 8.504407e-06 2.9358991e-06 1.7229595e-05 2.0411617e-06 1.2619552e-06
1.9738334e-07 1.2794847e-05 2.4677704e-06 7.605469e-06 8.9759334e-07 2.8265486e-06 1.932167e-06 5.772232e-07
6.9958896e-06 6.0783685e-07 3.5625857e-07 4.7714764e-08 4.7026388e-06 1.308112e-06 0.000109293695 1.7827699e-05
3.620725e-05 2.8634013e-05 1.1857952e-05 6.3872394e-05 1.23359905e-05 3.2702435e-06 1.0029636e-06 4.5018525e-05
7.383914e-06 4.2392003e-06 1.763408e-07 3.7298298e-07 1.0261838e-06 2.7216026e-07 5.9781644e-07 2.4255556e-07
4.6993907e-07 1.3840449e-08 3.24142e-06 8.199727e-07 2.1237154e-06 2.5119223e-07 5.873467e-07 5.004078e-07
4.266232e-07 8.209843e-07 2.9348902e-07 1.4886656e-07 8.7667075e-08 1.5861682e-06 2.5267371e-07 2.4287162e-06
2.0803719e-07 3.849742e-07 6.2307805e-07 3.5794625e-07 7.635414e-07 1.8711108e-07 2.1081252e-07 3.589104e-08
1.5097363e-06 3.410733e-07 8.0908416e-05 7.433534e-06 1.9574654e-05 2.0530044e-05 6.620927e-06 3.5667195e-05
6.0358743e-06 3.221424e-06 2.9688286e-07 3.6874422e-05 4.9024707e-06 3.700025e-06 2.9616567e-07 6.330438e-07
9.3395147e-07 9.5347593e-07 1.2033723e-06 3.400042e-07 3.2708485e-07 7.1698196e-08 1.991498e-06 5.885828e-07
9.694751e-06 5.514114e-07 1.6399462e-06 2.2869722e-06 7.8274076e-07 2.1834253e-06 3.3705282e-07 5.683815e-07
9.192472e-08 6.9864877e-06 6.9423163e-07 3.3528559e-06 2.081818e-07 4.933027e-07 8.1441647e-07 4.805521e-07
1.1320101e-06 3.2405015e-07 1.7387408e-07 1.4714488e-08 3.1480336e-06 2.3594956e-07 2.7616113e-06 3.290614e-07
1.1017721e-06 7.500514e-07 3.373805e-07 2.07192e-06 2.2199885e-07 1.10570156e-07 2.5403365e-08 1.226772e-06
7.2133776e-07 3.4742898e-05 2.5957845e-06 5.33079e-06 8.982229e-06 5.119874e-06 2.0166577e-05 2.2957474e-06
1.7893466e-06 2.1521113e-07 1.7780238e-05 1.8645392e-06 8.4318515e-07 6.862675e-08 1.09506864e-07 2.3606601e-07
1.2862183e-07 2.3272118e-07 7.4244035e-08 6.702017e-08 3.1980474e-09 6.763229e-07 4.816763e-08 1.2662183e-05
3.551317e-07 1.3858844e-06 3.2326282e-06 1.5626307e-06 1.8465092e-06 7.6469166e-07 7.6082324e-07 5.000653e-08
1.027753e-05 9.1206476e-07 5.538339e-06 5.5755254e-07 1.0839725e-06 1.3615676e-06 6.315172e-07 1.0325244e-06
3.884402e-07 3.2324348e-07 1.2318418e-08 3.2517003e-06 9.1275166e-07 3.863619e-06 8.3637093e-07 1.6454366e-06

exp_avg f4 [30]
00000000: 9800 b7ba b9e1 453a 0454 0ebb 4002 833a
00000010: 0fc7 e6ba f943 e138 86b5 f234 2208 aeb9
00000020: 1655 9935 77e3 123b c3de 00bb b86f 093a
00000030: 44e7 feb7 daf3 22ba 7045 63b8 2ac1 d639
00000040: 2a82 deba 5946 c6ba a354 ddb9 7442 fd39
00000050: 128b 84b8 a9d1 4b39 36bf a0b9 acf9 9838
00000060: e8cf 783b 59af 51b3 f482 4bbb 4813 2a3a
00000070: 9af9 4bb9 d436 c23a
-0.0013961969 0.0007548589 -0.0021717558 0.0009995177 -0.0017606932 0.00010741497 4.5208088e-07 -0.00033193926
1.1424152e-06 0.0022413412 -0.0019664026 0.00052427826 -3.0386851e-05 -0.0006216146 -5.4185686e-05 0.0004096118
-0.0016976048 -0.0015127166 -0.00042215464 0.00048305432 -6.320154e-05 0.00019437693 -0.0003066004 7.29443e-05
0.0037965719 -4.8821082e-08 -0.0031053396 0.00064878585 -0.00019452572 0.0014817365

exp_avg_sq f4 [30]
00000000: e748 9036 abaf a136 b334 1938 ad64 7137
00000010: 22ce 8237 2d99 9636 e209 5b38 2c91 1236
00000020: e9af 0e38 842d 0237 b999 e938 c865 8e36
00000030: 1113 1536 aa2e 2536 e494 ab38 1fe7 7d36
00000040: 8c15 2537 9fa8 6636 80b0 3d36 da59 1338
00000050: 7b67 6235 911e 5637 72ec b936 e02e 8236
00000060: 6508 8e38 7895 c836 4d38 d837 22e6 9937
00000070: 1099 3236 2324 1d37
4.3000214e-06 4.8186243e-06 3.6527123e-05 1.438816e-05 1.5593196e-05 4.4881804e-06 5.2222873e-05 2.1840196e-06
3.4019267e-05 7.759201e-06 0.00011138939 4.2437787e-06 2.2213828e-06 2.4614078e-06 8.1816484e-05 3.7834468e-06
9.839783e-06 3.4370821e-06 2.8265931e-06 3.5131212e-05 8.4342145e-07 1.2762511e-05 5.5409555e-06 3.879759e-06
6.772651e-05 5.977865e-06 2.5775424e-05 1.8346185e-05 2.661316e-06 9.366343e-06

exp_avg f4 [30, 30]
00000000: ee5f 82b1 9206 4eaa ab5d 4bb1 1d05 62b2
00000010: 8cdf 8dae e3b9 acb2 77de cab1 5757 7ab1
00000020: f865 80b2 c6eb 11b2 88a2 6a19 57be c830
00000030: 17aa 792f 9b21 7930 28af c2b2 1ada a2b0
00000040: 7a31 4bb1 0400 0000 63a8 6db2 95b8 de2e
00000050: bf2f 962d 307e e830 5950 1cb1 09fc eeb1
00000060: 6a47 d8b2 79e5 a530 0400 0000 6544 deb1
00000070: 8b7a a6af 6482 46af 8089 d736 d08d 39b8
00000080: 1f8c dcb9 c71d 9e38 85ad 69b8 07d3 31b6
00000090: baf6 9630 db57 beb9 1218 dbae f817 3bb7
000000a0: dbd4 5dba 0edc 52b9 cda2 0eb4 8416 cc37
000000b0: 1567 58b8 ca8c 68b9 ea79 fcb9 a86a 2db7
000000c0: 8c13 d0b8 4469 87b5 943d 21b6 09dd aa34
000000d0: 9e2a 99b7 550f 82b6 13ce a7b8 bd1e e423
000000e0: 8a75 76b9 6cf1 3cb9 d101 43b8 6f8e cdb7
000000f0: 044e 83b7 4c43 9ab8 17b9 0bba cd74 34b9
00000100: 3482 f6b6 95fa 79b6 01f9 59af 5879 90b9
00000110: fe90 0cb0 b25e 20b9 fe61 82ba a84b 1cb9
00000120: 778f 3f36 c0bf de37 a07f 8d36 2858 a4b9
00000130: 1e3f 09ba 42a8 56b7 b420 11b9 641a 97b7
00000140: 80e3 9235 0003 20ac 14cd 86b8 e85d edb5
00000150: 8645 97b9 7f78 f5ad 6cc1 a2b9 2388 8636
00000160: 6ed1 2bb9 3273 16b9 d0ab 3337 f012 5d37
00000170: ac6d c6b9 24a6 a7b7 ccb1 ecb6 a0dc 56b6
00000180: b6ed be32 17c7 92b9 8d8d 2033 862e d4b8
00000190: e175 30ba e5be 36b9 c50e 5437 bef8 4a38
000001a0: b806 1237 a063 6eb8 50e4 b3b9 dcbf b1b7
000001b0: ccfd 19b9 98ef 2a37 4cf3 db37 79c2 3b38
000001c0: 5482 e8b7 8793 1d36 d75e 46b9 9ac3 09b0
000001d0: e883 97b9 dc30 bcb8 f772 f8b8 97cc e6b8
000001e0: e4d8 99b9 fad9 21b8 8154 9aba 6bd7 dcb9
000001f0: f4ca afb9 f681 93b6 ab95 e432 9a76 1bba
00000200: 770e 8032 6751 9ab9 52e6 3ebb c8b3 c5b9
00000210: 882a 0536 8c17 0d38 d81d 1e37 fb84 0fba
00000220: 6a23 87ba 080b 81b8 de38 9fb9 8313 5eb9
00000230: a638 6b37 fe64 8ab7 e9fe 3038 3509 8ab7
00000240: 1e27 84ba 6075 1730 ff38 84ba 5de0 b2ba
00000250: b2a2 90b9 90df 70b9 ed29 d938 5804 d236
00000260: fe90 b339 902a 013a da7d 4139 46d5 0cb5
00000270: 8888 8db2 aaf4 5136 1f6f 98b3 5c9e e239
00000280: 3219 9f3a 1e7c 2c38 aa8e 8ab7 c8f1 3c37
00000290: 481f c2b2 187e f438 39cb ba39 5c00 4038
000002a0: 63ee 7839 7997 0fb9 2657 adad 3c9d fab8
000002b0: 68c9 75b6 8266 2c37 6c9e 5c3a b53b 0230
000002c0: 8092 053a 4ae6 943a 7a81 0039 1fdf 0139
000002d0: 444a 4eb8 5c47 e9b8 b0a4 0f38 be81 fd39
000002e0: d657 2039 052e 5c36 b6b8 21b3 2079 7338
000002f0: 46e0 fcb3 f07b a239 94bd ef39 48ab 9438
00000300: 3140 27b8 f3e6 a3b8 865c efb7 6242 d9b9
00000310: b023 81b7 729b 63b6 04b9 cf38 3c5f f1b9
00000320: dd02 9635 45b1 b0b9 bab1 66b7 2227 9cb6
00000330: 6bc1 793a 8597 ee30 e0ca f339 28e0 683a
00000340: 8ef4 9738 6e5f a138 3b82 8736 e0ab 34b8
00000350: 48ae 8c37 8c84 ceb6 68a3 aeb7 0195 5f34
00000360: 702d 9bae c3b1 51b7 a037 f6b1 66bb e9b7
00000370: 84d5 ceb8 01ab e136 c305 22b7 3ca1 a7b8
00000380: b501 82b6 1b07 89b8 d1a0 d737 1ec9 4837
00000390: 8e35 fb37 8e6b 54b9 ceb8 3b30 44eb 2eb9
000003a0: 0f8c 50b5 3a01 b9b5 d12f 9ab8 1135 d7af
000003b0: 4083 4237 50b5 35b8 e54a 06b6 dd80 9a34
000003c0: 6036 002f 33b2 ed16 7732 142f 420b 3cb2
000003d0: 9dc6 4433 2c4e 84af 34f2 d0b1 2d6f 392f
000003e0: 3e1a 46b1 7fb3 372e c836 1026 91ec 1830
000003f0: e61c 742b bce1 c830 8d63 a4b1 b2cf 252f
-3.794404e-09 -1.8298755e-13 -2.9593632e-09 -1.3156094e-08 -6.4516475e-11 -2.0107967e-08 -5.904265e-09 -3.6429435e-09
-1.4947531e-08 -8.4937195e-09 1.2130339e-23 1.4606013e-09 2.2706846e-10 9.063343e-10 -2.2664224e-08 -1.184904e-09
-2.9568512e-09 6e-45 -1.3833502e-08 1.01281795e-10 1.707423e-11 1.6916086e-09 -2.274666e-09 -6.9553647e-09
-2.5178185e-08 1.207055e-09 6e-45 -6.468826e-09 -3.0282296e-10 -1.8054319e-10 6.4235064e-06 -4.423951e-05
-0.00042066068 7.5395736e-05 -5.571313e-05 -2.649789e-06 1.098406e-09 -0.0003630508 -9.963243e-11 -1.1151649e-05
-0.0008462199 -0.00020109137 -1.3284007e-07 2.432918e-05 -5.1594416e-05 -0.00022177692 -0.0004815602 -1.0336436e-05
-9.921854e-05 -1.008892e-06 -2.4026713e-06 3.1825792e-07 -1.8258866e-05 -3.876087e-06 -8.001565e-05 2.4732828e-17
-0.00023504175 -0.00018019014 -4.6493315e-05 -2.450423e-05 -1.5652746e-05 -7.355827e-05 -0.000533001 -0.0001720965
-7.346529e-06 -3.724975e-06 -1.9824499e-10 -0.00027556228 -5.113775e-10 -0.00015294066 -0.0009947417 -0.00014905503
2.8544725e-06 2.6553753e-05 4.216985e-06 -0.000313462 -0.00052355404 -1.279457e-05 -0.0001384046 -1.8012892e-05
1.0944059e-06 -2.2739033e-12 -6.427817e-05 -1.7685206e-06 -0.00028852763 -2.7906786e-11 -0.00031043158 4.0093596e-06
-0.0001638585 -0.00014348028 1.0709235e-05 1.3177036e-05 -0.00037847215 -1.9985317e-05 -7.0540464e-06 -3.2016906e-06
2.222701e-08 -0.00027995624 3.7381643e-08 -0.000101176134 -0.00067314325 -0.00017427986 1.26396235e-05 4.8392212e-05
8.7038425e-06 -5.6836405e-05 -0.00034311647 -2.1189386e-05 -0.00014685764 1.0188574e-05 2.6220128e-05 4.476539e-05
-2.7717244e-05 2.3480695e-06 -0.00018918082 -5.0118276e-10 -0.00028899242 -8.973639e-05 -0.000118469754 -0.000110053625
-0.0002934403 -3.8588398e-05 -0.0011774452 -0.0004212217 -0.00033529813 -4.396071e-06 2.6610754e-08 -0.0005930454
1.4907739e-08 -0.00029433818 -0.002912898 -0.00037708716 1.98433e-06 3.363895e-05 9.424482e-06 -0.0005474833
-0.0010310237 -6.153254e-05 -0.00030369213 -0.00021178839 1.4020281e-05 -1.649791e-05 4.2199074e-05 -1.645517e-05
-0.0010082459 5.510028e-10 -0.0010087787 -0.0013647188 -0.00027587038 -0.00022971467 0.000103551756 6.2589934e-06
0.00034249568 0.0004927302 0.00018452798 -5.246442e-07 -1.6476648e-08 3.128584e-06 -7.0982644e-08 0.00043224066
0.0012138246 4.112359e-05 -1.6517315e-05 1.1261967e-05 -2.2598797e-08 0.000116583135 0.00035628097 4.5776702e-05
0.00023739929 -0.0001369397 -1.9706525e-11 -0.00011950216 -3.6625079e-06 1.0275866e-05 0.00084159407 4.7378573e-10
0.00050953776 0.0011360135 0.00012255265 0.00012385518 -4.9183393e-05 -0.000111235975 3.4247234e-05 0.00048352586
0.0001529151 3.2809342e-06 -3.7653727e-08 5.804852e-05 -1.17754595e-07 0.00030991388 0.0004572688 7.0890936e-05
-3.9875686e-05 -7.815463e-05 -2.8534105e-05 -0.00041438924 -1.5394617e-05 -3.3916117e-06 9.904991e-05 -0.00046038057
1.1176704e-06 -0.00033701412 -1.37504485e-05 -4.653718e-06 0.0009527418 1.7359844e-09 0.00046499725 0.00088834995
7.245793e-05 7.6948534e-05 4.0384743e-06 -4.3075415e-05 1.6770457e-05 -6.154709e-06 -2.0818508e-05 2.0822701e-07
-7.056655e-11 -1.2498759e-05 -7.165866e-09 -2.7863029e-05 -9.862616e-05 6.72543e-06 -9.657294e-06 -7.993213e-05
-3.8745006e-06 -6.5339926e-05 2.5704883e-05 1.1967755e-05 2.994647e-05 -0.00020257963 6.8292827e-10 -0.00016681576
-7.768985e-07 -1.3783931e-06 -7.352199e-05 -3.9145978e-10 1.159386e-05 -4.3322623e-05 -2.001115e-06 2.8778496e-07
1.166085e-10 3.8401875e-25 1.347845e-10 -1.09456e-08 4.5815444e-08 -2.4066205e-10 -6.081132e-09 1.686515e-10
-2.882771e-09 4.1768807e-11 5.003428e-16 5.563346e-10 8.672632e-13 1.4616073e-09 -4.784346e-09 1.5080451e-10

exp_avg_sq f4 [30, 30]
00000000: ed85 5633 eac7 4f2d 294c 5c31 ad15 3734
00000010: b3c5 7c32 5219 5c34 0614 2034 6b85 3d32
00000020: f0e0 8335 218a 2e34 a5ad d628 5f09 da33
00000030: 6313 3632 d2b5 7732 1256 dd35 4a29 8f33
00000040: 3e49 2830 e6bc a909 03cf e933 ae86 5d32
00000050: c56b 8231 af43 8834 d348 4131 741c 6f31
00000060: 447b f233 fc04 3d34 26c0 b31b 4b92 e834
00000070: 3a31 7431 15a7 0031 e75b 3434 34a3 be31
00000080: 2e6a 1f35 5b72 d034 ea1e 3633 933b b631
00000090: 91d3 5430 bcdf 6334 1525 292f 421e 4934
000000a0: 789f f035 ebe8 1233 4b5b 1530 b4c7 0032
000000b0: e5bc af32 d888 8834 77d0 0035 3c7a f92e
000000c0: 430c f432 369f 1b30 fd64 ab30 2e9c 5a30
000000d0: bc30 1b33 fcf1 8332 c365 9935 e9ca bd2c
000000e0: eab3 1134 e90c 1735 00f4 1133 ae55 2932
000000f0: 4d4b c732 19cf 0034 15f9 c135 1bfa 3333
00000100: e4ba 3630 2f3c a730 d404 062f 2ef6 9534
00000110: 0a06 d32e 626a 6132 2a36 0136 0e10 2333
00000120: 224c 142e 952e 8f30 de22 b433 1aef 3c35
00000130: 4a36 7035 6d34 6830 ce3d 3433 ea34 ce32
00000140: 4ae1 b732 1fb9 a52c f7c7 1634 0a9d e031
00000150: 5897 8633 b721 dc2d bed9 f033 dacb f330
00000160: 0f55 8c33 689e 8732 7bdd 8d34 c7f5 9133
00000170: 2018 5c35 2e5b 6835 78ce b633 5571 2835
00000180: 0a40 3c35 95a7 9634 0c49 8836 3edf 4435
00000190: 22be 1436 ee9e 9334 1f0d 2f32 da63 a733
000001a0: b396 0f37 3448 9435 5ad3 2b35 260f 0031
000001b0: 077f 2135 aa5a ce34 4711 8334 a82a 4a35
000001c0: 1e47 6f34 9ca3 0333 12f4 af35 c48c 3935
000001d0: d79f cc33 168c a635 b24b 2034 6691 4433
000001e0: 6db9 4234 8484 5131 5764 db35 5819 a835
000001f0: dc3d bc34 3d80 ac35 a5ac ae35 ed13 1b35
00000200: ac08 b136 e12d b133 f7f9 ad36 97a3 3f35
00000210: 9910 4c30 b9c0 1c34 ec7e 7737 15f8 6635
00000220: 5d49 4235 442b ac30 30ba 4c35 c7ad 2834
00000230: a95a fb34 683f f933 8023 1e35 6f1f d833
00000240: 9b7f 7936 64a2 8635 41af 4835 7806 9736
00000250: 1239 0e35 ce19 9e33 40a5 1733 8c53 b032
00000260: 1b4b e433 ddbc ab35 992f cb34 ef04 e333
00000270: 2a78 4933 0411 5430 06a3 eb34 ed78 8735
00000280: 246e 0936 7b35 4632 3238 2f32 6710 5834
00000290: bdb9 0735 52cc 9d34 bdd4 9b33 8bfc 4131
000002a0: aa95 b234 f046 2536 0963 d02d 1a0e 7835
000002b0: 0f88 c131 6f22 ca32 84da b436 ba3f 9833
000002c0: 6c9a 9534 6fc0 cc36 e3a2 c834 fc44 2534
000002d0: 9e6a b934 2b4e 3a34 b26c 2435 4aa9 4536
000002e0: 4605 2835 d983 5635 5e15 0f35 90a5 d034
000002f0: 8b3e 5036 ca86 fa35 a0fa ce36 88d1 5c34
00000300: 4983 5833 3739 1335 db8c c636 057a de35
00000310: 4a1a 3c35 bd62 7931 c828 5835 633c a536
00000320: 198a a131 e5a2 2036 6991 c833 06dc a333
00000330: 9317 2937 c7b5 b434 9688 ec34 b3fa 2737
00000340: 846b 1d35 a9f3 5b34 6241 9633 abb0 6433
00000350: 430b a632 df3e d333 065b 8634 810c c633
00000360: 614a 1534 c584 5d33 6406 b535 e96f 3834
00000370: 1c78 4835 7af1 df33 3c98 ed32 0121 bf34
00000380: 6d03 3236 0d57 6c34 c9fb cc32 eb3c 8a30
00000390: 5e44 6533 1879 3836 e78e 0d34 6c67 0536
000003a0: c594 7f31 057c 5631 0a21 2d35 6c22 8334
000003b0: e89c 1d33 71ed 4e36 0e3c ab33 2c88 1232
000003c0: f7e3 1d32 bfe5 8a28 a525 e031 1ddb 9d33
000003d0: 2ce7 2533 0c8a 0234 3d23 df33 0ee2 fd31
000003e0: 45db 7434 e48a 2231 334b 5629 b9fd ae33
000003f0: f1b1 382d 60fa 5331 c6d4 3535 b73b df31
4.9947563e-08 1.18109775e-11 3.2057506e-09 1.7051089e-07 1.4713282e-08 2.0498308e-07 1.4908446e-07 1.1031584e-08
9.825726e-07 1.6255264e-07 2.3834079e-14 1.0153121e-07 1.0598202e-08 1.4418633e-08 1.6490833e-06 6.666467e-08
6.122213e-10 4.086291e-33 1.0887563e-07 1.2894516e-08 3.79575e-09 2.538122e-07 2.8126592e-09 3.4795251e-09
1.1291425e-07 1.760381e-07 2.973724e-22 4.331981e-07 3.5534655e-09 1.8721427e-09 1.679724e-07 5.548282e-09
5.938663e-07 3.8826224e-07 4.2403293e-08 5.30367e-09 7.7425805e-10 2.1222417e-07 1.5383635e-10 1.8730591e-07
1.7927805e-06 3.420511e-08 5.433562e-10 7.495988e-09 2.045858e-08 2.543154e-07 4.798707e-07 1.1344922e-10
2.8410915e-08 5.6614924e-10 1.247059e-09 7.952988e-10 3.6133073e-08 1.5360449e-08 1.1429005e-06 5.3942306e-12
1.356963e-07 5.627067e-07 3.398236e-08 9.856576e-09 2.3200892e-08 1.199627e-07 1.4452113e-06 4.1904155e-08
6.64768e-10 1.2167954e-09 1.2188944e-10 2.7932532e-07 9.596242e-11 1.3120912e-08 1.9254026e-06 3.7965997e-08
3.3718923e-11 1.0417859e-09 8.3882455e-08 7.0383396e-07 8.948597e-07 8.447561e-10 4.1965727e-08 2.4005619e-08
2.1406453e-08 4.7101346e-12 1.4042585e-07 6.5371113e-09 6.2673905e-08 2.5026077e-11 1.1215478e-07 1.7738515e-09
6.53473e-08 1.5788103e-08 2.6424445e-07 6.796795e-08 8.1991493e-07 8.655942e-07 8.512592e-08 6.2749797e-07
7.0128647e-07 2.806161e-07 4.0616196e-06 7.334055e-07 2.216439e-06 2.749652e-07 1.0189324e-08 7.7947064e-08
8.558552e-06 1.1047873e-06 6.401002e-07 1.8635062e-09 6.0162023e-07 3.8436457e-07 2.4413222e-07 7.5312937e-07
2.2284482e-07 3.0649616e-08 1.310955e-06 6.912271e-07 9.528565e-08 1.2408734e-06 1.4928699e-07 4.5767045e-08
1.8135115e-07 3.048883e-09 1.6345974e-06 1.2524351e-06 3.5062737e-07 1.2852321e-06 1.3014256e-06 5.7770995e-07
5.2760206e-06 8.25055e-08 5.1849015e-06 7.13911e-07 7.4238354e-10 1.4598744e-07 1.4751899e-05 8.6042684e-07
7.237739e-07 1.2526944e-09 7.626686e-07 1.5709439e-07 4.6818357e-07 1.16064996e-07 5.8911246e-07 1.00640015e-07
3.7178168e-06 1.003104e-06 7.4760834e-07 4.5009037e-06 5.298217e-07 7.362142e-08 3.530772e-08 2.052709e-08
1.0630739e-07 1.2795459e-06 3.7846328e-07 1.05714086e-07 4.6908248e-08 7.714933e-10 4.3890776e-07 1.0093478e-06
2.04787e-06 1.1537277e-08 1.0199118e-08 2.0122535e-07 5.0561704e-07 2.9392191e-07 7.256447e-08 2.822875e-09
3.326398e-07 2.4628207e-06 2.3690843e-11 9.240772e-07 5.6325073e-09 2.3531554e-08 5.3898566e-06 7.0896434e-08
2.786577e-07 6.102076e-06 3.737142e-07 1.5391919e-07 3.453651e-07 1.7351037e-07 6.1252933e-07 2.9453827e-06
6.259255e-07 7.9913076e-07 5.3302745e-07 3.8863482e-07 3.103082e-06 1.866568e-06 6.168455e-06 2.0565324e-07
5.0410822e-08 5.4845026e-07 5.9172576e-06 1.6575801e-06 7.0073713e-07 3.6290395e-09 8.0525615e-07 4.924413e-06
4.7014166e-09 2.3936675e-06 9.339676e-08 7.630301e-08 1.0078674e-05 3.3659873e-07 4.4057805e-07 1.0012346e-05
5.8643514e-07 2.0484607e-07 6.9968124e-08 5.3246065e-08 1.9330065e-08 9.836889e-08 2.5025673e-07 9.222368e-08
1.3903765e-07 5.1576325e-08 1.3487411e-06 1.7177048e-07 7.468059e-07 1.0428171e-07 2.765966e-08 3.5600536e-07
2.652606e-06 2.2010882e-07 2.3863224e-08 1.0058135e-09 5.3380397e-08 2.7488622e-06 1.3183636e-07 1.9878744e-06
3.719195e-09 3.1211596e-09 6.44956e-07 2.4425697e-07 3.6697116e-08 3.0834601e-06 7.973732e-08 8.52928e-09
9.190436e-09 1.5420714e-14 6.5235377e-09 7.350739e-08 3.8627306e-08 1.2157415e-07 1.03906565e-07 7.3889685e-09
2.280404e-07 2.3653053e-09 4.758277e-14 8.148658e-08 1.04987e-11 3.0846863e-09 6.773738e-07 6.496943e-09

exp_avg f4 [30]
00000000: 990a 70b3 40c5 7fba b2dc 96ba f419 42ba
00000010: 2864 78bb d62d de3a 78b4 e839 2d06 a9b9
00000020: 230a ab33 0ce8 5db9 f614 80ba a060 f037
00000030: 1350 903a 682b 0b3b cbe6 6d37 ca28 1b39
00000040: 428a 6e36 0600 a5b9 229c 67b9 98d0 eb3a
00000050: 20a1 5d37 fc5e ed37 7a58 443a 0400 0000
00000060: 7932 9f3a ec72 51ba bc4f 763a aa8d 6938
00000070: 46cc 8039 801d b9b9
-5.5888993e-08 -0.00097568706 -0.0011509864 -0.000740438 -0.0037901495 0.0016950916 0.00044384948 -0.00032238793
7.964652e-08 -0.00021162647 -0.0009771872 2.8655224e-05 0.0011010192 0.002123559 1.41800365e-05 0.00014797147
3.554524e-06 -0.0003147127 -0.0002208804 0.0017991243 1.3210141e-05 2.8296832e-05 0.00074899907 6e-45
0.0012145779 -0.0007989842 0.00093960366 5.5683464e-05 0.00024566258 -0.0003530793

exp_avg_sq f4 [30]
00000000: 89ca 3736 d093 ca36 28c7 7f36 d49c b637
00000010: 4c98 2d38 04be c737 6336 8e38 6d11 5f37
00000020: 0d9f 9435 5c4b e735 ff50 b637 13fc cd35
00000030: f3f1 0536 e49e 7a37 6cb7 7237 a8bb 2436
00000040: 58c3 2537 29e1 9f36 41a4 f135 44d1 4a36
00000050: c2a8 3936 57bb a334 1182 b338 1d39 bc26
00000060: ee50 0138 8306 1538 f3a0 a737 1913 7f36
00000070: fbd6 fb35 be6c bc36
2.7387016e-06 6.0372768e-06 3.8113885e-06 2.176912e-05 4.138825e-05 2.3811132e-05 6.781218e-05 1.3295893e-05
1.1073149e-06 1.7232774e-06 2.1733807e-05 1.5347053e-06 1.9959377e-06 1.4938156e-05 1.446703e-05 2.4547135e-06
9.880248e-06 4.7647814e-06 1.8003703e-06 3.0222154e-06 2.7665378e-06 3.0497424e-07 8.559612e-05 1.3060601e-15
3.083137e-05 3.5530433e-05 1.99829e-05 3.8009077e-06 1.8763525e-06 5.615496e-06

exp_avg f4 [2, 30]
00000000: 6c9e 2732 34ed abb9 f2db 7eb9 08aa bf39
00000010: bfb3 b7ba 0a7d 5eba b255 5dba c9d3 ec39
00000020: 6150 ad31 9030 6438 ec08 d8b9 78fb 10b9
00000030: 3309 bab9 7c1b 80ba e841 a7b6 b350 09b9
00000040: f8ac 85b7 8c93 2c39 a12a 3339 dce4 abb9
00000050: 30cd 6036 8f5e 8bb7 f030 8fb8 0400 0000
00000060: a60c 6bba 00d5 2db7 d5c8 85ba 45f1 ccb7
00000070: e22d bab8 9067 7039 f57b e4af bd90 ccba
00000080: 5ef3 2fba 54ef 65ba fc3f 5abb 2455 d9ba
00000090: e814 6eb9 5f02 6238 01d5 9732 1c5c 2bb8
000000a0: 4e43 09bb 5659 45ba 9a13 05ba 647d 62ba
000000b0: e1bf 7bb6 72cf 9fb8 ea1b 66b6 ef85 8ab9
000000c0: 58fb c8b8 d555 9eba 00dc b635 0d80 e9b8
000000d0: d850 fbb8 0400 0000 bdfb 8bba 579d 13bb
000000e0: 565c 68ba cfbc dcb7 0f2c 04b9 ec20 a9ba
9.7567e-09 -0.00032792392 -0.00024305264 0.00036557042 -0.001401536 -0.000848726 -0.00084432506 0.0004517122
5.0441007e-09 5.4404663e-05 -0.00041205378 -0.0001382659 -0.00035483539 -0.0009773816 -4.9846603e-06 -0.00013095401
-1.593538e-05 0.00016458164 0.00017086651 -0.00032786175 3.3498036e-06 -1.6614124e-05 -6.827887e-05 6e-45
-0.00089664233 -1.03611965e-05 -0.0010206947 -2.4431045e-05 -8.8777175e-05 0.00022926764 -4.1561035e-10 -0.00156071
-0.0006711985 -0.00087713194 -0.0033302298 -0.001658116 -0.00022705237 5.3884807e-05 1.7675577e-08 -4.085536e-05
-0.0020944658 -0.00075282657 -0.0005076468 -0.00086399005 -3.7513603e-06 -7.6203505e-05 -3.428892e-06 -0.000264212
-9.5835596e-05 -0.0012080023 1.3624085e-06 -0.00011134157 -0.00011983671 6e-45 -0.0010679882 -0.0022524202
-0.0008863857 -2.6313965e-05 -0.00012604914 -0.0012903488

exp_avg_sq f4 [2, 30]
00000000: b7ff 2735 570b 8c36 d78a 2735 c052 7038
00000010: 9d15 4637 f32d 9c37 c748 b538 982b 8536
00000020: 4485 cd32 a491 9b34 b8e5 ce36 7faa 5b35
00000030: 37ff 0b35 2086 2736 caaa 8f36 6014 b236
00000040: 79ab c136 c33b 1c37 8aea c735 f0b6 ef34
00000050: 4333 1a35 b84d af34 92fa 6038 5b04 d022
00000060: 9749 6938 a49e 0338 a7a0 5938 ce38 8d34
00000070: e72f b734 34a8 b936 d80a 1b36 3b4d 3f37
00000080: 519a 7c35 0588 0739 a4c6 0338 3fc7 f537
00000090: 5da5 2c39 94ad a936 c1df 9a33 2b09 b334
000000a0: 4c92 8937 b8c5 a635 2bdd 7c35 33a8 bc36
000000b0: 79de c936 c841 1a37 9f4a 0e37 8744 ae37
000000c0: a861 1236 e5d9 1d35 fe2e 8235 8656 eb34
000000d0: bd55 cc38 b98a c724 4467 c038 8b5a a038
000000e0: bb56 b038 7192 e934 83a0 2235 d8f6 0137
6.258446e-07 4.1736453e-06 6.2414387e-07 5.7297526e-05 1.1806752e-05 1.8618046e-05 8.6443084e-05 3.968784e-06
2.3925743e-08 2.8976967e-07 6.166021e-06 8.183196e-07 5.215292e-07 2.496301e-06 4.2816146e-06 5.3071853e-06
5.7718103e-06 9.312239e-06 1.4894915e-06 4.4650324e-07 5.7444066e-07 3.2652838e-07 5.3639124e-05 5.6383125e-18
5.5620065e-05 3.138058e-05 5.188645e-05 2.6304627e-07 3.412126e-07 5.533011e-06 2.3103112e-06 1.1402469e-05
9.4101875e-07 0.00012925274 3.1417832e-05 2.9299057e-05 0.00016464801 5.0567996e-06 7.2118844e-08 3.334802e-07
1.6399797e-05 1.2425508e-06 9.419916e-07 5.6224176e-06 6.016166e-06 9.194431e-06 8.481234e-06 2.0774327e-05
2.1812539e-06 5.8804136e-07 9.699431e-07 4.3835115e-07 9.743448e-05 8.65375e-17 9.174508e-05 7.6462595e-05
8.408489e-05 4.3506182e-07 6.058328e-07 7.746472e-06

exp_avg f4 [2]
00000000: d4e3 3abb 5214 26bc
-0.0028517144 -0.010136681

exp_avg_sq f4 [2]
00000000: ccb6 553a df00 cc3a
0.0008152544 0.0015564224
