pred_logs_lstm/86077_pred48/epoch=6-step=1918.ckpt (torch, 7474 bytes, 12 tensors)

lstm.weight_ih_l0 f4 [4, 11]
00000000: 87f1 7bbd 7fa5 9dbf b9e3 063d 90c8 fdbc
00000010: 1515 aebf f94f 27bf cc73 843d 939e 33bd
00000020: f1e7 2bbe 33ab 28c0 d36f 6abe 5098 84be
00000030: 9255 46be 6ea8 8cbf 869c 403e 9f29 0b3e
00000040: 24ff a33e a2f2 123f a535 9e3e a6e7 773f
00000050: 2044 f63c ad2f 81bf b959 12bf e2fc ae3f
00000060: e62b 3e3e 5350 293d 6c1f cf3e 53f2 e83e
00000070: 4792 40be 17b0 233f aca6 b5bf 2962 8bbf
00000080: 9057 903d 12ca 13bf 946b 9bbf 9243 003e
00000090: d4bb cc3b a130 0c3f 6731 39bf 187d 62be
000000a0: 4168 f9be c384 143e f1fe 4c3f ce3b 5d3d
-0.061509635 -1.231613 0.032932017 -0.030979425 -1.3600184 -0.65356404 0.06467399 -0.0438524
-0.16787697 -2.6354492 -0.2289422 -0.25897455 -0.1936858 -1.0988901 0.18809709 0.13590096
0.32030594 0.5740148 0.30900303 0.9683784 0.030061781 -1.0092674 -0.57168156 1.3670924
0.18571433 0.04133637 0.4045366 0.4549738 -0.188058 0.63940567 -1.4191489 -1.0889331
0.07047951 -0.5773021 -1.2142205 0.12525776 0.006247977 0.547617 -0.72341007 -0.22118032
-0.48712352 0.1450377 0.8007651 0.054012112

lstm.weight_hh_l0 f4 [4, 1]
00000000: f84e 2939 5f45 1bbe 57c9 0bbe d5ac 813f
0.00016146514 -0.15163182 -0.13651024 1.0130869

lstm.bias_ih_l0 f4 [4]
00000000: 9a8b 113f b9b3 5dbf 8009 ffbe 75be 93bd
0.5685364 -0.8660236 -0.49811935 -0.07214061

lstm.bias_hh_l0 f4 [4]
00000000: 6ee7 afbe 67d7 51bf 3c71 3fbf 51be 2bbf
-0.34356254 -0.819693 -0.74782157 -0.67087275

exp_avg f4 [4, 11]
00000000: cc65 04bb 20f0 2d37 8133 7c3a 1462 85ba
00000010: 1823 8f38 4c37 b8ba e0ea f6b7 ae34 9539
00000020: 3229 1839 50f2 e33a 2017 8a37 538c b1b9
00000030: e8bd f437 3e21 0f39 51db 29b9 ac2c f2b7
00000040: b4c3 82b9 7227 2c38 2899 a7b6 4c14 f137
00000050: 074a 8f39 a690 91b8 2c0e 6a39 b4c4 26b7
00000060: 0cdf 13b8 ed43 e438 a060 c637 f767 1d38
00000070: e437 d3b7 104a c1b8 0535 cfb7 aa81 8db9
00000080: 806b b6b8 f5cd 7dba d999 c0b8 355f 043a
00000090: 74f1 fab9 2e6c c7b8 365b 2bba 33ee 0839
000000a0: 3713 7939 f8e4 0039 e04a 4e3a 8047 5d38
-0.0020202277 1.0367512e-05 0.0009620712 -0.0010176324 6.825308e-05 -0.0014054566 -2.9434857e-05 0.00028458744
0.00014511196 0.001739094 1.646165e-05 -0.0003386462 2.9175499e-05 0.00013649926 -0.00016198798 -2.886945e-05
-0.00024941342 4.1044732e-05 -4.9948176e-06 2.873889e-05 0.0002733024 -6.941082e-05 0.00022321258 -9.94017e-06
-3.525526e-05 0.000108845394 2.3648434e-05 3.752854e-05 -2.5179186e-05 -9.2167524e-05 -2.4701012e-05 -0.00026990223
-8.69846e-05 -0.0009681874 -9.18393e-05 0.00050495873 -0.00047863612 -9.5092095e-05 -0.0006536724 0.00013058707
0.00023753649 0.00012292329 0.00078694336 5.2757096e-05

exp_avg_sq f4 [4, 11]
00000000: a459 bb37 4034 4636 960f fd36 f16f c536
00000010: 10f0 3636 eed7 6337 ce7b dc35 a93c 3b35
00000020: 1a5e a234 8b51 6337 f2e6 5035 c287 c536
00000030: 48fb 6935 c0e7 0b36 4a52 be35 c564 3135
00000040: de9b 8436 b83a f234 31de 4234 e4db c033
00000050: 2af7 3136 1ba5 4535 3f57 db38 7035 1337
00000060: 3733 c337 739f e137 bfca f836 8172 5838
00000070: ee50 a736 13b8 b536 8f1a df34 8ab7 4538
00000080: a13f 1437 5eaa 8438 5bc9 2937 6b4c dd37
00000090: aef1 a037 dbc9 0c37 bf53 5038 e0de 9a36
000000a0: 3db7 0036 6fc3 5735 8365 cd37 2da6 8d36
2.233388e-05 2.9534713e-06 7.541802e-06 5.884089e-06 2.7259848e-06 1.3580529e-05 1.6427309e-06 6.97512e-07
3.024332e-07 1.354924e-05 7.782211e-07 5.886862e-06 8.7164926e-07 2.084751e-06 1.4180052e-06 6.608428e-07
3.952052e-06 4.5118736e-07 1.814849e-07 8.9806946e-08 2.6518924e-06 7.362848e-07 0.000104589846 8.774325e-06
2.326966e-05 2.689634e-05 7.4145787e-06 5.1605053e-05 4.9864093e-06 5.4156494e-06 4.155631e-07 4.7139394e-05
8.836302e-06 6.325984e-05 1.0120067e-05 2.6380838e-05 1.9186027e-05 8.391648e-06 4.966906e-05 4.6155037e-06
1.9180145e-06 8.0378135e-07 2.4485174e-05 4.221473e-06

exp_avg f4 [4, 1]
00000000: 5e47 a2b9 67d9 97b8 7acf 8b37 fc6e 6ab9
-0.0003095222 -7.2407354e-05 1.6666705e-05 -0.00022357324

exp_avg_sq f4 [4, 1]
00000000: 4b8b 1e36 8664 7835 d8de 4736 f805 1d37
2.3624914e-06 9.253348e-07 2.9783023e-06 9.359319e-06

exp_avg f4 [4]
00000000: f1ed 033b fb17 b139 0bda 68b9 0617 7e3a
0.0020130838 0.00033777938 -0.00022206471 0.0009692762

exp_avg_sq f4 [4]
00000000: 2d2b be37 2704 c936 dea9 dd38 fd87 8838
2.266987e-05 5.99075e-06 0.000105697414 6.510315e-05

exp_avg f4 [4]
00000000: f1ed 033b fb17 b139 0bda 68b9 0617 7e3a
0.0020130838 0.00033777938 -0.00022206471 0.0009692762

exp_avg_sq f4 [4]
00000000: 2d2b be37 2704 c936 dea9 dd38 fd87 8838
2.266987e-05 5.99075e-06 0.000105697414 6.510315e-05
